trained_models/_lvl1_ep100.pt (torch, 686304 bytes, 8 tensors)

fc1.weight f4 [512, 10]
000000 50 f6 cd bd 5f 25 89 be f9 34 9f 3e a8 19 1b be
       -0.10056746 -0.26786324 0.31095102 -0.15146506
000010 80 3a 13 3c 36 08 01 3e 30 b4 ef 3d d0 e3 a2 bd
       0.008986115 0.12600788 0.1170429 -0.07953608
000020 98 81 33 bd 80 b0 e9 bd ed 0e da 3d 50 52 f9 3d
       -0.043824762 -0.11410618 0.10647378 0.12173903
000030 06 55 1b be c4 f2 a4 be 3d 72 06 3e 64 e7 7c 3d
       -0.15169153 -0.32216465 0.13129516 0.06174411
000040 b9 f3 b4 3e 13 e3 24 be fb 92 45 3d 47 86 f6 3d
       0.35342196 -0.16102247 0.048235875 0.1203733
000050 de 95 9c be 55 83 98 be 6a cb 0c be 00 40 2f bc
       -0.3058309 -0.29787698 -0.13749471 -0.010696411
000060 f4 24 90 bd 42 11 37 3e 76 71 61 3e 06 e5 41 3e
       -0.07038298 0.17877677 0.22015938 0.18935022
000070 9a 75 20 3e f2 81 9a bd 02 16 e6 3d 39 9f c0 bd
       0.15669861 -0.07544316 0.112346664 -0.09405369
000080 e9 73 a6 3d 57 d5 05 3e a0 2b 85 bd 28 c9 de 3e
       0.08127577 0.13069664 -0.065024614 0.43512845
000090 7e 85 7f 3e d2 ed 4f 3e 76 b1 3b 3c dd 12 11 be
       0.24953267 0.20305565 0.011455884 -0.14167352
0000a0 9f cb 1f be 17 80 04 bb 2d b1 7d be 6f a1 8e 3e
       -0.15605019 -0.002021795 -0.24774618 0.2785754
0000b0 22 85 80 3e c7 47 36 3e 27 65 a6 3d 04 ab 19 3d
       0.25101572 0.17800818 0.08124762 0.03751661
0000c0 ba 24 93 be 5c 2d 00 3e 9b 9a 88 3d b4 8f 34 be
       -0.28738958 0.12517303 0.06670114 -0.17632943
0000d0 af 8b 26 be 0f 5d a9 3e e5 d1 34 bc 67 c2 ec bd
       -0.16264223 0.3307881 -0.011036371 -0.11560517
0000e0 a5 d2 b0 3e ca 71 76 be 06 c2 87 be dc e7 01 3e
       0.3453571 -0.24066845 -0.26515216 0.12686104
0000f0 70 ca 33 3e 80 74 27 3d 1c 7f c5 3d d4 4a 7a be
       0.17557693 0.040882587 0.09643385 -0.24442607
000100 48 81 96 be 98 bd 76 be 01 35 79 be e2 6d 28 3e
       -0.2939551 -0.24095762 -0.24336626 0.16448167
000110 b0 c1 17 be 24 ce 98 be 62 ca 12 be 7c b8 88 3d
       -0.1481998 -0.29844773 -0.14335015 0.066758126
000120 00 81 26 bd 60 47 1e 3d d2 ae a5 bd c0 6c 93 bb
       -0.040650368 0.038642287 -0.08089985 -0.004499048
000130 2a da 74 3e 70 8b 6a bd 0a 35 39 3e 28 4e 88 bd
       0.23911348 -0.057261884 0.18086639 -0.06655532
000140 60 29 1a be d8 55 48 3e 27 89 02 be 5d b0 a5 be
       -0.15054846 0.19563997 -0.12747632 -0.32361117
000150 ae e6 58 bd 48 cc bd 3e 76 e4 d4 3e 79 66 25 3e
       -0.05295437 0.37069917 0.41580552 0.16152371
000160 8b be 35 3c ad ea db bc f2 10 98 be eb a2 04 be
       0.011092792 -0.0268453 -0.29700428 -0.12952773
000170 b0 ad 66 3d 64 50 2e be 6c 2e 90 be 46 43 2c 3e
       0.056317985 -0.17022854 -0.28160417 0.16822538
000180 e0 af 06 be 7e 28 a1 be 76 a0 7c 3e 1c 11 a6 3d
       -0.13153028 -0.31476206 0.24670586 0.08108732
000190 9c 2c c2 bd 21 7c 95 be d6 e0 64 be c6 f8 14 be
       -0.09481165 -0.29196265 -0.22351393 -0.14548025
0001a0 50 cf 74 3d be fd f6 bd c5 f9 95 be d8 c9 38 be
       0.05976802 -0.12060116 -0.29292122 -0.18045747
0001b0 92 5f 98 be 1a 05 3b 3e be 85 91 be d4 9d 55 be
       -0.29760414 0.18263665 -0.2842235 -0.20860988
0001c0 a0 8a 74 be 90 72 49 be ee ac 51 3e ee 0d 7a 3e
       -0.23881006 -0.19672608 0.20476124 0.24419376
0001d0 55 9d 9e 3e 60 d7 d4 bc ce 30 79 3e 15 0d 31 be
       0.3097941 -0.025981605 0.24335024 -0.17290147
0001e0 8e 18 b1 3d 2a 36 78 be ec 8c 4f 3e 7c 0c 76 3c
       0.086472616 -0.24239412 0.20268601 0.015017625
0001f0 54 da f7 3d 60 c6 df 3d c7 a5 89 be 87 d2 81 3e
       0.1210219 0.10926509 -0.2688429 0.25355932
000200 2a 9a 39 3e 78 e0 96 bd 50 35 5e be a6 4c 0e be
       0.18125215 -0.07367033 -0.21700025 -0.13896427
000210 c8 0b 40 be 7c fb 02 3e ff b0 9d 3e a0 2b 6d bd
       -0.18754494 0.12791246 0.307991 -0.057902932
000220 e0 23 c5 bd 64 3b 1f be b8 80 24 bd c8 dc 5b 3d
       -0.09625983 -0.1555 -0.04016182 0.05367735
000230 15 42 85 be 03 32 34 3e 34 5f 85 3e 17 cc df bd
       -0.2602698 0.17597203 0.26049197 -0.10927599
000240 1c d5 11 be c3 27 e4 bc 6d fc 05 bf 6b e5 1b be
       -0.14241451 -0.027850991 -0.52338296 -0.15224235
000250 9f 21 75 bc 9a 6f 1f 3e 82 6c 83 be 5e 11 db 3d
       -0.014961629 0.15569916 -0.25668722 0.10696672
000260 ca 54 51 be a2 71 b1 bc 8e fa 2e 3e 83 6c cf 3a
       -0.204425 -0.02166063 0.17087767 0.0015825186
000270 1f 9e 82 3e e6 c0 44 3e 25 96 5d 3e 50 56 53 bd
       0.25511262 0.1921421 0.21639307 -0.051595986
000280 f7 27 17 3e 18 fb 3c 3d e7 65 4f 3d 25 7f 3f be
       0.14761339 0.0461379 0.05063429 -0.18700846
000290 d1 ee b1 be ae 87 88 3d 01 26 92 bd d0 b7 e4 bc
       -0.34752515 0.06666504 -0.07136155 -0.02791968
0002a0 35 89 5f 3e f6 ae 46 be 80 10 2c 3c c6 c8 fd bd
       0.21829684 -0.1940268 0.010501981 -0.1239181
0002b0 95 99 9d 3e 4f 24 9f 3e 86 da 4b be b6 48 5f 3e
       0.30781236 0.3108239 -0.19907579 0.21805081
0002c0 86 e0 06 be df c7 74 be 6a f4 88 be 69 38 30 be
       -0.13171586 -0.2390437 -0.26748973 -0.17209019
0002d0 fe ce 67 3e 32 1e 0d 3e 2b fb 8c be e1 2c 8e 3e
       0.22637555 0.1378105 -0.27535376 0.27768615
0002e0 59 15 9d 3e 5a b0 4a 3e 88 45 10 bd 20 08 a5 3c
       0.3068035 0.19793835 -0.03522256 0.020145476
0002f0 bd a3 84 be 27 28 8a be e3 86 32 be 44 e8 53 3e
       -0.25906172 -0.2698376 -0.17434268 0.20694071
000300 e5 3d 87 3e 9e fb bf bd 46 2b 83 bd b7 03 a9 be
       0.2641441 -0.09374164 -0.06404738 -0.33010647
000310 64 76 04 3d 63 6c ab 3e e7 35 91 3e 0f 29 a7 be
       0.03233947 0.3348113 0.28361437 -0.32648513
000320 87 c3 f7 3d 1e 41 21 3e 2a 7f b2 bd fe 4b 59 3d
       0.12097841 0.15747496 -0.08715661 0.053050987
000330 92 34 2a be 48 6a ad be bf e8 93 bc 76 2c e5 bc
       -0.16621616 -0.3387015 -0.018055318 -0.027975302
000340 af 2f 49 bd 11 bb 7e 3e 80 fb 58 3e c0 ef 0f be
       -0.04911774 0.24876048 0.2118969 -0.14056301
000350 8c f8 a6 be 81 99 3c 3d 3d de 1f be 81 5f 15 be
       -0.326115 0.04604483 -0.15612121 -0.14587213
000360 d9 b5 d0 bc ad a0 18 3e 77 25 98 3d eb 2c 9b 3e
       -0.025477337 0.14905043 0.07429021 0.30307707
000370 3c b6 2b 3e ec 6a 9f be 61 d4 ab be 62 d6 99 3e
       0.16768736 -0.31136262 -0.3356047 0.30046374
000380 41 13 0a be 9d dc 93 3e b7 22 e9 bd f4 61 2d 3e
       -0.13483907 0.28879252 -0.113835745 0.16931897
000390 f9 c4 7e 3e c3 dc 12 3e 30 30 a3 3d c3 83 88 3e
       0.24879827 0.14342026 0.079681754 0.26663026
0003a0 8b 5d 51 bd 95 eb 94 3e a6 c4 87 be 8e bc 97 3d
       -0.0511146 0.29085985 -0.26517218 0.07409011
0003b0 fb 67 80 3e ec 76 6b 3e b6 cb a5 be 51 7b 28 3e
       0.2507933 0.22994584 -0.32381982 0.16453291
0003c0 ec 78 8d 3c 59 07 34 be 76 c2 17 3e 56 bb 80 3d
       0.017269574 -0.17580928 0.14820275 0.062857315
0003d0 e1 47 74 3e 1b 21 05 bf 08 47 c9 be d1 af 26 3c
       0.23855545 -0.5200364 -0.39312005 0.010173754
0003e0 b5 79 81 3e f7 ad ab bc 0d 9b 4a 3e 23 82 bd be
       0.25288168 -0.020956976 0.1978571 -0.3701335
0003f0 1d 37 a6 be 1a 69 f1 bd bf a7 d5 3d 9d b9 55 3e
       -0.32463923 -0.11787625 0.10432386 0.20871587

fc1.bias f4 [512]
000000 9c df eb bd c7 96 e0 3c 50 ff 05 3e 45 2e 8f 3c
       -0.115172595 0.027415646 0.13085675 0.017478118
000010 73 dc 8c 3e b5 05 76 3e d0 38 33 3d 80 67 b7 bd
       0.2751194 0.24025615 0.043755352 -0.08955288
000020 b2 3f da 3d 20 71 31 bd 12 7d e8 bd c0 df a6 3c
       0.1065668 -0.043320775 -0.1135198 0.020370364
000030 d1 49 d8 bd f0 42 81 bd 4d dd 82 3b 81 3c 58 3e
       -0.10560954 -0.063115954 0.0039936663 0.2111683
000040 8f 2c e8 3d 9c 92 1c be c0 fd 88 be 56 3b 95 bd
       0.11336624 -0.15290302 -0.26756096 -0.07286708
000050 5c a3 a0 bd 3b 88 e1 3c 37 dc 2b bc fb 7f ca 3d
       -0.07843658 0.02753078 -0.010489515 0.098876916
000060 4b 7c d6 3d 7a a0 0e 3e 61 4b 98 bd 3a b8 38 be
       0.10472926 0.13928404 -0.074362524 -0.18039027
000070 85 f7 a0 be 71 02 ac 3d 42 c6 77 be e0 6e 96 3c
       -0.31438842 0.08398903 -0.24196723 0.018363416
000080 e9 d2 ce bd 60 e8 a7 bc 2c 1f 93 be 46 e0 54 be
       -0.10098822 -0.020496547 -0.2873472 -0.20788679
000090 c4 b8 35 be ca 26 7f be f1 f5 6c 3e 6c 43 27 be
       -0.17746264 -0.2491714 0.23140694 -0.16334313
0000a0 d3 86 43 bd da b3 71 3e 28 f9 07 be f3 f1 7e 3e
       -0.047736 0.23603764 -0.1327864 0.24896984
0000b0 2d fb 11 3e 20 da 40 3d 32 b8 79 3e 23 28 c7 bb
       0.14255972 0.04708302 0.24386671 -0.0060777827
0000c0 7e 2b a3 3d 46 4b a5 bd 53 50 48 be d9 70 18 be
       0.0796728 -0.08070998 -0.19561891 -0.14886798
0000d0 e4 6a 8a 3d cd d6 40 3d 01 3a ea bc cb 1f ec bd
       0.06758669 0.04707985 -0.028592112 -0.115295015
0000e0 fd c1 15 be 92 a0 fc bd c4 54 fb bd 3b 1c 9c be
       -0.14624782 -0.12335314 -0.12272027 -0.30490288
0000f0 4e 0d 34 be 43 ed 94 bd 4d 77 ea bc c2 fe 55 3b
       -0.175832 -0.072718166 -0.02862134 0.0032653068
000100 da 8d 88 be 0f 67 8b be 81 bb 8a bd 14 d4 16 3e
       -0.26670724 -0.27227065 -0.06774045 0.14729339
000110 cb 31 b1 bc 97 9a 74 3e 3a 4b b4 3d 40 c5 d8 3b
       -0.021630188 0.23887096 0.08803411 0.006615311
000120 eb b7 3e 3e c5 6c 28 3e c7 96 65 be 55 5d f4 3d
       0.18624847 0.16447742 -0.22420798 0.11931864
000130 09 40 69 bd 0b 3a 26 3d b6 87 c9 3b 51 5b 91 3d
       -0.056945834 0.040582698 0.006150211 0.07097495
000140 d4 f4 06 3e 1f 95 53 be da 68 26 be ec 0b a1 3e
       0.13179332 -0.20662354 -0.16250935 0.31454408
000150 54 78 9b bd 24 5e cc 3d 10 19 aa 3d 7e b2 4b be
       -0.0759131 0.099788934 0.083055615 -0.19892308
000160 0a 65 aa 3d 16 a4 f5 bd 46 ed 2b be 77 62 8c be
       0.08320053 -0.119941875 -0.16789731 -0.27418873
000170 14 d1 a1 3e f1 1a 18 3e 94 31 aa 3e 6f ac 81 be
       0.31604826 0.14854027 0.3324095 -0.2532687
000180 6f ca 1d be 39 3f a2 be 63 e4 a0 3e f4 d1 b1 3d
       -0.15409254 -0.3168886 0.31424245 0.086826235
000190 a1 27 0b 3e 5b 06 cf 3d 28 1a 79 3e 86 7e 80 be
       0.13589336 0.10108634 0.24326384 -0.2509653
0001a0 08 23 57 bd 96 64 53 3e ff c3 80 be 06 6f 35 3e
       -0.052523643 0.20643839 -0.25149533 0.17718133
0001b0 45 c9 86 be 2b c0 85 3e a0 e7 96 be 59 45 0e be
       -0.2632543 0.26123175 -0.2947359 -0.13893642
0001c0 36 cf df bb 55 16 d1 bd e8 4f 62 3d d3 88 02 bd
       -0.0068301214 -0.102093376 0.055251986 -0.031868767
0001d0 ba 55 38 3e 8b 8a 76 3e c8 c4 07 be 38 84 9d 3d
       0.18001452 0.24076287 -0.1325866 0.07691234
0001e0 e3 3e 7e bd 20 d8 b5 3c 70 38 5c 3d 0b bb 8e 3e
       -0.062071692 0.022197783 0.05376476 0.27877077
0001f0 ce 0f 38 3e 85 0a 17 be ab 6a e8 bb 8a 84 3f 3e
       0.17974779 -0.14750107 -0.007092794 0.18702903
000200 be 56 69 3e 3e f9 11 3e 1c 26 8f be df ea 79 be
       0.22786996 0.14255235 -0.27958763 -0.24406002
000210 12 1b 45 3d 43 9c 7b 3e 49 14 2a be 99 c6 92 be
       0.04812152 0.24571328 -0.166093 -0.28667143
000220 d8 46 99 be 02 0e f8 bc 9e bc 3b 3e 5f 65 9a be
       -0.29936862 -0.030280117 0.1833367 -0.30155465
000230 6a 8a 4c be 52 af 42 3e 43 eb b0 be bc ae 45 3e
       -0.19974676 0.19012192 -0.3455449 0.19304937
000240 17 a6 e8 bd 78 53 11 bd cb 68 74 be 4e ae 02 3e
       -0.11359804 -0.035479993 -0.238681 0.12761804
000250 90 34 02 3e 67 fa 9b be 80 82 ba 3d 18 7c 95 be
       0.12715364 -0.3046448 0.09106922 -0.2919624
000260 12 69 2f 3e 2b 25 52 3e 0b 03 26 3e ef b4 8e be
       0.17129925 0.20521991 0.16212098 -0.27872416
000270 d1 28 72 3e 87 ce a2 bd 13 17 2d be e6 43 5e 3e
       0.23648383 -0.07949548 -0.16903333 0.21705589
000280 43 7e 83 3e 90 66 14 3d df a6 33 be c5 47 45 be
       0.25682268 0.036230624 -0.17544125 -0.19265659
000290 8d 26 6f 3d b8 fb 7d bd 3d 30 72 be 10 2b b8 bd
       0.058386374 -0.062007636 -0.23651214 -0.089925885
0002a0 2f 70 2d 3d e3 80 96 3d f2 ac 6a 3e d8 79 45 3e
       0.042343315 0.07348802 0.22917536 0.19284761
0002b0 20 6c c8 3c c3 56 70 3e 7a d8 87 be cc f4 55 3e
       0.02446562 0.23470597 -0.26532346 0.20894164
0002c0 34 91 f1 3d c9 20 0f be 8b 4b 98 3c 65 20 11 3e
       0.117952734 -0.1397735 0.01859071 0.14172514
0002d0 be 96 6e 3e 09 d5 7c be bc 30 fa bd 3b fc 6c 3d
       0.23299691 -0.24690641 -0.122163266 0.057857733
0002e0 46 e6 0f 3d 52 50 df bd 47 43 1c be d3 4b da 3d
       0.035131715 -0.10903992 -0.1526004 0.106589936
0002f0 2a 35 fc bd 54 3e 09 be 85 59 2a 3e ac a0 a4 bd
       -0.12314828 -0.13402683 0.16635711 -0.08038458
000300 31 9f 4a 3e a2 a5 9a be fc 03 b9 3d 72 e3 7e 3d
       0.19787289 -0.30204493 0.09033963 0.062228628
000310 c1 70 1d 3e 14 6c 6e be 04 a7 74 be 04 85 1a 3e
       0.15375043 -0.23283416 -0.23891836 0.15089804
000320 27 17 b4 ba be 68 02 be 26 8c 92 3e 82 e2 92 3c
       -0.001373981 -0.12735268 0.2862255 0.017930273
000330 fe 99 5c 3e 6d 57 f1 3d 57 8e 1e be 64 e2 30 3e
       0.21543118 0.11784253 -0.15483986 0.17273861
000340 5c aa 29 be c9 37 ee bd dd 74 5c be 4e 88 14 3e
       -0.16568893 -0.11631734 -0.21528955 0.14505121
000350 90 c5 d0 3d 5c 30 60 3e b6 a2 c9 3d 25 eb 50 be
       0.10193932 0.21893448 0.09845488 -0.204022
000360 c5 79 37 bc 2c 5b 6b 3d 31 6a 9b 3d b8 04 ef 3d
       -0.011198466 0.057459995 0.07588614 0.11670822
000370 25 d9 bb 3c 88 cf c5 bd 1e 74 53 3e 72 d9 ea bd
       0.022930691 -0.09658724 0.20649764 -0.11467256
000380 13 33 6c 3e 27 89 b1 3d 0f d2 0f 3e 5a 21 18 3d
       0.23066358 0.08668738 0.14044975 0.03714118
000390 f5 e7 24 3e ea d3 36 be 53 de 03 3e dc 6f 6a 3d
       0.1610411 -0.17854276 0.12877779 0.057235584
0003a0 ae e0 0b bd 51 87 7b 3e c7 58 73 bd 52 23 93 bd
       -0.034149818 0.24563338 -0.059410837 -0.07184471
0003b0 c5 0b 36 3e 08 2b 2b 3e c9 73 17 3d fc 25 89 3d
       0.17777927 0.16715634 0.036975656 0.06696698
0003c0 8b a9 05 3e 34 2a 9c bd 78 7a d3 bd 90 d0 96 3d
       0.13052957 -0.07625237 -0.103260934 0.07363999
0003d0 fa f2 6c be a8 e1 21 be a1 bd bd be 45 6d 52 be
       -0.23139563 -0.15808737 -0.37058738 -0.20549496
0003e0 00 ee 9b 3c d8 62 6b 3c 34 47 9a 3d 3b 38 91 bd
       0.019034386 0.014366828 0.07533112 -0.07090803
0003f0 fc 8d 17 be c7 f3 42 3e 8e f4 55 3e cd 6e 6e 3e
       -0.14800256 0.19038306 0.20894071 0.23284455

fc2.weight f4 [256, 512]
000000 e8 9d 90 bb c5 bc c7 3b 0a 5c 0f bd 23 9d 1e bb
       -0.004413355 0.006095501 -0.034999885 -0.0024202548
000010 6a a4 13 bc df d0 63 bc 3c d4 c3 bc 30 bb 39 bb
       -0.009011367 -0.013904779 -0.023904912 -0.0028340332
000020 2d c7 05 be 8d 00 1a 3d 54 ed 40 bc 39 2a 0d bd
       -0.13064261 0.03759818 -0.011775333 -0.034464095
000030 43 e9 d0 3a d4 fd 38 bc 2a 44 8c 3c 51 56 0e 3d
       0.0015938658 -0.011290986 0.017122347 0.034750286
000040 5f 97 07 bc f7 bb a1 bc 18 ef bf 3b d0 0d 9e 3d
       -0.008275836 -0.019742949 0.0058573596 0.07717478
000050 98 3a 75 3d 80 7a 7b 3d 3c b7 74 3d 29 ab 18 3c
       0.059870332 0.061396122 0.05974506 0.0093181515
000060 e2 bf a8 ba 08 4a 15 3c 67 74 ea 3b d4 ab 2c 3b
       -0.0012874568 0.009111889 0.0071549895 0.0026347535
000070 de 76 ea 3c 9e 75 2f 3d 00 d5 8f 39 55 3c 0f bd
       0.028621133 0.042836778 0.00027433783 -0.034969646
000080 19 22 ac 3d d4 53 47 bc ca 13 ae 3b ea d4 a1 3c
       0.08404941 -0.012165982 0.0053124176 0.019754846
000090 fb cc 3d 3d 6e 00 8e bc 80 99 98 bd ad 76 82 3b
       0.046338063 -0.01733419 -0.07451153 0.0039814324
0000a0 6c a9 1d bd 2a 4b 87 bd 18 c3 71 bd 9d 67 a5 bc
       -0.03849165 -0.06606133 -0.059023947 -0.020191008
0000b0 49 c1 d2 3b 78 8b 9f 3b ec b4 f0 bb 70 fe 3b 3c
       0.006431733 0.004868921 -0.0073457863 0.011474237
0000c0 32 12 58 3c 7a 85 b3 bc e3 18 7c bd 1f 0b bf bd
       0.013187932 -0.021914233 -0.06154717 -0.09328293
0000d0 13 fa 9a 3d 56 4e 71 3c 2a 6e 82 3c f8 d4 09 3e
       0.07567229 0.014728149 0.015921671 0.13460147
0000e0 a4 7b ca 3a 9f 46 ad bd d0 63 49 bc b0 08 15 bd
       0.0015448225 -0.084607355 -0.012291864 -0.03638524
0000f0 66 5b 00 3d bc b2 97 3c c9 d7 75 3b ba 24 ee 3d
       0.031337164 0.018517844 0.0037512651 0.11628099
000100 9a 80 fa 3c 6c 98 a9 bd 44 26 ab 3c 55 a0 1f ba
       0.0305789 -0.08281025 0.02089227 -0.000608926
000110 fd 97 21 3b 09 cc 1a 3d 39 b4 9b 3d 34 37 40 3c
       0.0024657242 0.03779224 0.07602734 0.011731911
000120 3d 33 a8 bd d4 95 c1 3b 30 df 29 3d f1 bc 1f bd
       -0.08212898 0.0059077535 0.041472614 -0.038998548
000130 ae 0c 05 3d 4b 51 0c 3c 4a 0a 28 3d cf 89 d9 bc
       0.032482795 0.008564304 0.041025437 -0.02655497
000140 3b 66 8d bc d8 fc 14 bb fe 37 fe 3c a8 a3 aa bd
       -0.017260661 -0.0022733714 0.031032559 -0.08331996
000150 64 57 c6 bc ec a4 82 3d a2 1f 68 3d 34 9c 4d 3c
       -0.024211593 0.063791126 0.056670792 0.012549449
000160 13 57 ba 3a 8d af 31 3d 26 f4 1a bd 70 8a 34 3b
       0.0014216624 0.04338031 -0.037830494 0.0027548335
000170 e3 fa 58 3c 12 ce 14 3c ab 1d 28 3d 4f f6 1e bd
       0.01324341 0.009082334 0.04104392 -0.038809117
000180 05 76 0b bd 3f 24 f7 3d cb 25 8e bd 90 4c a6 bd
       -0.0340481 0.1206746 -0.06940802 -0.08120072
000190 23 89 31 bc 18 f4 fc 3c 30 08 0e bc 08 03 48 3c
       -0.010835919 0.030878112 -0.008668944 0.012207754
0001a0 6f e5 25 bd 79 46 01 3d 31 95 0b 3d a4 77 05 3d
       -0.040502008 0.03156135 0.034077827 0.0325848
0001b0 cd 62 08 3e 6e 16 cf bb 9a 0d a2 bc 60 68 00 bc
       0.1331894 -0.0063198125 -0.019781876 -0.007837385
0001c0 54 8d 92 bc 45 ee 72 bd 49 b7 c9 3c 95 4a 01 bc
       -0.017889656 -0.059309263 0.02462353 -0.007891317
0001d0 f1 fe 3d 3b 69 36 d2 3c c0 9d 6c bb 88 39 9a bb
       0.0028991068 0.02566071 -0.0036104769 -0.0047065653
0001e0 0c 9d ba bc 70 61 10 bd 9c f9 73 3c 1a 81 3c 3d
       -0.022779964 -0.035249174 0.0148910545 0.04602156
0001f0 98 f5 92 3c b3 8d da 3c 5d 3a 9d bd ca 20 99 3c
       0.017939374 0.026678896 -0.076771475 0.018692393
000200 71 94 0a bd 07 5f dd bc e0 af ef bb 14 95 2a 3d
       -0.03383297 -0.027022852 -0.007314667 0.04164608
000210 b5 44 84 3c e8 c7 db bd 52 3a d3 bc 23 37 a5 bc
       0.016146043 -0.107314885 -0.025784645 -0.020167893
000220 12 da 5a 3d 57 90 b9 3c a0 ca 18 3c 80 a2 ba 3c
       0.053430624 0.022651834 0.009325653 0.022782564
000230 d0 48 10 3b bf cc 90 3c 21 58 07 3d 3d c5 29 3d
       0.0022016056 0.017675756 0.03304303 0.041447867
000240 01 71 9c 3b d2 ff a1 ba a4 ec a2 3c d4 7d 02 bd
       0.0047742133 -0.0012359566 0.01988823 -0.03185828
000250 7c 4d 8a bc a2 c7 d6 3c c5 81 30 3d cc a8 36 3d
       -0.01688265 0.02621824 0.043092508 0.04459457
000260 22 6e 80 bd d6 02 3c 3d cc a6 bd bd 40 04 72 3b
       -0.06271006 0.045901142 -0.092603296 0.0036928803
000270 cd 12 03 bd a0 d4 84 ba f7 e4 0a 3c cf 7f 4b bd
       -0.03200035 -0.0010134168 0.008477441 -0.049682435
000280 be 91 3a bd f0 56 19 bc de e0 f9 bc 85 5a f9 bc
       -0.045549147 -0.009359106 -0.030502733 -0.03043867
000290 5d e6 2a bd 5e d5 1c bd 78 02 a3 bc 43 98 d3 3b
       -0.041723598 -0.03828942 -0.019898638 0.00645736
0002a0 56 ca 05 be c0 5d 19 ba 7d 05 06 bd 0e 84 ff bc
       -0.13065466 -0.00058504567 -0.032720078 -0.031190898
0002b0 59 b0 82 bc 6d a1 d3 3c a8 8d 05 bc 21 34 42 3d
       -0.01595323 0.02583381 -0.008151449 0.047412995
0002c0 78 f3 f4 3d 39 d8 19 be dc dd 67 bd 44 80 07 3d
       0.119605005 -0.15023889 -0.056608066 0.033081308
0002d0 13 07 31 bd b8 7a da bb 98 ad 0a bd 7f 1c 21 3e
       -0.043219637 -0.0066674612 -0.03385696 0.15733527
0002e0 ab 0a a9 3b 3c e0 94 3d e0 75 08 bb 42 78 08 bc
       0.0051587424 0.07269332 -0.0020822212 -0.008329453
0002f0 78 03 f3 3c 33 b8 9f 3d 37 e2 29 3d 90 92 07 3a
       0.02966474 0.07798805 0.0414755 0.0005171681
000300 0b 4f 01 3e 68 d9 0b bc 86 cd 3f 3b 68 74 94 3c
       0.12627809 -0.00853572 0.0029266789 0.018121913
000310 08 fc 46 bc 80 3d 79 3b 2b 80 08 bd 78 06 5e 3d
       -0.01214505 0.0038031042 -0.033325355 0.054205388
000320 21 1e 2b 3c 6a dd 94 bc f7 08 de 3c a5 e3 28 3d
       0.010444195 -0.018171985 0.027103884 0.041232724
000330 f1 9c 00 3d a0 b7 3f 3b e1 63 6c 3e d0 9b 44 bb
       0.03139967 0.0029253736 0.23084976 -0.0030000098
000340 6a ac 80 bc 10 e7 c0 bb f0 e0 e7 bc ed 23 4d 3b
       -0.015707213 -0.00588692 -0.0283055 0.003130193
000350 87 8d 25 3d c6 b6 7c 3d 56 05 4d 3c 25 54 15 be
       0.040418174 0.061697744 0.012513479 -0.1458288
000360 a0 02 68 3d b2 9d 6a 3d 8d 88 a1 3c 39 98 47 3d
       0.05664313 0.057279296 0.019718433 0.048729155
000370 f1 b7 8f bb 05 23 a1 bc 1e e1 78 b8 e5 4e c9 3d
       -0.004385941 -0.019670019 -5.9337464e-05 0.09829501
000380 fb de 41 3d ec 0c 2a 3e 46 0b 46 bd 83 13 e5 3d
       0.04733179 0.16606492 -0.048350595 0.11185362
000390 e4 01 e0 3c 08 f6 bd bb 50 87 ee 3d 45 0c 0f 3d
       0.027344652 -0.0057971515 0.116469026 0.03492381
0003a0 05 ea ba bb 92 a6 03 bd e4 20 13 3d 72 ff e2 3c
       -0.005704167 -0.032141276 0.03592004 0.027709696
0003b0 95 9d 6f bd 1d fb 87 bd 23 14 8e bd f1 f8 fe bc
       -0.05849989 -0.06639693 -0.069374345 -0.031124564
0003c0 f1 b0 e3 3c 71 e2 05 3d 9a 55 39 3d 64 4e 64 3c
       0.027794333 0.032686654 0.04524765 0.013934705
0003d0 00 a3 e5 bd ac ff 99 bc 29 6b 5c bd ad 22 ef bc
       -0.112127304 -0.018798672 -0.053813133 -0.02919134
0003e0 d4 e8 8f 3c 2c 47 09 bc 3f 26 35 3d 95 25 be 3d
       0.017567076 -0.008378785 0.044225927 0.09284512
0003f0 8f 61 17 3d 2d 6c 72 3d ec 94 aa bc 05 6b 0d bd
       0.036958274 0.059185196 -0.020822965 -0.03452589

fc2.bias f4 [256]
000000 e3 ed d3 3c 49 a9 3e bb 6e 9a 53 bb e5 75 3e 3d
       0.02587027 -0.00290926 -0.0032288092 0.04649915
000010 4f ba e4 bc 2a 15 47 3d 4a f4 11 3d e4 c0 37 bc
       -0.02792087 0.048604168 0.035633363 -0.011215422
000020 75 08 44 3d 6e fd f0 bc fc d1 01 bb 25 b6 e6 bc
       0.047859628 -0.02941772 -0.0019808998 -0.028163025
000030 dc b1 27 bd 14 46 c9 3c 08 8d 0e 3d 0b d7 03 3d
       -0.040941104 0.024569549 0.034802467 0.032187503
000040 2a 2c a3 3c 26 1a ba 3b 25 f4 18 3d 53 ed b7 3c
       0.01991852 0.0056793867 0.03734221 0.022452032
000050 7c e2 03 bc 32 bb b2 3c 87 3c 32 3d 5c 98 df 3c
       -0.008049604 0.021817777 0.043514755 0.02729433
000060 37 28 13 3c 8d c8 7f bb dd 09 d8 3c 0f 01 36 3d
       0.008981756 -0.003902945 0.02637189 0.044434603
000070 68 85 2c bd ce ee 02 3d 24 84 32 bd fa 54 4c 3d
       -0.042119414 0.031966023 -0.04358305 0.049885727
000080 66 e0 9c 3c 5c 71 4e 3d 54 fc 06 bd 55 64 bb bc
       0.01914997 0.050401077 -0.032955483 -0.02287499
000090 76 93 ab 3a 82 b9 c3 3c c0 7d 4f 3c 0d d2 05 bd
       0.0013090211 0.023892168 0.0126642585 -0.032671023
0000a0 67 eb 2d bc d0 43 14 3d 92 7c 4f bb 10 8d e9 bc
       -0.010615206 0.036197484 -0.0031659943 -0.028509647
0000b0 0d c8 d7 3b 4f 87 94 3c 58 8a 4d 3d c3 23 31 bd
       0.006585127 0.018130926 0.050180763 -0.043246996
0000c0 79 2d 27 3d 89 f2 1b bd e6 17 57 3d 54 6a 7c 3c
       0.04081485 -0.038073096 0.052513026 0.01540621
0000d0 8b ce 16 3c 37 c3 d0 3c 6e 27 bc bb 9a 5c 2c 3d
       0.009204517 0.02548371 -0.005742005 0.0420805
0000e0 91 ff b4 3c fd d5 6f bc fe f2 d5 bb 88 97 a2 3c
       0.02209452 -0.014638421 -0.006529211 0.019847646
0000f0 25 00 c9 3c b5 08 2e 3d 36 84 71 bc 00 fd f1 bc
       0.024536202 0.042488772 -0.014740994 -0.029539585
000100 ca 17 84 3c cb cf 89 3a b5 b1 20 3d bc d9 b8 bc
       0.016124625 0.0010514198 0.039231975 -0.022564761
000110 5f 4d 58 bc 6e 9f fd bc 4a a4 1b bd cb 70 27 3c
       -0.01320204 -0.030959811 -0.037998475 0.010219763
000120 34 2d e0 3c 39 55 96 bc 1d 40 14 3d 3a f9 4b 3c
       0.027365305 -0.018351184 0.036193956 0.012449557
000130 e6 41 10 bd dd 02 4e 3d f3 4c cb bc 24 99 ef bb
       -0.035219096 0.0502957 -0.024816966 -0.007311957
000140 df cb 9c bc e7 49 2e bd 58 d2 42 3d 45 d6 6c bc
       -0.019140182 -0.042550948 0.04756388 -0.014455383
000150 5d fd 37 3d 3c 01 db bc 0c d0 7f 3c 65 d5 d4 ba
       0.04491936 -0.026733987 0.015613567 -0.0016237913
000160 e7 72 0e bc 70 d6 71 3b 0c 24 04 3d 5d 0e 74 3c
       -0.008694387 0.0036901496 0.03226094 0.014896003
000170 99 7a 44 bd 42 34 78 ba 24 dd 44 bc 8e 53 7b bc
       -0.04796848 -0.0009468236 -0.012015615 -0.015339745
000180 5b 91 4a bb d0 ec 78 3c 8c 84 18 3d 46 8b 26 bb
       -0.0030909393 0.015193179 0.03723578 -0.0025412603
000190 c8 51 f2 bc fc 07 5d ba fd d9 0d bd a9 1a 27 3d
       -0.029580012 -0.0008431671 -0.034631718 0.04079691
0001a0 50 c7 01 bc 9d b4 85 3c 20 a8 b6 bb 1c 05 27 bc
       -0.007921055 0.016321475 -0.0055742413 -0.010194089
0001b0 09 da b8 3c 89 37 3e 3d be dc dc 3c ce 8c 84 3c
       0.022564905 0.04643968 0.026960727 0.016180422
0001c0 2e f1 28 3c 1a e3 92 3c e1 8f bc 3a 50 08 e5 3c
       0.010311408 0.017930556 0.0014386141 0.027958065
0001d0 90 06 62 3d dd 39 47 bd 5c 7c 86 bc 3e 98 ad bc
       0.05518204 -0.048639167 -0.016416721 -0.021190759
0001e0 82 6b 15 3d 03 dc 00 3d 56 47 31 3d 6a 24 b2 bc
       0.03647948 0.03145982 0.043280922 -0.02174588
0001f0 3d f1 52 3c 1b 58 c6 3a 13 33 de 3c d4 1e e6 3c
       0.0128748985 0.0015132459 0.027123963 0.028090872
000200 25 37 22 bd cc 93 e8 bc 74 46 36 3d 39 d0 da ba
       -0.03960337 -0.028390788 0.044500783 -0.0016694135
000210 19 99 89 bc 18 57 05 3d da 2d 07 bd 13 9c dc 3c
       -0.016796635 0.032553762 -0.03300271 0.02692989
000220 ad a6 26 bc d8 5a c0 bb a2 0d 0b 3b 48 c4 02 3d
       -0.010171575 -0.0058702044 0.0021217843 0.03192547
000230 e8 fb 17 bc 02 c0 0e 3c c4 21 04 3d a5 ef 77 3b
       -0.009276368 0.00871277 0.032258764 0.0037832048
000240 7a 70 8c bc ca ed 01 3d 0f 25 68 3d 22 be 83 3c
       -0.017143477 0.031720914 0.056675967 0.016081873
000250 9e 9e 8f 3c 96 5f eb bc c0 7b 21 bd f5 78 1d bd
       0.01753169 -0.028732102 -0.039424658 -0.03844543
000260 25 fd 28 3c 3e eb 22 3d 57 7f e7 3c 90 b7 d9 3b
       0.010314261 0.039775126 0.028258963 0.006644197
000270 49 24 fa bc 8b 79 0f bd a0 90 82 b9 c5 45 cb bc
       -0.03053488 -0.03502802 -0.00024903286 -0.024813542
000280 0d ba e8 3b 37 44 47 3d 55 bf 4b 3b 6c 63 34 bc
       0.007102257 0.04864904 0.0031089385 -0.011010032
000290 52 e3 ca 3c 57 00 8a 3c 7c 49 2f 3d ab f9 ed bc
       0.024766598 0.016845865 0.04279469 -0.029049715
0002a0 81 ae d9 b9 5d 87 a7 bc 2b c7 ea 3c f8 03 ab 3c
       -0.0004151948 -0.020450288 0.028659424 0.020875916
0002b0 52 38 0c 3d 7f f2 45 3d 2c 44 1c bd 0a fb 0b 3c
       0.0342334 0.048326965 -0.03815095 0.008543739
0002c0 22 f2 16 bd 33 4a df 3c cd e7 73 3c 96 a1 59 bc
       -0.03685201 0.02725706 0.014886809 -0.013283154
0002d0 46 dd 39 b9 62 37 ed 3c 32 bd 1c bc 56 da f3 bc
       -0.00017725406 0.028957073 -0.009566592 -0.029767197
0002e0 9e 0c 16 3d 1e 9c 13 3d 66 bc 40 3c c0 22 d4 bb
       0.036633126 0.036037557 0.011763668 -0.006473869
0002f0 e9 a1 ed 3c de de 0a bd 37 d2 e8 3c 36 9e d1 bc
       0.029007869 -0.03390395 0.02842055 -0.025588136
000300 f6 0b b4 3c 32 4e c5 3c 38 40 26 3c cc 09 1f bc
       0.02197836 0.024085138 0.010147147 -0.009706926
000310 e9 b2 8a bc ca 35 fd 3c 8b 3c c3 bc fd 81 9a 3c
       -0.016931014 0.030909438 -0.02383258 0.018860811
000320 e2 d1 a0 ba 07 b6 17 3d 93 e3 ce bb ba 4d 32 3c
       -0.0012269581 0.03703883 -0.00631375 0.010882789
000330 dc 5c cd 3c a2 20 3c 3d af bb 01 bd d8 14 d4 3b
       0.025068693 0.04592956 -0.03167313 0.0064722113
000340 86 63 2b bd 0c cf e6 3c 26 ea d2 3c 80 83 27 3d
       -0.04184296 0.0281749 0.025746416 0.040896893
000350 0d 5b 0a bd 48 e6 b6 3c dd af bb 3c fc 49 18 bc
       -0.03377824 0.022326604 0.022911007 -0.009294983
000360 0a a6 5d 3d a7 26 21 3d c0 1a ae ba 4f 39 e1 bc
       0.054113425 0.039343502 -0.0013283119 -0.027493147
000370 c0 01 b1 bc 87 a0 f3 3c f0 d2 07 bc c6 85 e1 3b
       -0.02160728 0.029739631 -0.0082900375 0.006882402
000380 55 2d ab bc 43 6e ba 3c 52 82 43 bc 0d a6 1f 3d
       -0.02089564 0.022757655 -0.011932926 0.038976718
000390 43 a2 4d 3d 37 7d 5d bc 4f 39 d9 bc e2 0c ad bc
       0.050203573 -0.013518623 -0.026516585 -0.021124307
0003a0 e0 a1 c6 3a 12 4e 2c bc 5d e1 15 3d b5 88 9b bc
       0.0015154444 -0.01051666 0.036591876 -0.018986085
0003b0 25 b5 04 bd e7 29 b4 3c a2 99 0a 3c a5 e4 f4 3c
       -0.032399315 0.021992637 0.0084594805 0.029894182
0003c0 27 73 49 bc cf 68 ec bc 69 6b 07 3d 38 25 51 bc
       -0.012295521 -0.02885857 0.03306142 -0.012765221
0003d0 d0 e1 da 3c 76 cf 96 3c 47 b3 d9 bc ab d2 0b 3c
       0.026719004 0.018409472 -0.026574744 0.008534114
0003e0 09 6f 18 bd 53 a8 b9 bc 66 23 f2 3c 8d 8f bb bb
       -0.037215266 -0.022663271 0.029557895 -0.0057238997
0003f0 c1 b2 be bb c0 e2 ab bb 1f 9f d3 3c 72 4a 87 3c
       -0.005819649 -0.0052455366 0.02583271 0.01651499

fc3.weight f4 [128, 256]
000000 7e 21 8d bd 0b 91 45 3d 47 5a 14 bd 40 f6 a3 3d
       -0.06891154 0.048234027 -0.036218908 0.08005953
000010 74 e7 00 bd 47 9f fb 3c 4d ac f6 bc 41 8e b3 3d
       -0.03147073 0.030715598 -0.030111456 0.08767367
000020 56 f9 88 3d 45 e3 31 3e 28 cc 12 3d 9a b8 e1 bc
       0.06688182 0.17371853 0.03583923 -0.027553845
000030 84 e9 6b 3d 39 3a c3 bc a5 c8 92 3d da bd da 3c
       0.057595745 -0.023831474 0.07167176 0.026701856
000040 e3 43 1b bd c6 96 0d bd bc 78 93 bc 51 80 2b 3d
       -0.03790654 -0.034567617 -0.018001907 0.04187042
000050 e0 8c d5 bb 98 b6 00 bd 2c 84 41 3e f8 78 a2 3b
       -0.0065170377 -0.031424135 0.18898076 0.0049582683
000060 c3 42 da 3c 2c 74 dd bc 72 38 ac 3c b2 93 f3 bb
       0.026643163 -0.027032934 0.021023009 -0.007433378
000070 ac fc e8 bc 9b 33 59 bd 1f 12 65 bd d7 7d 29 3c
       -0.028440796 -0.05302773 -0.055925485 0.010344944
000080 02 8c 14 bd 2e 6e 19 3d b0 5d c4 3c d8 99 8e bc
       -0.036266334 0.03745859 0.023970455 -0.017407343
000090 a0 22 39 bd b9 f5 d2 3d 70 99 12 bd 4a b7 8f 3d
       -0.045199037 0.10300774 -0.03579086 0.070173815
0000a0 21 e2 eb bc ac d4 a9 bd b7 dc 4c 3d b8 b7 50 bd
       -0.02879435 -0.08292517 0.050015178 -0.050956458
0000b0 84 36 09 bd c1 dc d0 3d ce 90 9f 3d d0 d1 82 3c
       -0.033499256 0.101983555 0.07791291 0.015969187
0000c0 7e 7d be 3c 71 82 5e 3e 48 e2 a4 3d 88 06 b3 3c
       0.023253199 0.21729447 0.08050972 0.0218537
0000d0 1d 66 2e 3d 02 d1 3f 3d 0b a0 3d 3e 70 81 8a bc
       0.04257785 0.046830185 0.18518083 -0.016907424
0000e0 04 0b 53 3b 6f 72 61 3e 14 c5 a0 bc 91 ee 87 3d
       0.003220261 0.22016309 -0.019625224 0.066373
0000f0 9e c0 6e 3d fb 84 1e bb 80 b8 ff 3d 8e 23 bb 3d
       0.058289163 -0.002418815 0.124863625 0.09137641
000100 12 a3 f6 ba a4 0b f0 bc f1 3d ae 3c ec 77 98 3d
       -0.0018816909 -0.029302426 0.02126977 0.07444748
000110 8e d2 99 bb 64 65 76 bd 3e 25 0d 3d ab 6f c0 bc
       -0.0046942895 -0.060155287 0.034459345 -0.023490747
000120 f9 00 8c 3e 96 ec 95 3c 57 d6 c2 3b 71 ed c3 bc
       0.27344492 0.01830129 0.0059459615 -0.023916932
000130 24 94 7a 3d 3d e7 a0 3d 70 e7 49 bc f9 e9 5a 3d
       0.061176434 0.07856605 -0.012323245 0.05344579
000140 56 1f 99 bb f1 b2 8a bc 7a ad 61 3d 2e 85 72 3d
       -0.004672925 -0.016931029 0.05509708 0.05920904
000150 31 29 bf 3c 74 ee f5 3c 80 3b a1 3e 79 cf 83 3d
       0.023335071 0.03002093 0.31490707 0.06436057
000160 10 ee c4 bb b8 11 36 bd c8 23 79 3e 82 0c ea bc
       -0.0060098246 -0.04445049 0.24330056 -0.028570417
000170 e8 b8 7b 3d 49 36 02 3e bc d6 3e 3d e7 72 90 3d
       0.061455637 0.1271602 0.046591505 0.07053166
000180 c9 85 a8 bc f1 ab de bb c9 9b e7 bd 44 de 8f ba
       -0.020571606 -0.0067953994 -0.113090105 -0.0010976274
000190 2a bd bd 3b 9d b5 3d bd dc a8 12 3d ae d8 03 3d
       0.0057903724 -0.046315778 0.035805568 0.032189064
0001a0 b3 58 b2 bc 39 0d 33 3d f2 03 52 3d a5 82 6b be
       -0.02177081 0.043713782 0.051273294 -0.22999056
0001b0 ab 5a 52 be 22 3c a6 3d 63 8c 99 3d 4e c5 12 3d
       -0.205424 0.08116938 0.0749748 0.035832696
0001c0 c8 03 a7 bc e6 5b bd bc 97 69 84 3c b3 1d bb bd
       -0.020387545 -0.02311511 0.01616363 -0.09136524
0001d0 79 e3 d4 3c a5 ba 10 3e f7 2b 18 3e 99 1b 1a be
       0.025987374 0.14133699 0.14860521 -0.1504959
0001e0 a3 1b ab bc ec f9 7d 3d 32 a9 92 3d 1d cd 30 3d
       -0.020887202 0.062005922 0.07161178 0.04316436
0001f0 94 c6 a3 bb e7 92 a6 3d fd 8b d7 bd 9d 01 32 3c
       -0.0049980376 0.08133488 -0.105247475 0.010864642
000200 97 da 31 3e 29 47 35 3d 32 4c f2 3c 20 31 da bd
       0.17368542 0.044257317 0.029577348 -0.10653901
000210 f2 1d 86 ba 30 c7 31 3d 0c 53 fb bb 9f 87 51 be
       -0.0010232313 0.04340285 -0.007669812 -0.20461892
000220 39 80 56 3d 6e 8f c9 bd 2e 78 30 3d 69 fa f6 3c
       0.052368376 -0.0984181 0.043083362 0.030148702
000230 1a 89 6c bd 8c d4 5e 3c 50 9e ca bb e4 63 41 3d
       -0.057747938 0.01360048 -0.006183423 0.047214404
000240 ea cb ba bd f9 42 3c 3d 2b 80 3f 3c f9 65 44 3c
       -0.09120925 0.045962308 0.0116882725 0.011987203
000250 47 27 b7 3c 85 d0 85 3d 1e 4b 7f 3d 9c 9e 6d 3a
       0.022357596 0.065339126 0.062327497 0.0009064467
000260 8a d2 c9 3b 91 fd a5 bc 96 99 1f bb dc 51 96 3c
       0.0061591314 -0.020262511 -0.002435302 0.01834958
000270 46 1b 2b bd ed a6 82 3d 2e 7d 9b 3d 34 7b 5c 3c
       -0.041774057 0.06379495 0.075922355 0.013457108
000280 22 69 34 3d 62 c4 a6 3c 04 53 11 3e 6c b8 c4 3c
       0.044045575 0.020357314 0.14191824 0.02401372
000290 23 23 ae bc 22 c1 5a bc 21 0c 78 3b f0 59 b2 3b
       -0.021256989 -0.0133517105 0.0037849026 0.0054428503
0002a0 22 8b 73 bd 0c c6 5b bd 7b a7 8c 3d 3b 7f a3 3d
       -0.05945886 -0.05365567 0.06867882 0.07983252
0002b0 85 73 17 bd 70 1c 7a 3d 9c e0 53 3d b0 be 31 3d
       -0.036975402 0.061062276 0.051727876 0.043394744
0002c0 cc 5c 09 3d 29 2f d3 3d 27 25 21 3d 78 dd 4c 3d
       0.033535764 0.103117295 0.03934207 0.050015897
0002d0 e3 e2 a6 3d 0a 16 2a be 63 16 d8 3d e4 c0 22 bd
       0.08148744 -0.1660997 0.10551145 -0.039734736
0002e0 1e c5 62 3d 49 65 c6 bc 8f 22 8f 3d be a3 39 3d
       0.055363767 -0.024218218 0.069890134 0.045322172
0002f0 01 b0 06 3d 8d ed b4 3d a6 95 2f 3d 37 6b 03 be
       0.032882694 0.08834372 0.042867325 -0.12833868
000300 de c4 8a 3d 64 a8 b5 3d 5d 6d d2 bd 96 9d da 3b
       0.06775831 0.088700086 -0.10274766 0.0066716177
000310 b1 02 22 3e de 46 20 3e a1 00 ff bd 48 9a 56 bd
       0.15821339 0.15652034 -0.12451292 -0.052393228
000320 4c 51 38 bc c7 59 6f bc a9 26 9e 3e d2 87 ae 3d
       -0.011249851 -0.014608807 0.3088887 0.085219994
000330 13 d9 ab 3d 6f 9a ac 3d ee 97 a0 3b e2 5d c9 3d
       0.08391013 0.08427893 0.004900924 0.0983236
000340 58 01 53 bc ce e9 2b 3c d0 5a 15 bc 78 db 39 bc
       -0.012878738 0.010492755 -0.00911589 -0.011343829
000350 ef d3 ac 3c d2 10 e7 be 63 0b 4b 3a 74 05 52 3d
       0.021097152 -0.4513002 0.0007745532 0.05127473
000360 42 6f a9 bd ea 9e 0f 3e c0 16 d6 3b 35 66 77 3d
       -0.08273174 0.14025465 0.0065334737 0.060400207
000370 21 74 d8 bc 0b 69 3b be 74 e2 2b 3e e6 d7 9e 3d
       -0.026422562 -0.1830179 0.16785604 0.07756023
000380 50 82 ee bc ec 68 b5 bb e0 54 1e 3d 17 14 5e bd
       -0.029114872 -0.0055361893 0.03865516 -0.054218378
000390 32 f8 97 bc b5 13 a8 3d a8 23 4c 3d 9e 41 04 bd
       -0.018550966 0.08206884 0.049838692 -0.03228914
0003a0 8c 9b ae 3c d3 22 5c bd 6f 9b d3 bd 12 73 6e 3d
       0.021314405 -0.05374415 -0.10332381 0.05821521
0003b0 0a 35 13 3e 10 6e a7 bc dd f7 60 ba 77 db 03 bd
       0.14375702 -0.020438224 -0.00085818564 -0.03219172
0003c0 1b 40 74 bd 8c c2 58 bd ea 55 12 3d 12 59 3b 3e
       -0.05963145 -0.05291991 0.035726465 0.18295696
0003d0 53 d7 f0 3c 2e 52 fb 3c 83 b4 58 3c a1 c0 74 bd
       0.02939955 0.030678835 0.013226631 -0.059754018
0003e0 8a 50 15 bc 69 70 06 be 60 c4 29 3b fd cf 31 3e
       -0.00911344 -0.13128819 0.0025904402 0.17364497
0003f0 a8 9f 8d 3d 85 5c 8f 3d b8 f8 9e 3e 49 3f 05 3d
       0.06915218 0.070000686 0.31049132 0.032531057

fc3.bias f4 [128]
000000 b8 c6 60 3d d4 fd 58 3d 75 4b 71 bc 25 2a 0d bc
       0.054877013 0.052976444 -0.014727463 -0.008616005
000010 40 69 5b 3d 9f 50 0b bb 2e 6b d6 3c b9 1e 10 bc
       0.05356717 -0.002125777 0.026174154 -0.008796387
000020 ee 50 1b 3b 87 20 a8 3d 1f 4d df 3c a2 47 a6 3b
       0.002369936 0.08209329 0.027258454 0.0050744573
000030 b0 6b 8f bc cd be d1 3c b3 2b 54 3d fd 52 5f 3d
       -0.017507404 0.025603676 0.051799487 0.054522503
000040 1a 90 f3 bc f8 fa d7 3c a1 d6 02 3d fb 16 5d 3d
       -0.029731799 0.026364788 0.031942967 0.053976994
000050 7d bb 93 3c a5 d1 98 3c ed c5 9f bc cc a3 8b bc
       0.018033737 0.018654654 -0.019503558 -0.017045878
000060 b9 d3 62 3d ab 1f 11 bd e1 99 ac 3d 01 47 7c bd
       0.055377696 -0.03543059 0.084277876 -0.061591152
000070 ba ed ee bc 95 d5 9b 3d b1 9b 40 bb 86 be 09 bd
       -0.029166091 0.07609097 -0.0029389674 -0.033628963
000080 a1 98 c3 bc 60 c1 12 3c bc b7 05 bd 78 17 a0 3c
       -0.02387649 0.008957237 -0.032645926 0.01954244
000090 1a 9a 54 3d e1 74 3e bc 11 79 d1 bb d5 f3 06 bd
       0.051904775 -0.011624546 -0.006392606 -0.03294738
0000a0 e7 d8 02 3d e5 50 03 bd 67 ce 03 bd 73 fe b0 bc
       0.031945135 -0.03205957 -0.032179262 -0.021605706
0000b0 ca ae 22 bd 6c 72 9b 3d 53 6b 89 bd a1 21 06 bc
       -0.039717473 0.075901836 -0.067099236 -0.008186729
0000c0 36 f6 9e 3b 4d b2 6d 3c 99 e1 ac 3b 33 41 77 3d
       0.004851128 0.014507842 0.005275917 0.060364913
0000d0 5e ee 80 3d 7e 16 4c ba cb 74 8d 3d 94 ec 03 3d
       0.06295465 -0.0007785334 0.06907042 0.03220804
0000e0 69 09 06 3d bc 0e 74 3c 2d 66 b1 3c 8d 71 18 3d
       0.032723818 0.014896091 0.021655167 0.037217665
0000f0 85 ac 49 3d e7 fe 0a 3d 88 f7 60 3d 33 08 05 bd
       0.049236793 0.0339345 0.054923564 -0.032478523
000100 91 b5 01 3d 51 ad 2a bd 24 35 24 3d b2 e8 04 3d
       0.031667296 -0.041669194 0.04008974 0.032448478
000110 31 8a e8 bc 10 67 cf bb 10 35 63 3c 14 3e a5 3c
       -0.028386207 -0.0063294247 0.013867632 0.020171203
000120 77 fe 44 bc 3f 4d 30 3d 7d 22 e8 3c 1a 00 a5 bc
       -0.01202356 0.043042418 0.028336758 -0.02014165
000130 6c 41 22 3d ac 50 6c 3d f5 a8 18 bd 5c 00 4a 3c
       0.039613172 0.057694122 -0.037270505 0.012329187
000140 6c 26 34 bd 60 a9 81 bd 62 7a 9e 3c 40 0d 22 3c
       -0.043981954 -0.06331134 0.019345466 0.009890854
000150 d0 21 6a 3d 6f 30 41 bd e8 ee c2 bc 05 f4 8f bc
       0.057161152 -0.04716533 -0.02379556 -0.017572412
000160 ea 34 70 bd d5 fd 61 bb 5d 84 06 bd fe 8a 84 3b
       -0.058644213 -0.003448357 -0.032841075 0.0040448895
000170 05 83 23 bd e8 4e 24 3d 6e 0c 5c bd 37 86 3e bd
       -0.03991987 0.040114313 -0.05372279 -0.046514716
000180 89 11 45 bc 58 d1 5c bc 5b e7 b5 3c 30 75 1f 3d
       -0.0120281065 -0.013477646 0.022205045 0.038930118
000190 88 6c c5 3c 9b 66 9b 3a d0 f8 29 bd ea 9a 34 bb
       0.024099603 0.001185614 -0.04149705 -0.0027558156
0001a0 ac 6b 39 3d 18 8d 9f 3d 1e 90 34 3c 84 43 e4 3c
       0.0452687 0.07790583 0.011020688 0.027864225
0001b0 04 c8 26 3d b3 d1 19 bd b3 e2 09 3d c2 9e 36 3d
       0.040718094 -0.0375535 0.033663463 0.044584997
0001c0 7a 01 55 bd 46 4f 53 bd a6 88 9e 3b ac 55 70 bd
       -0.05200336 -0.051589273 0.004838067 -0.058675453
0001d0 d8 96 d0 3c e2 79 88 3c 92 24 41 3d c4 a7 26 3c
       0.025462553 0.01665968 0.047154017 0.010171834
0001e0 b6 89 0c 3d 9c f9 9d 3d f2 4d f4 3c 27 8d d5 bc
       0.03431102 0.07713625 0.029822323 -0.026068283
0001f0 5d fd d7 bc 41 83 f8 bc 9f 01 86 3c a1 8f 28 3b
       -0.02636593 -0.030336024 0.016358195 0.0025720375

out.weight f4 [7, 128]
000000 97 38 6c bc 0f 6e e6 bd ef 81 25 3e 47 1c d9 bd
       -0.014417789 -0.11251461 0.16162847 -0.106010966
000010 f1 ae 87 3d 1f 2e 2b 3e 5b 6a cd 3c 9e 21 cb bd
       0.06625164 0.16716813 0.025075128 -0.09918521
000020 03 a4 04 3d 9c 50 cb 3d 02 70 7b 3d 15 8f 94 3d
       0.032382976 0.099274844 0.061386116 0.07253853
000030 5e 97 9e bd c9 2c 91 bd df d3 c8 3a 69 61 5a bd
       -0.07743715 -0.0708862 0.0015321932 -0.053315554
000040 29 4a 97 bd 62 ce 7b 3d cc 5b b6 bd 5d 06 ae bd
       -0.07387192 0.06147612 -0.089042276 -0.084973074
000050 f7 f9 c1 bd 80 ca 66 3e 49 63 89 3d c0 19 90 ba
       -0.09471505 0.22538185 0.0670839 -0.0010994002
000060 c6 b6 2c 3d 45 f8 b0 bd e7 1e ef bd d4 08 e3 bb
       0.042166494 -0.08641104 -0.11675816 -0.0069285426
000070 f2 29 82 3d 5c 9e 90 bd 3d 2e 9a bd 40 b0 a3 bc
       0.06355657 -0.07061455 -0.075283505 -0.019981503
000080 2e 92 b3 bd 2e d4 6d 3d ee 54 ac bd 1e 92 8a 3d
       -0.08768116 0.05806368 -0.084146366 0.06766151
000090 25 2b 39 bd c4 1d 8e 3d b5 44 36 bc f5 49 bd bd
       -0.04520716 0.06939271 -0.0111247795 -0.09242622
0000a0 77 5a 67 bd f7 55 9f 3c 4c 88 a5 3d fd 30 26 be
       -0.05648276 0.01945017 0.08082637 -0.16229625
0000b0 ee b5 e4 bb 9b d1 99 3d 99 92 4f 3d 88 a6 7a 3d
       -0.0069796955 0.07510682 0.050676916 0.061193973
0000c0 99 35 58 3d 66 40 93 bd 58 a6 d4 bc 86 dc 67 3d
       0.05278549 -0.071900174 -0.025958225 0.056606792
0000d0 64 f6 f6 bc d3 ca fb 3b ac 68 00 be bd dd 40 bd
       -0.030146785 0.0076840906 -0.12539929 -0.047086466
0000e0 47 a5 94 3d 7d 3b 0b be 10 de 73 bd 3e b6 0e 3e
       0.07258087 -0.13596912 -0.059537947 0.13936707
0000f0 eb 9e 3e 3d 7d 92 8b bd 3a 7a f8 3c d1 d5 b0 3d
       0.046538275 -0.0681505 0.03033172 0.08634532
000100 2e 59 8b bc e0 86 9e 3d 8f 63 ac bd 27 41 6c bd
       -0.017010298 0.07740569 -0.08417427 -0.05767932
000110 c2 31 87 bc c8 c9 08 3e 27 57 5f 3b dc cd 32 3d
       -0.016503219 0.13358223 0.0034079046 0.043653354
000120 a6 35 89 bd b7 7f bb bd c6 85 c8 bd ee 99 92 3d
       -0.06699686 -0.09155219 -0.0979114 0.07158266
000130 b0 4a 0c be e0 73 d8 bb 3b de 31 bd 58 d5 e6 bd
       -0.13700366 -0.0066056103 -0.043424826 -0.11271161
000140 52 da 2c 3d d6 2c 89 bd 73 01 c3 bd be ef 6d 3d
       0.042200394 -0.06698005 -0.09521761 0.058089964
000150 a9 2e cf bd 85 7f 8b bb 8a 93 1d be 3a 04 8e bd
       -0.101163216 -0.004257145 -0.15388313 -0.069344
000160 1e 6b 8b bd b2 fa e1 bd 74 ed 14 3d df 6a f4 bd
       -0.0680754 -0.110341445 0.036359265 -0.119344465
000170 cb e5 0c 3e 6c 80 a4 3d 34 03 aa bc 40 4a 0e bd
       0.13759534 0.08032307 -0.02075348 -0.03473878
000180 d5 28 97 bd 96 25 38 3d d9 de b0 3d 11 83 90 3d
       -0.07380835 0.04495772 0.08636255 0.07056249
000190 bb d6 ed 3e ad b4 8b 3d 4a ac 06 bc 1b 69 91 3d
       0.4645289 0.068215705 -0.008219788 0.071001254
0001a0 85 28 db 3c 13 71 12 bd f5 9d 07 be f5 b1 55 3d
       0.02675272 -0.035752367 -0.1324385 0.052171666
0001b0 c0 f4 94 bd d1 99 72 3d 8a 07 1a 3d 69 d6 8c bd
       -0.07273245 0.059228722 0.037604846 -0.06876833
0001c0 e0 a2 ba bc c0 b0 66 bd 88 95 ed bc 7a 75 46 bd
       -0.022782743 -0.056320906 -0.029001966 -0.048451878
0001d0 05 55 a8 bd f3 5e dd bd 58 7a 63 bc 23 9b b6 bc
       -0.08219341 -0.10809126 -0.0138841495 -0.022290772
0001e0 ed b8 fb 3b 46 1c 08 be 11 7c 8d bd db c7 af bc
       0.007681957 -0.13292035 -0.069084294 -0.021457603
0001f0 53 52 b4 3d 7a f8 df 3d 29 f9 45 3d 5c 86 a3 bc
       0.088047646 0.10936065 0.04833332 -0.019961528
000200 7b ec 84 3c 44 88 9c bd 43 c3 11 3e 57 5d 09 bd
       0.016226044 -0.07643178 0.14234643 -0.03353628
000210 e7 c9 19 3c 12 2a 62 3d 0a 14 10 3d 0c 7e ab bd
       0.009386516 0.055215903 0.03517536 -0.08373651
000220 2a c5 82 3c 70 38 df 3d ea 32 ad ba 72 87 a6 3d
       0.015963156 0.108994365 -0.0013214026 0.08131303
000230 55 b4 1d 3c 34 d2 a0 3c 91 34 92 bd 3e bb cf bd
       0.009625514 0.019631483 -0.071389325 -0.101431355
000240 21 27 10 be d8 1a 6c bd 90 a9 f7 bd 3b 7d 01 be
       -0.14077426 -0.057642788 -0.12092888 -0.12645428
000250 92 7c bd bd 8e 29 66 3e 98 98 33 bc 7e 52 99 bd
       -0.092522755 0.2247679 -0.010961674 -0.07486437
000260 ee 9c 41 3d 0e 78 79 3d 9c d7 dc b9 1b 19 85 bd
       0.0472688 0.06090551 -0.0004212231 -0.06498929
000270 9f 4f 70 3d 7f 68 c4 bd 61 bb ba 3c 20 33 29 3b
       0.058669683 -0.095902435 0.022794427 0.0025817826
000280 d0 42 d4 3c a7 98 2c 3d ff 38 d8 bd 11 78 e8 bc
       0.025910765 0.042137768 -0.10557746 -0.028377565
000290 7c 33 9e bd c1 2a 99 3c d9 4a 77 bd 26 c7 c7 bb
       -0.077246636 0.018697144 -0.060374115 -0.0060967384
0002a0 92 d2 d7 3c 2d ef ad 3d ad 26 fd bc 5b c6 f7 bd
       0.026345525 0.08492885 -0.030902231 -0.1209838
0002b0 46 82 ad 3d 75 e7 eb 3d d7 ba 5c 3c 0e 54 36 bd
       0.08472113 0.11518756 0.01347228 -0.044513755
0002c0 6a 10 c5 3d 23 70 71 bc ac 61 eb bc 19 65 71 3d
       0.09622271 -0.014736208 -0.028733097 0.058934305
0002d0 f6 66 29 be 14 42 b8 3d 9b 1a 03 be 2a 1e 3e be
       -0.16543183 0.089969784 -0.12803118 -0.18566194
0002e0 32 2d a1 bd 10 d6 08 be b0 6e 4e be 8c 66 13 3d
       -0.078699484 -0.13362908 -0.20159411 0.03598647
0002f0 20 2b 94 3b 56 9a 91 3c 1c 74 49 bd 1d d0 e3 bc
       0.0045217425 0.017773788 -0.049182996 -0.027809197
000300 d2 b8 33 bd 24 e9 3f 3d 58 78 d1 bd 0c ba 94 3d
       -0.04387743 0.0468532 -0.10228032 0.07262048
000310 dc a2 cb bb 67 10 bb 3d 0d 58 db 3d ba 2a b3 bd
       -0.0062144827 0.09133988 0.10710154 -0.08748384
000320 6c d1 65 bc f8 19 d0 bd 50 80 5d bd a7 c1 6e 3c
       -0.014026981 -0.10161203 -0.054077446 0.0145725375
000330 bd 9f 07 be 8c f2 79 bd 39 34 c5 bd f9 34 a1 bd
       -0.13244529 -0.061022326 -0.09629101 -0.07871432
000340 60 5c ae bc 8c 35 cd bb 0c 88 2f bb 78 fe 25 3c
       -0.021284282 -0.006262487 -0.002678397 0.010131471
000350 ba 20 86 bd d0 19 d1 bd 23 4a bd bd a2 97 fd bd
       -0.06549211 -0.102100015 -0.09242656 -0.12382437
000360 86 0d ae bd ed b2 0b be e4 53 88 3d 76 ab 22 bd
       -0.08498673 -0.13642474 0.06656626 -0.0397143
000370 f4 02 ac 3d 87 1b 69 bc 48 f6 8a 3c b3 0e 9a bd
       0.08399001 -0.014227754 0.01696314 -0.07522335
000380 30 2f 91 bc 35 53 a0 bd 80 c6 b5 bc cd 6b 9f bd
       -0.017722696 -0.078283705 -0.022189379 -0.07784233
000390 de d8 85 3e 30 e5 40 bd 8b d2 96 bd db 81 78 bd
       0.2614202 -0.04709357 -0.07364377 -0.060670715
0003a0 fb e4 d6 3d 01 bd 9f 3c e6 58 b3 bd 32 68 97 bd
       0.10492893 0.019499304 -0.087571904 -0.073929206
0003b0 f5 d3 0e be f5 f5 a7 3d f9 9c 9f 3d 38 39 f1 bd
       -0.13948043 0.082012095 0.07793612 -0.11778492
0003c0 4b b1 8d 3d 69 1d 9d 3d 6b 9a 85 3d ae 8b 7e bd
       0.069185816 0.07671625 0.065235935 -0.062144928
0003d0 3d 39 52 3c 2e 58 0a bd ee b1 04 3d ca ea 3f bd
       0.0128310295 -0.0337755 0.03239625 -0.04685477
0003e0 35 37 49 3d 27 88 fd bd 74 36 4e 3d 72 ee f9 bc
       0.049124915 -0.123794846 0.0503449 -0.030509207
0003f0 c4 be 9a 3b c8 f0 c3 3d 1c 1f d3 3d 72 b8 02 3d
       0.004722448 0.0956741 0.10308668 0.031914182

out.bias f4 [7]
000000 c1 b9 2f bd b7 f3 19 bd 8c c1 03 3d aa 86 ed 3a
       -0.042901758 -0.03758594 0.032167003 0.0018121798
000010 ac 65 78 3d 17 dc 5b 3c 3d 10 d0 3c
       0.060643837 0.013419173 0.025398368
