trained_models/_lvl1_ep310.pt (torch, 686304 bytes, 8 tensors)

fc1.weight f4 [512, 10]
00000000: e42c 25bd 59f2 72bd cc82 c8be 2a02 7b3e
00000010: ad63 8fbe fe41 973e e78c c53d 0583 2bbe
00000020: 90ef 48be 793c 4f3e effa 2b3e 2282 0b3e
00000030: 28c0 b13e 2340 a2be c4c3 823e f6d8 bbbe
00000040: 90cd d1bd 334f 8c3e 7864 69bd 94de 70be
00000050: 4428 22be 8eff 67be e62e f7bd f8ee 323d
00000060: e9a4 903e b278 533e f054 96bd 540e 243e
00000070: d4eb 2d3e e400 9bbd 5c52 dd3d 5a02 103e
00000080: 1776 7a3e 972f f3bd 982c 7a3e dbf1 90be
00000090: b0c0 a1bc 2654 15be 9e67 94be 6ba1 b53d
000000a0: 4b1c dbbe cb37 bc3d 7b4f 013d a704 a43c
000000b0: 5ac3 ee3d 0b17 4e3e 9a09 36be a3ae 783d
000000c0: 9a9d 1b3e 1183 e53b cd1f a93d 8758 aa3e
000000d0: c17f 96be 5161 3cbe 275a ccbd 6e7c dabd
000000e0: 4b31 d03d c505 073e f7ea c63d d622 a23d
000000f0: 4778 9d3c 7b14 ee3d 774a 913d e467 92bd
00000100: 0f26 5c3e 7827 c5be 0f36 7fbe 14f2 383e
00000110: 8d36 89be 0bc4 f3bd 4357 693d 27d8 ae3d
00000120: 7bb6 bdbd 0d8e 193d 077f 53be 074b c7bd
00000130: 06fa 843e d891 12be 4e2c a9bd 7410 1a3d
00000140: 2762 c8bd 2e83 6dbd e564 b13d dde6 833c
00000150: f88d c2bd 4432 4fbe 5819 9abe 1346 b13c
00000160: e0d2 823e d491 2c3e 34a8 c23d 5891 493d
00000170: f8fb 223e a2d6 113e 7037 abbc b32b 16be
00000180: 2cfc ab3d 68a5 2fbd b886 18be 7ae6 99be
00000190: 7833 d7bd 348d 873e f541 e2bc 4868 5e3e
000001a0: 4b5b dfbd ea42 e93e b506 943e 5f8e fe3b
000001b0: 685e 003d 8705 d5bc 795b 0dbe f6ec 81be
000001c0: 357c 803e 2867 59be 3314 2b3e c3e1 bdbe
000001d0: 37e4 82be 2990 8b3e 5fed 10be 049f 9f3e
000001e0: b838 edbd 9c87 6e3e 7ac0 b6be 1594 ddbd
000001f0: 3351 f83d 974c ce3e a00f 993e 5b56 c0bd
00000200: 04e0 e3bb 2bc9 403e 443d 73be 8f29 833e
00000210: 90c3 9d3e 3a35 eebd 34ee 5cbd 8bbe 85be
00000220: 5374 cbbe 2435 973e 8c42 533d 2420 98be
00000230: 6e1e 6fbe 449a 55be 72bc 4b3e 61eb 84be
00000240: 3af5 8fbd 4016 22bd 4cde 393e 20e9 b93c
00000250: 90f4 f13c e0f4 02bd 0af2 60bd 9656 2a3e
00000260: 45d5 153e ed1b 5e3e ddb0 713e fec8 b3be
00000270: 8dcd ecbd 0eb3 273e 9962 2cbe 83c7 eebc
00000280: 2c8a c43d 62e5 cd3e dd74 c4be c12d ebbd
00000290: 7d67 0fbe 6b9b 7a3e 7dd2 12bd d8ff 7dbe
000002a0: 9778 a33b d74f ac3e e24e 09bd a33f e6bd
000002b0: 10e7 d53c 71a2 92be 0a28 1d3d a845 16bd
000002c0: 1d59 91be eadb 97bd 6eac 9ebe 042a ffba
000002d0: ca3f df3d 8e41 9bbe a8b7 d33d 432f 97be
000002e0: ed2a 91bd cdbc 1ebe 7222 77be 8d35 083e
000002f0: 025d 1d3e 1fdd 1c3e fe6c 813d e426 19be
00000300: 4e53 093e 39d3 38be 3f20 8abe aff3 97be
00000310: c958 09be c7f7 863e a0ca 583e d733 8f3e
00000320: 9a72 de3d 7636 24be 8543 833d a531 ce3e
00000330: 0094 853d b8c0 bbbd 51a1 a73d 19cc 2ebe
00000340: e044 873e b03a 3fbe 3e17 d0bd 95b4 cb3e
00000350: c3e0 863d 26a3 7d3e 25a4 85bd d5c8 e83e
00000360: ea5a 11be 95e6 4e3e 38b0 6dbe 3103 7e3d
00000370: 1ca8 30be 5b7d 223e 463c 913c 8dd2 c33d
00000380: 828e 963e dce8 8fbe d9a3 943e c623 373e
00000390: 02ba 01be c59e a9bd 1daa 65be 1280 74be
000003a0: 06a2 263d 7cbe a93e 7aab 22be d95b d63e
000003b0: f23c 2f3c 245e 7fbe 0fcf 833e 45e3 0b3e
000003c0: 3c0b 31bd cfec b13d 1e6c 65be aac0 683e
000003d0: c049 3fbe 1424 c3bd eb22 033d 000b 453e
000003e0: f6ae 61be e82a 623e ab08 43bd 5033 d5bd
000003f0: 50db 33be 1a3a 7bbe ab42 013d 64c3 183e
-0.040326014 -0.059313152 -0.3916229 0.24512544 -0.28005734 0.29542536 0.096460156 -0.16749199
-0.19622636 0.20237912 0.16794942 0.1362386 0.34716916 -0.31689557 0.25539982 -0.36688966
-0.10244286 0.27404174 -0.05698058 -0.23522407 -0.15835673 -0.2265608 -0.12069492 0.04368493
0.28250816 0.2065151 -0.07340419 0.16021091 0.16984493 -0.07568529 0.108067244 0.14063397
0.2445911 -0.118743114 0.24431074 -0.2830952 -0.0197452 -0.14582881 -0.28985304 0.08868679
-0.42795023 0.09190329 0.03156994 0.02002175 0.11658354 0.20125978 -0.177771 0.06071342
0.15196839 0.0070041497 0.08258019 0.33270666 -0.29394343 -0.18396498 -0.09978133 -0.10668264
0.10165652 0.13185795 0.09712785 0.07916801 0.019222392 0.11625 0.07094281 -0.07148722
0.21498893 -0.38506675 -0.24922965 0.18061095 -0.2679943 -0.119026266 0.056967985 0.085373215
-0.09263321 0.037488986 -0.20653926 -0.09731107 0.25972003 -0.14313447 -0.082604036 0.037613347
-0.09784346 -0.05798643 0.08661822 0.016101295 -0.09499735 -0.20234019 -0.3009746 0.02163986
0.2555151 0.16852504 0.095047385 0.049210876 0.15916431 0.14242032 -0.020900458 -0.14665107
0.08397707 -0.042882353 -0.14895141 -0.30058652 -0.10507864 0.26474917 -0.027619341 0.21719468
-0.109060846 0.45558864 0.28911367 0.007768437 0.031340033 -0.026003612 -0.13804425 -0.253761
0.25094762 -0.21230757 0.16706924 -0.37086305 -0.2556474 0.27258423 -0.1415305 0.31176007
-0.11583084 0.23293918 -0.35693723 -0.1081926 0.121248625 0.40292808 0.29894733 -0.09391471
-0.006954195 0.1882674 -0.2375384 0.25617644 0.30813265 -0.11631246 -0.053938106 -0.26121935
-0.39737186 0.2953273 0.051577136 -0.2971202 -0.23351452 -0.20859629 0.19896105 -0.2596083
-0.07029195 -0.039572 0.18151206 0.02269417 0.029535562 -0.031971812 -0.054918326 0.16634592
0.14632137 0.2169034 0.23602624 -0.35114282 -0.11562643 0.16376898 -0.16834487 -0.029147869
0.09596667 0.40214068 -0.3837041 -0.11483336 -0.14004321 0.2447335 -0.03584527 -0.24804628
0.0049887407 0.33654663 -0.033522494 -0.112426065 0.026111156 -0.28639558 0.038368262 -0.036687523
-0.283883 -0.07414992 -0.30990928 -0.0019467478 0.10900839 -0.30323452 0.10337764 -0.29528245
-0.070882656 -0.1550171 -0.24134234 0.13301678 0.15367511 0.15318726 0.06319617 -0.14956242
0.13410684 -0.18049325 -0.26977727 -0.29678103 -0.13412775 0.26360914 0.21171045 0.27969238
0.10861702 -0.160364 0.06409363 0.4027225 0.065223694 -0.091676176 0.081850655 -0.17070045
0.26419735 -0.18674731 -0.10160683 0.3978621 0.06585839 0.24769267 -0.06525449 0.45465723
-0.14194837 0.20205148 -0.23211753 0.062014762 -0.17251629 0.15868132 0.017728936 0.09561644
0.294056 -0.28107345 0.29031256 0.1788474 -0.12668613 -0.08282236 -0.22428174 -0.2387698
0.04068186 0.3315314 -0.15885726 0.4186695 0.010695683 -0.24938256 0.2574391 0.13660915
-0.043223605 0.08687746 -0.22404525 0.22729746 -0.18680477 -0.09528366 0.032015722 0.19242477
-0.22039399 0.2208668 -0.04761569 -0.10410178 -0.1756413 -0.24533883 0.03155772 0.14918286

fc1.bias f4 [512]
00000000: 3f97 423e e60f 01be b32e 10be 7d94 35be
00000010: fe25 673d ec30 9a3d 29ce b63d 1f85 193e
00000020: a5c8 5f3b 50ac 45bd 9f4b aabd 8787 83bc
00000030: ede2 493e fe78 e53d 8bb9 1fbe 37ed 21bd
00000040: fc0a 31be 81ea 163d 54d3 8a3d 8962 65be
00000050: 013e 2fbe d833 09be 21f4 943d 32d0 d8bd
00000060: 567b 7e3e 0baa 033e 3c35 6abe 2182 95be
00000070: a009 d83c a6d0 41be e15f 82be 383d 4dbe
00000080: bd3f a83d 0cea 243e fdca 9c3d 9c61 ddbd
00000090: 082b e63d 1b40 9fbe 0799 9cbd d87a 2cbe
000000a0: 4da6 acbc 6bb8 f33d b35c 8fbe fa11 80be
000000b0: 7eb2 dbbd ee6b 71be cd60 e13d 1920 39be
000000c0: 2c71 d13d 98de 2a3c 66f8 083e d841 0abe
000000d0: 0654 f23d fa42 813e 0c47 fdbd c08f 79be
000000e0: 7bf5 953c b1b1 3bbe 66f6 74be 2b25 13be
000000f0: 346c 92be 002b bf3a b4b7 13be c435 4c3e
00000100: 558f 8cbe f7a1 2fbe d28e 0c3c bb36 2dbe
00000110: 72c3 72bd b3ef 493e a088 08be be20 153e
00000120: 58cf 00bd 0c11 95be 6115 0c3e 314b acbe
00000130: f794 3abd 2e5a 9abe 1e70 3c3e 3200 83bd
00000140: 1763 093e e6f7 943d 37e4 743e 0f07 9bbe
00000150: 0c04 93bd 40e1 0dbd 4e2a 343e 7059 ec3d
00000160: 364f 2a3e 0023 ba3e 188d 9abd 94e9 2abd
00000170: dee5 a7be 455a 903c 1901 c63d ac3a 8e3e
00000180: 7620 7d3e ae7d 11be 0630 083e 1d15 89be
00000190: d7df 833e 6a04 7e3d e974 88be f8e7 61be
000001a0: 77d0 9bbe e1f4 84be ef44 edbd 011d a63d
000001b0: 5635 0c3e eaf0 673e 00d1 a93b 8403 b53d
000001c0: baab 8e3d 24af 503b 2523 c5bc 7908 f53d
000001d0: 0561 34be fcf9 173e b46b 25be 6d64 85bd
000001e0: b9ac 863e 18ff bb3d 86ad 5a3e a10a 133e
000001f0: 8e8b abbd 2407 0f3e 1cf4 3bbe 31b4 373e
00000200: 7f39 f03d 09b1 cd3c 16b4 7dbe 86ff 34be
00000210: 32a3 5a3e c3f0 1b3c 7b0e ca3c 4bd7 263e
00000220: 92e2 823e e003 a43c 2661 853e b621 10be
00000230: a911 5f3e 0cb6 84be cc79 90bd 2ad3 7abe
00000240: a5c3 b73d fc9c 98bc 62cf cf3d e5a6 c5bd
00000250: e10e 593e 2a55 033e 2046 ccbc 9bf5 9abe
00000260: cf32 093e a0ed 4cbd d01e 88be d8c0 7fbe
00000270: 5842 aebd 91b6 acbb 6fc2 68be 75d6 79be
00000280: e645 9cbc 5a44 6cbe f887 71be ba56 14bc
00000290: 3503 92be ae7c 5cbe 4aca dbbd b259 e6bd
000002a0: 8d74 27be 70ce 343e 5dd1 803d 1483 90be
000002b0: cb9d 06bc 7781 b03c 317c a03d 2856 393e
000002c0: 5243 20be 371b 5d3e d63c 853d ddae 7fbe
000002d0: 1a3e 20be 4e32 7dbe e8cd 08be 3048 67bd
000002e0: 233d d1bc 91a6 01be 9f1d 3abe 02e0 d03c
000002f0: 33d4 8cbd 9f9c 08be 7c36 83be 78b8 8e3e
00000300: 3ef3 32bd a96f 053e c072 9dbe 9f85 613e
00000310: 7029 60be b618 98be 7ff1 903e 610b 753e
00000320: e949 863e bce5 903d 27e2 743b e20d 333e
00000330: 6b7b 97be 90bb 2e3e 1c0d 0c3e f56b 18be
00000340: f7d9 95be b9ed 04be 8612 7bbe c09e 623e
00000350: 8c9f 49be 7966 ddbd 38a5 703e 820c 803e
00000360: f23a 723e dbdd 263e 3ba2 263a 4969 1cbe
00000370: 2f4f 3c3e f7ed a63d 38bc fa3d f972 91be
00000380: 7d27 dd3c ce2a 8dbd 18ae 62be 28b8 c1bd
00000390: 19b5 3cbe fc4c 873e fac7 ac3d e0f3 043e
000003a0: 51b2 2c3e abab 4d3e 3474 003e 349e 31be
000003b0: 4f75 aabe 9048 2a3e 9443 30bd 1864 8abe
000003c0: 4790 12be 18b1 853e d223 0c3e 8a56 72be
000003d0: b41f 893e d0d6 dcbd 25ce 79be 9495 43be
000003e0: a98f 0dbe c5ca 213e e499 2a3e a809 8bbe
000003f0: 5ffc 6f3e 776d 20bc 190d 09bd 42f4 423e
0.19003008 -0.12603721 -0.14080314 -0.17732425 0.056432717 0.07528862 0.08926041 0.14992188
0.0034146693 -0.048260033 -0.08315205 -0.016055835 0.19715472 0.11204718 -0.15598123 -0.039532866
-0.17289346 0.036844734 0.06778589 -0.2240087 -0.17113496 -0.13398683 0.072731264 -0.10586585
0.24851736 0.12857835 -0.2287187 -0.29200843 0.026371777 -0.1892725 -0.25463775 -0.20042884
0.08215282 0.16104907 0.076559044 -0.10809633 0.11238676 -0.31103596 -0.07646375 -0.16843736
-0.021075392 0.11900409 -0.2800041 -0.25013715 -0.10727404 -0.23576328 0.110047914 -0.1807865
0.10226664 0.010429047 0.13376006 -0.1350168 0.118324324 0.25246412 -0.12367067 -0.24371243
0.01830553 -0.18329503 -0.23922119 -0.14369647 -0.28598177 0.0014584959 -0.14425546 0.19942385
-0.27453104 -0.17151628 0.008578973 -0.1691541 -0.059268422 0.19720344 -0.13333368 0.14563271
-0.03144774 -0.29114568 0.1368003 -0.33651116 -0.04555222 -0.30146927 0.18402144 -0.06396522
0.13416706 0.072738454 0.23915182 -0.30278823 -0.07178506 -0.034638643 0.17594263 0.11540496
0.16631779 0.36354828 -0.07546443 -0.041726664 -0.32792562 0.017621169 0.09668178 0.27779138
0.24719414 -0.14208099 0.1329957 -0.2677392 0.25756714 0.06201593 -0.26651695 -0.22061145
-0.30432484 -0.25968078 -0.11585414 0.08111001 0.13692221 0.22650495 0.0051823854 0.08838561
0.06966348 0.0031842673 -0.02406461 0.11964507 -0.17615135 0.14841455 -0.16154367 -0.06513295
0.26303652 0.09179515 0.21355256 0.14359523 -0.08376227 0.13967568 -0.18354839 0.17939831
0.117297165 0.025108831 -0.24775729 -0.176756 0.21351317 0.009517851 0.024665108 0.16293065
0.25563484 0.020021379 0.2605068 -0.1407536 0.2178408 -0.2592014 -0.07054481 -0.24494615
0.08972863 -0.018629543 0.10146977 -0.09650973 0.21197082 0.12825456 -0.024935782 -0.30265507
0.13398288 -0.050031304 -0.26586008 -0.24975908 -0.08508748 -0.005270787 -0.2273042 -0.24398215
-0.019076299 -0.23072949 -0.23587024 -0.00905388 -0.28518072 -0.21531937 -0.10731943 -0.11247577
-0.16353054 0.17656875 0.06289933 -0.28225005 -0.008216332 0.021546109 0.07836188 0.18099272
-0.1565068 0.21592413 0.06505744 -0.24969049 -0.1564869 -0.24726221 -0.13359797 -0.056465328
-0.025541848 -0.12661196 -0.18175362 0.02549744 -0.06876411 -0.13340996 -0.25627506 0.27875113
-0.043689005 0.13030876 -0.3075161 0.22023629 -0.21890807 -0.29706353 0.28309247 0.23930122
0.26228264 0.07075068 0.0037366243 0.17485765 -0.29586348 0.17063737 0.13676876 -0.14884932
-0.29267856 -0.12981309 -0.24518785 0.22130871 -0.19689769 -0.10810561 0.23500526 0.25009543
0.23655298 0.16295569 0.00063565717 -0.15274538 0.18389581 0.08150857 0.12242931 -0.2840803
0.026996369 -0.0689293 -0.22136724 -0.09458953 -0.18428458 0.26425922 0.0843658 0.12983656
0.16864897 0.20085017 0.12544328 -0.17345506 -0.33292624 0.16629243 -0.043033198 -0.2702949
-0.1431285 0.26111674 0.1368554 -0.23665825 0.26782 -0.1078316 -0.24395044 -0.19100028
-0.13824333 0.15800007 0.16660267 -0.27155805 0.23436116 -0.009791723 -0.033459757 0.1903849

fc2.weight f4 [256, 512]
00000000: 0594 6d3d 990d 4ebe c6e7 993c 7eb9 a6bd
00000010: 6631 96bb cb4d 19be 6aba f4bd 571e be39
00000020: b500 1bbc 1608 18bd a171 0c3e e4ee a1bd
00000030: dcb2 383c 2204 2f3c cdcc 22bd c133 763d
00000040: 1ce6 f63d c076 06ba a285 66bd 4893 42be
00000050: f92a b33d f394 7f3d a701 283d c94d 873d
00000060: 9525 05bd aec0 4a3a 257e a63c 2d53 9dbc
00000070: a2c8 58bc fed8 f53c 4e45 9b3d 90c6 bc3e
00000080: a17c c43d 5b95 4bbe d15d 1abe c242 e93c
00000090: 8859 c5bb c82e 053e 9516 6d3e 40f4 c33d
000000a0: 113f 8b3d c418 bbbe 679b 9a3d 5b06 08bd
000000b0: 27fc 28bd f39f 9dbd 19e8 9abc e1dd 093d
000000c0: 50c3 ee3b 3b70 1cbe f6a1 96bd bebc 51be
000000d0: 13e8 aabc 6d6f 09bd 7577 f6bc f05c 443e
000000e0: 3900 c03d 0a67 3cbd 31e7 1c3e 78cb a0bb
000000f0: db35 1f3d 0eb8 9b3c 45db 16bc 5161 16bb
00000100: d4d8 33be 62ea 7a3d b707 11bf 0429 013c
00000110: ecf5 45bd a4c5 8cbd 518d ea3c 6966 323d
00000120: 272b 293e e526 003d 76a7 0fbd b300 6dbc
00000130: 1143 d2bc 1afa 21bd c0ee 5bbb 5334 9d3d
00000140: 48e8 81bd 8148 303c 472e 89bb d096 bdbc
00000150: 9615 fe3c b571 28bd f428 133c 66e9 23bd
00000160: 48c9 d8ba 079f 74bd 9335 173d 83b5 423d
00000170: ccd2 ee3d 7d71 a43e fd28 86bc 045d 123e
00000180: 7692 acbd 819d 113b 3240 f93c 0803 90bb
00000190: 8953 b03d 889c 023e 100c 713c 6db5 19bd
000001a0: 36ee 85bd c2f0 9b3c f9e7 8f3c ebe5 373f
000001b0: 9ec9 433e f258 5abc 9f5c f6bc bb13 0c3d
000001c0: d756 3ebd 3934 53bd 2e8a 003e b1ae 613e
000001d0: 4d4e 143d 96e6 0abd bdac 003e b24f 093e
000001e0: f2a7 70bd 1f42 5b3c e501 62bb 4cbb 85bc
000001f0: f441 1cbc 2090 86bd 407e 373c 5176 d43c
00000200: 29bb 993c 14d0 9a3d 51a7 b1bc d9a9 5e3d
00000210: 73c4 8b3d e5f2 6d3e 218d 1ebd 4919 b63d
00000220: 2727 273b 25af 2cbd 490f 8d3d e057 3e3c
00000230: 934e 7e3d 1c79 9b3e f5dd 5a3d 9f8e 6e3c
00000240: 1f44 0dbc e14f 95bd 6b07 e83c 1750 0dbe
00000250: be77 5fbd c374 0fbc e04d dfba a7dc f23d
00000260: dc8d f93d 0d07 b7bd 39b2 18bd fd34 0ebd
00000270: ae74 a8bc 3f6d 193e 24af 9ebd 119a e43d
00000280: e379 b93c 4043 abbc 661b 563c ccf4 0e3e
00000290: 4048 04bc 0c23 523c bd65 84bc 1ab7 9d3c
000002a0: a9c0 c5bd 0c28 0e3e 3b87 54bd 2168 88be
000002b0: 2563 313d adb1 16bd cbd2 ab3e 5eea 2dbd
000002c0: 71c3 32bd 0655 a23d b24c b0bd bb54 8d3e
000002d0: d83b 8e3c 087d 933d f7a3 02be a7ab 86bc
000002e0: 8b7a 153d 555b 003d dbce 34bd 8ea0 3ebd
000002f0: be99 9bbd 2dcf b73d 1a00 48be eff5 1b3d
00000300: 3335 18bd f498 51bd 909c 1dbb d8f1 da3d
00000310: ffdb 413e c9ff 193d 6af7 813c 22e5 80bd
00000320: f687 0d3e 4b02 013c f186 8ebc 52e5 fabc
00000330: 9f96 bbbd e9e0 9fbd 4b7f 43bc d2f1 5abd
00000340: 781a 853c da77 983e a64c 4fbd 8a2e 53bd
00000350: 10a0 6d3e c7ef e1bb 5da0 2b3d 941d 80bc
00000360: e7a1 083d 6ea8 29bd 7d1d 0fbe a99c 1b3d
00000370: 51c7 04bc 945c 08bc 4091 b03d 3b9f 19bd
00000380: e80c 7f3e 27dd 0abd 398f a1bb e79d 1e3e
00000390: 9c81 d9bd 648f 273d 8e36 623c 5d90 cfbc
000003a0: cee7 963d e61c c4bd 1b8c 29bc ea5b 163d
000003b0: 9d4c 493c 3cc6 19bd 175a 2ebe 7fcb 1cbd
000003c0: 2c53 8cbc 1707 853c 0713 75bd 2a8e 15bd
000003d0: 78b6 1dbc 32c2 49be 20fc 62bd e843 fabb
000003e0: 5724 183d 61ed bf3d 9f47 5d3e c327 e6bb
000003f0: d9ac bc3c a4c2 78be 503d 7d3c 89ab abbb
0.05800249 -0.20122375 0.018787276 -0.081408486 -0.0045835255 -0.14971082 -0.11949618 0.0003626223
-0.009460618 -0.037117086 0.13715221 -0.07906893 0.011273112 0.010682138 -0.039746094 0.06010795
0.12055609 -0.00051293895 -0.056279786 -0.19001496 0.08748431 0.06239791 0.0410172 0.06606633
-0.032506544 0.00077344 0.020323822 -0.0192047 -0.013231428 0.030010697 0.07581578 0.3687024
0.095940836 -0.19881193 -0.1507485 0.028474215 -0.006022636 0.13006127 0.23153146 0.09568071
0.06799138 -0.36542332 0.07549172 -0.033209186 -0.041256096 -0.076965235 -0.0189095 0.033658866
0.0072864667 -0.15277188 -0.0735511 -0.20482156 -0.020862615 -0.03355353 -0.030086258 0.19176078
0.093750425 -0.045996703 0.15322568 -0.004907068 0.03886972 0.019008663 -0.009207551 -0.0022946189
-0.17563182 0.06125868 -0.56652397 0.007883314 -0.048330233 -0.068736345 0.028631838 0.043554697
0.16520368 0.031287093 -0.035071813 -0.014465499 -0.025666745 -0.039545156 -0.0033559054 0.07675996
-0.06343132 0.010759474 -0.004186425 -0.023143202 0.031016152 -0.041124064 0.008981932 -0.040017508
-0.0016539479 -0.059721973 0.036916327 0.047536384 0.116613 0.32117835 -0.016376967 0.14293295
-0.08426373 0.0022219124 0.030426119 -0.0043948926 0.08609683 0.12755024 0.014712349 -0.037526537
-0.06539576 0.0190357 0.017566668 0.718352 0.1911988 -0.01332687 -0.030073462 0.034198504
-0.046469536 -0.051563475 0.12552711 0.22039296 0.036207486 -0.03391131 0.12565894 0.13409308
-0.058753915 0.013382464 -0.0034485993 -0.016324662 -0.009537209 -0.065704584 0.011199534 0.025935324
0.018766003 0.07559219 -0.021686228 0.054361198 0.06824579 0.23237188 -0.03870881 0.088915415
0.0025505514 -0.04215922 0.06887681 0.011617631 0.062086653 0.30365837 0.05343433 0.014560371
-0.008622198 -0.07290626 0.02832385 -0.13800083 -0.054557554 -0.0087558655 -0.0017036758 0.11858492
0.12185261 -0.08936892 -0.03727934 -0.034718502 -0.02056345 0.1498308 -0.07748249 0.11162198
0.022641128 -0.02090609 0.013068056 0.1396057 -0.008073866 0.012825739 -0.016161794 0.019252349
-0.09655888 0.13882464 -0.05188678 -0.26641944 0.043307442 -0.03679054 0.3355926 -0.042459838
-0.04364342 0.07926373 -0.086083785 0.27603707 0.01736252 0.07201582 -0.1275786 -0.016439272
0.03649382 0.0313371 -0.044142585 -0.046539836 -0.07597683 0.089750625 -0.19531289 0.038076337
-0.03716011 -0.051171258 -0.0024049617 0.10690659 0.18931578 0.03759745 0.015865047 -0.062937036
0.13821396 0.007874082 -0.01739833 -0.030626927 -0.09159588 -0.0780657 -0.0119322045 -0.053453274
0.016247973 0.2977894 -0.050610207 -0.051558055 0.2320559 -0.0068950388 0.04190098 -0.015639104
0.033357527 -0.041420393 -0.13976093 0.0379912 -0.008104161 -0.008322854 0.08621454 -0.03750537
0.24907267 -0.033902314 -0.0049304035 0.15489922 -0.10620424 0.040908232 0.013806952 -0.025337392
0.07368432 -0.095758244 -0.010348345 0.03670875 0.012286332 -0.037542567 -0.17026554 -0.038280006
-0.017129503 0.016238732 -0.0598326 -0.03651253 -0.0096260235 -0.19702986 -0.055416226 -0.0076374896
0.03714403 0.09371448 0.21609353 -0.007023783 0.023031639 -0.24293 0.015456513 -0.0052389544

fc2.bias f4 [256]
00000000: a982 df3c b46f aebb 2acf 073d 5f53 f63b
00000010: a8b7 41bc df52 c23c a00c 8fbb 4b5b 3dbc
00000020: 1ae3 073d 9051 af3c ffe7 2c3d 6dc6 1bbd
00000030: 139b 053d feb3 20bb 0c76 cdba f844 373d
00000040: 834c 83bc 3190 263d fee6 fd3b 9c4e f639
00000050: 5a90 80bc de31 283c de39 613d 725c 1b3d
00000060: 3ede 69bc 5030 3bbb c0d3 893c cf52 5bbb
00000070: 68e9 8cbc f1e9 9bbc ea4f 573b fc3f 85ba
00000080: c03f fabc 777f abbc 5f4b c4bc 4892 e23a
00000090: bee5 a4bc a3ed 903c 619d d33c 3891 233d
000000a0: feb6 b0bc 9c87 9fbc 8b48 09bd 9c97 a03c
000000b0: f85a c5bb fd1a 1cbb 242d 1a3d d0a9 2ebc
000000c0: c9f5 83bc fdb6 14bc 79d1 95bb 90c8 133d
000000d0: 5abb a2bc 5e1e 24bd 6ee9 95bc 345b 4c3d
000000e0: 5ec0 643a e066 30bc f170 193d ad3b 033d
000000f0: e0d6 cdbc 60e9 333c 5d8b 3abd 4d4f 303c
00000100: 3576 10bd 4aa8 9b3b efe1 74bc af35 b93c
00000110: ecbc 15bc c0ba 663a b3c4 0abd f182 d3ba
00000120: afa2 f93b 07d0 b2bb b444 4d3d 9a48 fabc
00000130: a90c 08bc 22d7 843b f7f8 01bd ffeb a73c
00000140: 81eb 553d c30a debb 798a 83ba f03c 27bb
00000150: 10ed 923c f07b 8e3c f06f 5d3c c589 283d
00000160: 6156 763b 328f 07bb ca63 56bc 3e11 853c
00000170: 21e7 3ebb fc2e 1fbd d04c 2ebd 8bef d0bc
00000180: c3b6 64bc 9297 1ebd 3f00 e23c 6688 fe3c
00000190: c123 6bbc 0742 7f3c 813b 7fbc 4867 9ebb
000001a0: 5ab6 a03c e279 afbb 6b76 0e3c e8b8 7e3c
000001b0: 5940 12bd 7210 a83c 83f8 96bb 4ff9 32bd
000001c0: edeb ba3c 6959 20bc 64a1 573d fa61 033d
000001d0: 5bdf 843c e1d6 4a3c 3a00 39bd cb11 12bc
000001e0: 18af ec3b 7149 0c3d af6d 833a a81d 6dba
000001f0: b2e5 26bd 0bb0 9d3c 3149 1e3d 51cf 37bc
00000200: a658 a1bc e056 6d3d e740 f63c bfdd b43c
00000210: c0e6 603d 0cda d4bc ec25 063c 41f1 493c
00000220: 36e3 f53b 0a09 623c 6e58 f73b 06ed b63c
00000230: 608e 6d3b 63a0 8e3c bc8c 643c b315 c6bc
00000240: 0e31 a7bc a297 623d bc0a 95bc f3ff 61bb
00000250: 2fa6 1abd 2b4b 763b fbbe b73c 207c 70bd
00000260: dea0 c0bc 1b28 36bd 51c1 b0bc c26b 60ba
00000270: 832e b53c bfd3 843c 2c8e f93b cfab 253d
00000280: 3224 8f3a 18a0 a63c 31de 133d 94fc 123c
00000290: de11 be3c 52f8 f4bc f079 c73c 9d54 9bbc
000002a0: 7cbc 6bbc c05f 7b3c 6c73 cebc 8ed6 a83a
000002b0: a7ed 163d 5523 41bd 207b 293b de1a bf3c
000002c0: 760b 1a3d 2869 2a3d e020 34bc ca5f 673d
000002d0: 3605 68bd 0657 b1bc dba6 21bd 46a1 91bc
000002e0: bbec 6c3c 3c39 3cbd d95f 063d 77ff d03b
000002f0: c5da 03bb 5300 9c39 139b 16bd bfb8 a5bc
00000300: 5e68 00bd 8473 3e3c 5418 683c 802d 44ba
00000310: 1b8a 1bbd 43c1 d93c de98 98bc 6965 d5bc
00000320: 2059 973b b8a2 923c 479b cf3b aaaf ec3c
00000330: a93b d73c 2f0f 5f3c 4159 d4bc 4d46 273d
00000340: ad60 c0bc 48ef e73b f035 393c c1a9 8a3c
00000350: ed2a 963a 10ef efbc 9e4f 093d a307 2ebd
00000360: 7cc8 b7bb c1d8 b1bb 1216 0abc 2123 9c3c
00000370: 58fc 4d3d 985b 15bd df06 ac3c 2c62 403d
00000380: 7ea6 1a3c da4c 07bd f6f8 e0bc 694c 50bc
00000390: 752e 01bd 8712 63bc db5b ec3c d2f0 81bc
000003a0: dd57 b7bb af1b 613c 6332 56ba e30f 943c
000003b0: 2c18 1abc 633f 013d 8955 9f3c b70c 06bd
000003c0: 7ce9 61bc 780e f3bc ba6c 2d3d f902 5abc
000003d0: 6e6b fb3b 8416 0bbc 400e 3ebc d8cd 00bd
000003e0: 0cab 51bc f540 de3c bbc3 32bc b8c2 24bc
000003f0: b450 45bc 6759 a1bc c87e 9cbc 8aba e33c
0.027283983 -0.0053233746 0.03315655 0.007517263 -0.011823572 0.023721157 -0.0043655187 -0.0115574105
0.033175565 0.021401197 0.042213436 -0.03803103 0.032618593 -0.0024521346 -0.001567544 0.044743508
-0.016027695 0.040664855 0.0077484837 0.00046979345 -0.015693832 0.0102657955 0.054986827 0.03792996
-0.014274178 -0.0028562732 0.016824603 -0.0033466106 -0.01720114 -0.01903245 0.003285403 -0.0010166164
-0.030547976 -0.020934803 -0.023961721 0.0017286027 -0.02012908 0.017691439 0.02583188 0.039933413
-0.021571632 -0.019473843 -0.033516448 0.019603543 -0.006022807 -0.0023819797 0.037640706 -0.010660604
-0.01610841 -0.009076831 -0.00457209 0.036079943 -0.019864727 -0.040068023 -0.018299785 0.049891666
0.0008726175 -0.010766715 0.037461225 0.032039333 -0.025126874 0.010980934 -0.045543063 0.010761094
-0.03526898 0.004750286 -0.014946445 0.022608606 -0.009139281 0.00088016316 -0.033878993 -0.0016137046
0.0076182703 -0.0054569277 0.05011435 -0.030552197 -0.0083038 0.004053966 -0.031731572 0.020498274
0.052226547 -0.0067761852 -0.0010035775 -0.00255185 0.017935306 0.017393082 0.0135154575 0.041147012
0.0037588107 -0.0020684716 -0.013085315 0.016243573 -0.0029129463 -0.038863167 -0.042553723 -0.025504848
-0.013959589 -0.038718767 0.027588008 0.0310709 -0.014351786 0.015579707 -0.015578152 -0.0048340894
0.019618202 -0.0053551057 0.008695225 0.015547015 -0.035705898 0.020515654 -0.0046072616 -0.04369479
0.022817576 -0.009786942 0.05264415 0.03207586 0.016219785 0.012380333 -0.04516623 -0.008915375
0.0072230212 0.034249727 0.0010027195 -0.00090452516 -0.0407464 0.019248983 0.03864402 -0.011218862
-0.019695591 0.05794418 0.030060245 0.022078393 0.05490756 -0.02598288 0.008187752 0.012325586
0.0075038923 0.0137961 0.0075483834 0.022329818 0.0036248192 0.017410463 0.013949569 -0.024180269
-0.020409133 0.05532039 -0.018193595 -0.0034484833 -0.03775614 0.0037581425 0.022429934 -0.058712125
-0.023514207 -0.04447184 -0.021576555 -0.0008560979 0.022116905 0.01621425 0.007615825 0.040447053
0.0010920821 0.02034001 0.03610057 0.008971352 0.02320188 -0.029903565 0.024350137 -0.018961245
-0.0143882 0.015342653 -0.025201522 0.0012881325 0.036847737 -0.047152836 0.0025860742 0.023328241
0.037608586 0.04160419 -0.010994166 0.056487836 -0.056645595 -0.021647941 -0.039465766 -0.017777096
0.014460738 -0.04595302 0.03280625 0.00637811 -0.002011941 0.0002975488 -0.036768984 -0.020229695
-0.031349532 0.011624221 0.0141659565 -0.00074835867 -0.037973505 0.026581412 -0.01862758 -0.026049333
0.004618779 0.017899856 0.006335649 0.028892357 0.026273565 0.01361446 -0.025921466 0.04083853
-0.023483599 0.007078085 0.011304364 0.016926648 0.0011456885 -0.029288799 0.033523194 -0.04248775
-0.0056086164 -0.0054274504 -0.008428114 0.01905972 0.050289482 -0.036464304 0.02099937 0.046968624
0.009439109 -0.033032276 -0.027462464 -0.01271353 -0.031538446 -0.013859398 0.028852394 -0.015861902
-0.005595191 0.01373951 -0.00081709604 0.018073982 -0.009405177 0.03155459 0.019449966 -0.03272697
-0.013788577 -0.029669985 0.042340018 -0.013306373 0.0076727187 -0.008489255 -0.011600077 -0.031446308
-0.012797128 0.027130583 -0.010910924 -0.01005619 -0.012043167 -0.01969595 -0.019103423 0.02779891

fc3.weight f4 [128, 256]
00000000: 4f86 8cbd afb9 543d 2ea5 4b3d e83d cb3c
00000010: a0cc 8fbc e71f fe3c 0141 37bd 2479 3f3d
00000020: 0264 17bd 2ad1 72bd 8730 d23c 2c66 6fbd
00000030: 2cde ba3c b42d f0bc 804a 93bb 56bc 2b3d
00000040: 74b5 10bd 5e64 103d ff0f 7fbd f6a7 4ebd
00000050: 76d9 85bd e090 80bb e696 89bc ce48 2abd
00000060: 8200 f93a ff89 e1bb d0a3 91bb 459d b4bb
00000070: 2a05 0dbd 236d 153c 3a9f 59bd 1441 a9bc
00000080: 5b3c 69bd 80a1 cbbb e06f 93bb e232 36bd
00000090: 5ebf 383c 10f2 14bc 5437 38bd e0f6 34bd
000000a0: 5870 523c 08a2 7d3c 002c b4bc 8e3a 8cbd
000000b0: 463e 23bd d446 183d aa4a 113d 285e 3cbc
000000c0: 0e76 2abd 900f 0ebc e287 26bd 9c57 fabc
000000d0: c4d1 c1bc 92a3 6fbd 4393 31bc e61a 0f3b
000000e0: c064 5fbd 5993 483c 228d 66bd c157 213d
000000f0: fc5e 3dbd 645f 00bd 351d f0bb 81a8 81bd
00000100: 0c66 cebc 327d f1bb e4c9 fe3c 90fe fb3b
00000110: 20f0 f53c 8c14 5f3d 480c 013d 280f 0f3d
00000120: 638d 54bd b184 42bd 02e3 e6bc 50ee b63c
00000130: 5226 44bd 9add c03b 969d 70bd d809 7d3d
00000140: 040a a2bc d4ed 22bd f037 c33b 1071 d3bc
00000150: 54ca 473d dc04 40bd 2c52 793d 0abb 5ebd
00000160: b0fd 13bc b8c5 d5bc c62f 3ebd 5441 8bbc
00000170: c012 a7ba 1038 05bc 1024 32bc dc6f e2bc
00000180: 78b2 05bc f282 10bd e6d1 01bd f869 2ebd
00000190: b82f 173c 18a3 0cbd 1834 6d3d a8b4 6bbd
000001a0: 3283 543d 8520 11bd 3e23 18bd 2e20 273d
000001b0: 74b1 5e3d 600c 4abb f0ff babb c0ec 263d
000001c0: 0890 f9bc bc3e ccbc bcd5 213c e829 02bc
000001d0: 48e1 d3bc 7b78 af3c 801a 4dbd 8c3a cbbc
000001e0: 400c acba 8481 15bd 0493 f9bc 5658 aebb
000001f0: 1ddd 13bd a41a 623d 025b 27bd 9b7a e6bc
00000200: 580c 133d 04a6 39bc bc0d 8abd 5c64 c4bc
00000210: 8edd 11bd 7237 07bd c9a6 3dbd eda3 573d
00000220: c4b0 fd3c 8ae0 19bc 3431 fdbc 642a 04bd
00000230: a0d2 4ebb f4fe 0abd 4c5a fa3c 5641 1cbd
00000240: 60a5 6bbb 7793 a73c 9d45 5e3d 68b6 3f3c
00000250: 6c38 0a3d 0c2d 933c ca28 d93b 6477 1bbd
00000260: f87e 0e3c 526f 13bd 7f3a 7abd 7296 d63c
00000270: 7c6a 2cbd 4c7a 963c bc53 8abd c014 fc3a
00000280: 350f 5e3d 5fbe 86bc f751 443d 1e5b 4c3c
00000290: e419 cfbc 4c44 0fbd f1ad 553d 58fa 7b3d
000002a0: 6cb5 e23c ed22 1dbd c0ab 7a3d 7863 bfbc
000002b0: c4f7 4a3d 104e 28bc 1615 79bd e07a e7bc
000002c0: 394b 933c 1520 72bc 44fe 9fbc ac32 e7bb
000002d0: de73 683c d981 1f3d c0d4 ecbb ac81 fb3c
000002e0: 4646 42bd c88b 1bbc a6f0 4c3d 493f d03c
000002f0: 278f 2bbd 58c0 e5bc 56f2 0fbd 96a6 42bd
00000300: 04da aebc 6c9e 123d de50 0bbd c819 323c
00000310: 24f9 cc3c 0652 b13b 46dd eebc 02d3 c23c
00000320: 7416 2b3d 06a2 85bd fac5 1f3d 71ee 163d
00000330: 28b3 3abd 96ea 113d a080 27bd b8a7 81bd
00000340: 6ef1 853c f017 85bc fea9 683b e03b 833b
00000350: 1a03 72bd e4ee 733d a581 0a3c b4ea 83bc
00000360: 6ac2 583d f77b 503c 68b9 063c 80c6 873b
00000370: 2149 2ebd 70ce 6b3c cfb2 533c c0ca 05bd
00000380: e0c8 05bc ecca 33bd ec9c 43bd 513f 39bd
00000390: 0347 a73b a003 2c3b 10fa 9ebc 0424 5fbd
000003a0: a21c 013d 9ad1 74bd f3ae f5bc 385a 393c
000003b0: a85d 203d 3eea 163d 6817 8bbc 77b8 343c
000003c0: 89ab 073d 08b0 973c 287c c0ba dfba b1bc
000003d0: b873 7f3d 82b9 45bd 546a af3c b64f 613d
000003e0: dece 87bd d4d3 b43c fa2c 373d 0c1b 83bc
000003f0: a805 5a3c 5f2f 3dbc bee9 253d abe5 b9bb
-0.06861555 0.051934894 0.049718075 0.024809793 -0.017553627 0.031021072 -0.044739727 0.046746388
-0.03696061 -0.059281506 0.025657905 -0.058447048 0.022811018 -0.029318668 -0.004494965 0.041927658
-0.035329297 0.035251968 -0.062271114 -0.05045315 -0.06535618 -0.0039235204 -0.016795587 -0.04157334
0.0018997344 -0.0068829055 -0.004444577 -0.005511912 -0.034428753 0.0091202585 -0.053130366 -0.020660914
-0.056942325 -0.0062143207 -0.0044994205 -0.04448212 0.011276094 -0.009090915 -0.04497464 -0.04418075
0.012844168 0.015480526 -0.021993637 -0.06847106 -0.03985431 0.037176922 0.035471596 -0.011497058
-0.041616492 -0.008670703 -0.04065693 -0.030559354 -0.023659594 -0.058505602 -0.010838333 0.00218361
-0.054539442 0.012242162 -0.05628694 0.03939033 -0.046233162 -0.03134097 -0.0073277005 -0.06330968
-0.025195144 -0.007369661 0.031102128 0.0076902583 0.030021727 0.054462954 0.031505853 0.034926564
-0.05189265 -0.047489826 -0.028184418 0.022330433 -0.047888108 0.005885792 -0.058744036 0.061776966
-0.019780166 -0.03977759 0.005957596 -0.025810748 0.04877694 -0.046879634 0.06086938 -0.054377593
-0.009032652 -0.026095256 -0.04643228 -0.016998924 -0.0012746677 -0.008131042 -0.010872856 -0.02764123
-0.008160226 -0.03528113 -0.031694315 -0.04258153 0.009227686 -0.034335226 0.05791101 -0.057545334
0.05188293 -0.035431404 -0.037142985 0.040802173 0.05436845 -0.003083013 -0.0057067797 0.040753126
-0.030464187 -0.024932258 0.009877618 -0.007944562 -0.025864258 0.021419754 -0.0500741 -0.02480819
-0.0013126209 -0.03650047 -0.03046561 -0.005320589 -0.036099542 0.055201188 -0.040858276 -0.028134635
0.035900444 -0.011331085 -0.06740901 -0.023973636 -0.03561168 -0.03301186 -0.046301637 0.052646566
0.030968077 -0.009391913 -0.030907251 -0.03226699 -0.0031558648 -0.03393455 0.030560635 -0.038148247
-0.0035956725 0.020456059 0.054265607 0.011701204 0.033745214 0.017965816 0.006627177 -0.037955657
0.008697264 -0.035994835 -0.061090942 0.026194785 -0.04209374 0.018368863 -0.06754252 0.0019232258
0.05421372 -0.016448198 0.04792973 0.012472896 -0.0252809 -0.034977242 0.052167837 0.061518043
0.0276744 -0.038363386 0.06119895 -0.02336286 0.049552694 -0.010272518 -0.060811125 -0.028256834
0.017980205 -0.014778157 -0.019530423 -0.007055601 0.014187781 0.03894219 -0.00722751 0.03070148
-0.0474303 -0.009493776 0.050034188 0.025420802 -0.041884568 -0.028045818 -0.03514322 -0.04752215
-0.021344192 0.035795614 -0.034012668 0.010870405 0.025021143 0.0054113893 -0.029158246 0.023782257
0.04176946 -0.06525044 0.039007165 0.03684849 -0.045581013 0.03562411 -0.04089415 -0.06330818
0.016350474 -0.016246766 0.0035501714 0.0040049404 -0.05908499 0.059553996 0.008453761 -0.016103126
0.052919783 0.012724868 0.008222915 0.004143536 -0.04255021 0.01439248 0.012921049 -0.03266406
-0.008165568 -0.043894693 -0.047757074 -0.0452264 0.005104901 0.0026247278 -0.019406348 -0.054477707
0.031521447 -0.059770204 -0.029990649 0.011313014 0.039151818 0.036844485 -0.016978934 0.011030308
0.033122573 0.018516555 -0.0014685439 -0.021695552 0.062366217 -0.048272617 0.021413006 0.05500766
-0.06631254 0.022073664 0.044720627 -0.016004108 0.013307013 -0.011546939 0.040506117 -0.0056731305

fc3.bias f4 [128]
00000000: 0526 71bd f301 7a3d 6692 463d 3f63 25bc
00000010: b311 0fbd 54f1 7bbc 24bb 563d f0ab dbbc
00000020: ffbe 9bbc aa79 65bd e43e 8dbd 6092 d83b
00000030: fb90 d93c 2a9e 94bd 0add 28bd e41f 27bd
00000040: 217c f2bb 6299 a3bc 546b ecbc 9a8b 563d
00000050: a378 29bd 1a45 a8bd 0117 81bc 83c3 60bd
00000060: a682 11bc 2a34 b9bc ca2f 793c 426a e9bc
00000070: b1c7 583d 095e 603d 4fd3 a03d 6c2e 21bd
00000080: e284 c63c 810a c1bc c45c 0cbd a588 5b3d
00000090: 38c8 57bd 965d 3dbc 6751 eb3c 0c6a 8ebd
000000a0: 97e5 84bd 16e2 8c3c e2e9 a23d 2f2b 6e3d
000000b0: 0ee4 1b3d c058 95ba 5464 07bd 01b3 263d
000000c0: e610 09bd 6281 6c39 4881 e9bb 4fe6 63bc
000000d0: 5138 17bb 7279 39bc dc85 fa3c 9aeb 8e3d
000000e0: b0a5 4fbc bb5d 333d 0fc4 3f3d cfcd ba3c
000000f0: b719 7cbd 1e96 96bd df4e c33c ab2a 983c
00000100: 8ae8 c6bd d889 80bc 4f34 163d 7c0c e73c
00000110: 41ba d83c 806c 6f3d ca5a ad3c 328c 5abc
00000120: b122 2abd 9e23 7bbd 15c9 f2bc 4a49 ff3c
00000130: 96e9 253d eb01 02bd 3017 2cbd a51d df3d
00000140: 6b58 67bd 00f4 acbc d965 093d 2f34 2ebd
00000150: 93da 6b3d ee1f 503d c0b6 43bd ef6c dd3c
00000160: f253 05bb 2001 5fbb 1b8d aa3c 6ed0 42bd
00000170: eeb5 88bd da54 2dbc c170 f1bc c010 e93b
00000180: a8ca 833d ca93 8d3d cca0 c33d 488b e73d
00000190: 075e 3dbd 306e 723c 26f1 0cbd 5176 f7bb
000001a0: cabc 063d 4c78 96bc c046 ecba 013c 0b3c
000001b0: a55d 82bd 5686 04bc c458 73bc c4e2 47bd
000001c0: 0eda e63c 5b6c 0fbd 491e 44bd 20a6 113d
000001d0: 3833 88bd 7f3b 163d 7a8c 853d 8bd5 893a
000001e0: 3b12 013d 6c3f 88bc ab8d ca3c 80e2 69bb
000001f0: fa7d 153d ac96 a33d 2a23 573d a012 f43c
-0.05887415 0.061037015 0.04847946 -0.010094463 -0.03492899 -0.015377361 0.052424565 -0.026815385
-0.019011972 -0.05602423 -0.06896761 0.006609246 0.02655839 -0.0725673 -0.041226424 -0.040801898
-0.007400051 -0.0199706 -0.028859772 0.05237923 -0.041374814 -0.08216305 -0.01575804 -0.054873955
-0.008881247 -0.022607882 0.015209148 -0.02849305 0.052924816 0.05477718 0.07852804 -0.039350912
0.024233285 -0.023564579 -0.034268156 0.05359711 -0.052681178 -0.011557957 0.02872534 -0.069538206
-0.06489103 0.01719765 0.07954766 0.05814665 0.038059287 -0.0011394247 -0.033054665 0.040698055
-0.03346338 0.00022554913 -0.007126007 -0.01390989 -0.0023074339 -0.011320459 0.030581407 0.06978531
-0.01267378 0.04379056 0.046817835 0.022803215 -0.06154796 -0.07352851 0.02384132 0.018575033
-0.09712322 -0.015690729 0.03667098 0.028204195 0.026456 0.058453083 0.021161456 -0.013339089
-0.04153699 -0.061313264 -0.029636899 0.031162877 0.040505968 -0.03174011 -0.0420143 0.10894326
-0.056480806 -0.021112442 0.033544395 -0.042530235 0.057581495 0.0508117 -0.047781706 0.027029483
-0.0020344225 -0.003402777 0.020819237 -0.047562055 -0.06675325 -0.010579312 -0.02947271 0.0071125925
0.06435138 0.06912954 0.09552154 0.11305863 -0.04623225 0.014796779 -0.034409665 -0.007551946
0.032894887 -0.018367909 -0.0018026456 0.008498193 -0.063655175 -0.008088669 -0.014852706 -0.048800245
0.028180148 -0.035015445 -0.047880445 0.03555882 -0.06650394 0.036677834 0.065209344 0.0010515911
0.031511527 -0.016631804 0.024725756 -0.0035687983 0.036497094 0.07987723 0.05252377 0.029794037

out.weight f4 [7, 128]
00000000: 743a 4dbc 6bff 3b3e cef2 413d 6826 093c
00000010: 88aa ca3c e483 90bd 9d15 b63c e09e a33c
00000020: a54d f1bd 0115 953d 58ae 87bd 796d 02bd
00000030: 9084 b83d 6710 793d 9475 b23c 34c4 d2bc
00000040: 5ea3 8a3d ec98 6ebe 6b15 ffbd ee18 2c3d
00000050: 852d 503c 44cc 043c 0787 05be 7b6f 12be
00000060: 836c 86bd d09b 19be 404d 97be 9b5d 8f3d
00000070: eab0 0ebe 347c 9cbd b68a f9bd 013a ab3d
00000080: 1aa7 ef3c a4fe 093e d83b a53d a743 783d
00000090: 30cb ed3c 087c a4bd 8636 b93d 64b3 cabc
000000a0: b18d 8d3d 5247 c03d 0528 a7bd 8edf af3d
000000b0: 8b51 82bd ac38 5cbd 8ebc 253e 9e95 5cbd
000000c0: 1159 3f3e 7c4f bd3d 28bf 1abe 3078 393c
000000d0: 09e8 a3be 20d2 bd3e 5ee6 a3bd eeab 03be
000000e0: 32d9 fab9 1694 103b 49da ffbd 68ad 01bd
000000f0: aabc 95bd 2f48 2a3d 4c4e 21be 8107 06bd
00000100: cce3 aebe 69ed f5bd 1d0b 17be 9bc4 e0be
00000110: 5620 78be 63f8 89bd 497e 8bbd 5e89 3c3e
00000120: c4e7 4c3d 9440 2dbd d976 01bd 201e acbb
00000130: 32a7 2fbd 35cf 533d 221d c1bd d063 21bd
00000140: c65a 2c3d 7602 6d3d eb34 ccbd a338 103d
00000150: 0573 1cbd c19a 013e 4c5e cfbd c6f7 613d
00000160: c8b8 903d 8153 8abd 3272 8b3b fd0c 9e3d
00000170: 03dd 26bc 485a 55ba d544 08bd 4b75 3ebd
00000180: 465c f7bd 3c37 eebc 32d9 fabd 3679 e63e
00000190: 1704 1abd 66ea 373d d9a3 253d 1e88 9d3d
000001a0: f8d6 abbd 0f1d 61bd 6522 3fbd 19db 903d
000001b0: d8f0 8e3d 0eed 9a3d 0362 9c3d fc39 be3e
000001c0: f4fd 943d 8290 d43d c80a 77be c3eb 8d3d
000001d0: 9956 a13d 0044 433d 6c82 d23e aecd 04bd
000001e0: 0429 3a3d 66fe a6bd bab8 133d b8e1 553c
000001f0: ee02 973d cd98 7bbd c8c9 abbd 9d4b 973d
00000200: eb5d 683d 656b 833e 0a11 41bd f0b9 c4bc
00000210: 6dce e03b d046 be3c 702d 8fbd a252 8bbd
00000220: 0d33 03be 768d 253d aa72 69bd b047 43bd
00000230: 7cea 2a3e a3c6 593d 404a 29bc 5826 423c
00000240: 779e 853d ab4d 1abe 4f7b d1bd 4048 98bc
00000250: 5a63 4cbd a283 3bbd 7d36 4cbb b961 93bc
00000260: 29d9 863d 31a3 cabd 8aff 58be 54eb b6bd
00000270: f31b 58bd ae81 9d3d 362a e9bd 4f47 5fbd
00000280: cc7b 033e 3a76 9c3d ca3f 9abd 0837 3bbb
00000290: d377 a83c ac0b 77bc 27f2 ff3c e723 e8bc
000002a0: 7441 2f3c 7ace 3dbc 1fe2 f3bd de9e 86bd
000002b0: d853 5d3d 8786 61bd 208d 4c3e 47b1 40bd
000002c0: 64be eb3d 6258 68bd 8b60 53bd c256 9e3d
000002d0: 7548 bcbe 351d bc3e 0129 ebbd d10a 02be
000002e0: 26f3 98bd 64fe a3bd ebdf 06be c36c 8f3d
000002f0: 2563 43bd 3ae2 893c bbf3 c9bd 35cc 823c
00000300: c2b2 e8be 2860 ffbc 400e fcbd f14b ecbe
00000310: ade3 9dbe ab10 76bd 324e b13c 9fb6 023e
00000320: c645 953d a9ea c2bd 6847 24be 3c0a aa3d
00000330: ab37 6c3d cafa 95bc 8ff8 4a3d 0ffa 9c3d
00000340: c523 10bd 9181 97bd 70fa 2fbd 522f c43c
00000350: 2c27 6e3c e176 29be 3517 24be 4daf 24bd
00000360: 23cf dd3d 681c 1d3c a57f 90bd c5a0 403c
00000370: a6fa 743d e383 48bd 1585 16be 2311 1dbd
00000380: 77fd 77bd 892b febd ee88 b5bd bd24 a23e
00000390: 3316 f6bc 8a9e 7abd a0f3 963c e211 43bd
000003a0: acff 273d 18a4 ff3c d4df 263d 8021 0d3c
000003b0: 48e3 9bbd 8f26 8d3d 594d 7f3d d829 e23e
000003c0: fa1e 8c3d b353 633d 7502 93be 8e36 253d
000003d0: 3ef5 9abd 7d28 503c 89bd e73e d183 be3d
000003e0: 1d97 f93c a29e f9bc 0b0d 833d de03 523d
000003f0: d14c 053d cf37 c5bd d26b 77bd b8ff 173d
-0.012526143 0.18359153 0.047350697 0.008370973 0.024739519 -0.07056406 0.022227103 0.019973218
-0.11782388 0.07279397 -0.0662505 -0.031842683 0.09009659 0.060806658 0.021784581 -0.025728323
0.06769441 -0.23300523 -0.12455257 0.042015962 0.012706165 0.008105341 -0.1303979 -0.14300339
-0.06563666 -0.15000844 -0.29551125 0.07000276 -0.13934675 -0.07640877 -0.1218466 0.08360673
0.029254485 0.13476044 0.08068055 0.060611393 0.029027551 -0.080314696 0.09043603 -0.024743743
0.06911791 0.09388603 -0.0816193 0.085875615 -0.06363209 -0.053764984 0.16185209 -0.053853624
0.1868632 0.09243676 -0.15111983 0.011320159 -0.32012966 0.37074375 -0.080029234 -0.12858555
-0.0004784554 0.0022060922 -0.124928065 -0.031659514 -0.073113754 0.041572746 -0.15752524 -0.032722
-0.3415817 -0.12008173 -0.14750333 -0.43899998 -0.24231085 -0.06736829 -0.06811196 0.18411776
0.050025716 -0.042297915 -0.031607483 -0.0052526146 -0.04288406 0.05171128 -0.09429385 -0.03940183
0.042078756 0.057863675 -0.09971031 0.035210263 -0.03819563 0.1265669 -0.101254076 0.055167936
0.07066494 -0.06754208 0.0042555565 0.07717321 -0.010184529 -0.0008138758 -0.03326877 -0.046498578
-0.12078147 -0.029079072 -0.12248458 0.45014352 -0.037601557 0.044901274 0.04043946 0.07691978
-0.083906114 -0.054959353 -0.04666366 0.070730396 0.06979531 0.07564746 0.07635882 0.37153614
0.07275 0.10379125 -0.24125206 0.069297336 0.07877845 0.04767227 0.4111513 -0.032422714
0.04544927 -0.081539914 0.03606484 0.013054304 0.07373606 -0.06142502 -0.08388096 0.07387469
0.056730192 0.25667873 -0.04713539 -0.024014443 0.0068605454 0.023227125 -0.069910884 -0.0680287
-0.12812443 0.04041811 -0.056994118 -0.04767579 0.16691011 0.05316795 -0.010332644 0.011849962
0.065243654 -0.1506869 -0.102285974 -0.018589139 -0.049899437 -0.04577983 -0.0031160407 -0.017990934
0.06584389 -0.098944075 -0.2119123 -0.08931604 -0.05276103 0.0769075 -0.11385004 -0.054511365
0.12840194 0.076397374 -0.07531698 -0.0028566737 0.02056495 -0.015078466 0.031243397 -0.028337432
0.010696758 -0.011584872 -0.119083636 -0.0657327 0.054035038 -0.055059936 0.1997571 -0.047044065
0.115109235 -0.056724913 -0.051605742 0.077313915 -0.3677403 0.36741033 -0.1148243 -0.12699439
-0.07468252 -0.080075055 -0.13171355 0.070031665 -0.047701973 0.016831506 -0.09860941 0.015966514
-0.4544888 -0.03117378 -0.123074055 -0.4615169 -0.30837765 -0.06007449 0.021643732 0.12764977
0.07288699 -0.09517414 -0.16042864 0.08302733 0.057670277 -0.018308062 0.04955345 0.076648824
-0.035190362 -0.0739776 -0.042963445 0.023948345 0.0145357065 -0.16549255 -0.16024478 -0.040206242
0.10830524 0.009589292 -0.07055596 0.01175708 0.05980935 -0.048953902 -0.14699204 -0.03834642
-0.060544457 -0.124106474 -0.08864008 0.31668654 -0.030039882 -0.06118635 0.018426716 -0.047624476
0.041015312 0.031206176 0.040740803 0.008613944 -0.0761171 0.0689212 0.062329624 0.4417255
0.06841846 0.055499744 -0.28712812 0.04033523 -0.075663075 0.012704966 0.4526179 0.09302486
0.030467564 -0.03047115 0.06398972 0.05127322 0.03254396 -0.09629785 -0.06040556 0.037109107

out.bias f4 [7]
00000000: 35f5 cf3c d936 90bc 70b9 11bc 869d 48bd
00000010: 75b3 803d 0d3f d2bd 0fec c5bd
0.025385479 -0.017604278 -0.008894309 -0.04897835 0.06284229 -0.10265932 -0.09664165
