trained_models/_lvl1_complete.pt (torch, 686304 bytes, 8 tensors)

fc1.weight f4 [512, 10]
-0.10374196 -0.27103665 0.307776 -0.15273362 0.0058123698 0.122836106 0.1170429 -0.07953608
-0.046999875 -0.11410618 0.09588288 0.12534875 -0.1657325 -0.3859183 0.105815075 0.03508098
0.37253687 -0.13650785 0.02177071 0.09978906 -0.3058309 -0.29787698 -0.13749471 -0.010696411
-0.07038298 0.17877677 0.22015938 0.18935022 0.15669861 -0.07544316 0.08112781 -0.11708442
0.07278903 0.19406268 -0.07232849 0.47271624 0.1970176 0.17309721 0.029500788 -0.14940888
-0.19351196 -0.020846989 -0.24512887 0.34443223 0.23659495 0.17417331 0.039471995 0.01887115
-0.28707686 0.11031289 0.04871675 -0.20228101 -0.16594121 0.37122753 -0.013394014 -0.112142965
0.31512266 -0.26444215 -0.26314923 0.122474626 0.18920203 0.054532282 0.10791792 -0.23394303
-0.28039804 -0.2302883 -0.24949965 0.18059073 -0.15455164 -0.30789864 -0.14335015 0.066758126
-0.040650368 0.038642287 -0.08089985 -0.004499048 0.23911348 -0.057261884 0.18086639 -0.06655532
-0.13550733 0.2329828 -0.122938335 -0.3558756 -0.0525423 0.36885265 0.44541007 0.14472993
0.008615703 -0.021771038 -0.29700428 -0.12952773 0.056317985 -0.17022854 -0.28160417 0.16822538
-0.13153028 -0.31476206 0.24670586 0.08108732 -0.09481165 -0.29196265 -0.22351393 -0.14548025
0.05976802 -0.12060116 -0.29292122 -0.18045747 -0.29760414 0.18263665 -0.31338233 -0.23749317
-0.25504687 -0.2287024 0.17607774 0.22476992 0.29370224 -0.025981605 0.21466413 -0.1790135
0.08966442 -0.31930846 0.19689177 -0.017645642 0.1233146 0.13203716 -0.34740782 0.2143682
0.18054841 -0.08085656 -0.21855578 -0.140523 -0.18911001 0.12634495 0.30643222 -0.058716122
-0.09942855 -0.1555 -0.04016182 0.05211861 -0.25453812 0.21093069 0.24137981 -0.124007344
-0.14485627 -0.057642765 -0.6631446 -0.06744532 -0.02756713 0.16016634 -0.356694 0.06315431
-0.25039873 -0.01408594 0.08590878 -0.15014218 0.24116464 0.23160559 0.09615191 -0.13629316
0.16361178 0.042731874 0.027317656 -0.2710502 -0.35268694 0.05086459 -0.067971095 -0.054609958
0.21336314 -0.19718497 0.010501981 -0.1239181 0.30781236 0.3108239 -0.19907579 0.21805081
-0.13171586 -0.2390437 -0.26748973 -0.17209019 0.24809673 0.15917616 -0.25740713 0.2993187
0.32868066 0.21955638 -0.03784255 0.07060875 -0.25906172 -0.25771597 -0.16490425 0.21374951
0.26436123 -0.08954711 -0.0515127 -0.45782763 -0.022216253 0.2671254 0.30665404 -0.33643815
0.10451427 0.15328749 -0.0859723 0.088842735 -0.17121427 -0.379397 -0.06924312 -0.04660675
-0.034677368 0.24383092 0.16627868 -0.19539638 -0.36791596 -0.024023825 -0.2062045 -0.19949894
-0.16333327 0.15900923 0.016255012 0.252589 0.16486064 -0.3352765 -0.32961792 0.32611266
-0.12817374 0.29064587 -0.15283965 0.11107171 0.24300914 0.14625563 0.0018095789 0.29464966
-0.01075853 0.36978397 -0.31267363 0.05077764 0.21524632 0.10873916 -0.32546088 0.1236297
-0.01887504 -0.25832683 0.12545717 0.034880854 0.20912927 -0.5362026 -0.43109548 0.12881234
0.21002941 -0.057754893 0.21101129 -0.4222341 -0.30661473 -0.18501875 0.102271825 0.2349506
00000000: aa76 d4bd 51c5 8abe d194 9d3e 3466 1cbe
00000010: b175 be3b 7f91 fb3d 30b4 ef3d d0e3 a2bd
00000020: f182 40bd 80b0 e9bd 3e5e c43d 6c5b 003e
00000030: c8b5 29be 1597 c5be 93b5 d83d 13b1 0f3d
00000040: 27bd be3e b7c8 0bbe 7d58 b23c 355e cc3d
00000050: de95 9cbe 5583 98be 6acb 0cbe 0040 2fbc
00000060: f424 90bd 4211 373e 7671 613e 06e5 413e
00000070: 9a75 203e f281 9abd 5626 a63d f5c9 efbd
00000080: 6a12 953d 5eb8 463e f620 94bd dd07 f23e
00000090: fbbe 493e 6540 313e a3ab f13c a4fe 18be
000000a0: 0028 46be 4ec7 aabc 1003 7bbe 6c59 b03e
000000b0: f245 723e 7d5a 323e 63ad 213d ac97 9a3c
000000c0: bdfb 92be b9eb e13d 378b 473d c122 4fbe
000000d0: 7eec 29be 8911 be3e 9172 5bbc 36ab e5bd
000000e0: c257 a13e f664 87be 7fbb 86be fad3 fa3d
000000f0: 2dbe 413e 3e5d 5f3d 1204 dd3d c38e 6fbe
00000100: 5590 8fbe b2d0 6bbe d67c 7fbe c7ec 383e
00000110: c942 1ebe e4a4 9dbe 62ca 12be 7cb8 883d
00000120: 0081 26bd 6047 1e3d d2ae a5bd c06c 93bb
00000130: 2ada 743e 708b 6abd 0a35 393e 284e 88bd
00000140: 6fc2 0abe 0b93 6e3e 18c7 fbbd 5435 b6be
00000150: 9836 57bd 41da bc3e ca0c e43e 1534 143e
00000160: e128 0d3c 2d59 b2bc f210 98be eba2 04be
00000170: b0ad 663d 6450 2ebe 6c2e 90be 4643 2c3e
00000180: e0af 06be 7e28 a1be 76a0 7c3e 1c11 a63d
00000190: 9c2c c2bd 217c 95be d6e0 64be c6f8 14be
000001a0: 50cf 743d befd f6bd c5f9 95be d8c9 38be
000001b0: 925f 98be 1a05 3b3e a673 a0be 6931 73be
000001c0: 8195 82be f630 6abe b94d 343e 162a 663e
000001d0: 2460 963e 60d7 d4bc ead0 5b3e 514f 37be
000001e0: fba1 b73d 667c a3be ff9d 493e 988d 90bc
000001f0: 5d8c fc3d c034 073e 70df b1be 5683 5b3e
00000200: afe1 383e 2098 a5bd 16cd 5fbe 43e5 0fbe
00000210: 0ea6 41be 9260 013e afe4 9c3e 5180 70bd
00000220: 32a1 cbbd 643b 1fbe b880 24bd 537a 553d
00000230: d252 82be 37fe 573e 452c 773e 90f7 fdbd
00000240: 3455 14be d21a 6cbd d8c3 29bf c620 8abd
00000250: 76d4 e1bc a502 243e 99a0 b6be 0c57 813d
00000260: 4334 80be b7c8 66bc f1f0 af3d dfbe 19be
00000270: ddf3 763e 042a 6d3e 4beb c43d 6f90 0bbe
00000280: d989 273e 9e07 2f3d 47c9 df3c 18c7 8abe
00000290: 6293 b4be 6357 503d 6e34 8bbd b1ae 5fbd
000002a0: de7b 5a3e dbea 49be 8010 2c3c c6c8 fdbd
000002b0: 9599 9d3e 4f24 9f3e 86da 4bbe b648 5f3e
000002c0: 86e0 06be dfc7 74be 6af4 88be 6938 30be
000002d0: 120d 7e3e 13ff 223e deca 83be 4d40 993e
000002e0: d548 a83e 63d3 603e ca00 1bbd 529b 903d
000002f0: bda3 84be 59f3 83be a9dc 28be 27e1 5a3e
00000300: 5b5a 873e 7a64 b7bd fbfe 52bd 6268 eabe
00000310: dcfe b5bc a9c4 883e c201 9d3e 9f41 acbe
00000320: 940b d63d 65f7 1c3e 3f12 b0bd 2ef3 b53d
00000330: cb52 2fbe 5340 c2be 56cf 8dbd b8e6 3ebd
00000340: db09 0ebd d0ae 793e f544 2a3e fd15 48be
00000350: 7b5f bcbe 9dcd c4bc 4627 53be 7349 4cbe
00000360: d640 27be 51d3 223e 3b29 853c 5853 813e
00000370: 3ad1 283e 5da9 abbe aec3 a8be 3df8 a63e
00000380: fa3f 03be 89cf 943e ff81 1cbe 9179 e33d
00000390: 63d7 783e 09c4 153e 642f ed3a 52dc 963e
000003a0: 8c44 30bc 5354 bd3e c216 a0be 37fc 4f3d
000003b0: 8869 5c3e a3b2 de3d cfa2 a6be 9131 fd3d
000003c0: d49f 9abc 6a43 84be d877 003e 3adf 0e3d
000003d0: fc25 563e 9344 09bf 8cb8 dcbe 62e7 033e
000003e0: f311 573e 6590 6cbd 5813 583e 112f d8be
000003f0: 9bfc 9cbe 8e75 3dbe e473 d13d e496 703e

fc1.bias f4 [512]
-0.118347764 0.0044449144 0.13085675 0.0088098 0.2603274 0.23586868 0.05732364 -0.08955288
0.110171124 -0.043320775 -0.1135198 -0.008313625 -0.110165246 -0.06467469 0.004888568 0.12971704
0.10836825 -0.15290302 -0.24572243 -0.06080653 -0.083368555 -0.022956733 -0.006464804 0.058019098
0.07072118 0.13283554 -0.07633672 -0.17859651 -0.31756315 0.059662677 -0.25027928 0.018363416
-0.10531012 -0.020496547 -0.29307738 -0.18380354 -0.20090857 -0.23612767 0.21627702 -0.23827581
-0.03933956 0.23000292 -0.13096958 0.24487191 0.07991974 0.07365724 0.26276144 -0.0012786593
0.061835874 -0.10224768 -0.2467591 -0.15902881 -0.01078175 0.0323495 -0.050393615 -0.1267727
-0.14536482 -0.12723486 -0.11230101 -0.31609777 -0.1855799 -0.072528735 -0.026677834 -0.013025346
-0.26670724 -0.2769109 -0.085880175 0.13703302 -0.020148821 0.22888058 0.08337722 0.006615311
0.19371428 0.16704851 -0.23050502 0.05912322 -0.069888435 0.03949196 0.0006791836 0.060924746
0.13179332 -0.21584044 -0.15149552 0.2929646 -0.035637394 0.087090336 0.08699992 -0.1555117
0.078438684 -0.119941875 -0.16789731 -0.27418873 0.31825623 0.14845729 0.34155476 -0.2532687
-0.165774 -0.31348243 0.31161693 0.07799897 0.1351219 0.038733397 0.24311212 -0.2509653
-0.052523643 0.17081888 -0.24099895 0.13923377 -0.29827595 0.21432926 -0.2947359 -0.19184454
-0.12496232 -0.10366955 0.02681618 -0.013076846 0.14189684 0.22836351 -0.1325866 0.08430648
-0.055419236 0.0060700015 0.021326872 0.17742452 0.17974779 -0.15719777 5.6912875e-05 0.19088775
0.21762292 0.16078946 -0.29854792 -0.24237466 0.053667538 0.25463104 -0.15794282 -0.30036724
-0.31822357 -0.062458027 0.20951134 -0.31822073 -0.19974676 0.20139156 -0.34058958 0.19369644
-0.12376724 -0.026947102 -0.25572398 0.12761804 0.1050524 -0.3046448 0.14335722 -0.33769768
0.17475758 0.15841356 0.16721565 -0.27872416 0.1854997 -0.046304546 -0.17536306 0.20748518
0.298531 0.0065592006 -0.17544125 -0.20548105 0.043050468 -0.04534459 -0.2596159 -0.0871274
0.049026936 0.077572815 0.22917536 0.18831508 0.020296928 0.24893564 -0.26532346 0.20748243
0.11223349 -0.15409295 0.009176761 0.15483288 0.18922189 -0.24690641 -0.122163266 0.063364014
0.024059387 -0.11461513 -0.1526004 0.10431819 -0.15281965 -0.14607546 0.16523752 -0.10214157
0.19810942 -0.30204493 0.07871561 0.043208204 0.07374181 -0.22870705 -0.23891836 0.1519135
0.0016836576 -0.17093842 0.23962069 0.017930273 0.22029655 0.088189095 -0.1508598 0.16928363
-0.16568893 -0.13016541 -0.2205869 0.14326017 0.11187443 0.21905644 0.09867176 -0.24232912
-0.016423788 0.016353745 0.05064609 0.09511949 0.010054892 -0.106373236 0.18492587 -0.12874998
0.2184871 0.08417057 0.13292037 0.027399883 0.16691916 -0.17854276 0.12380977 0.058122855
-0.11525937 0.17431164 -0.16028172 -0.0769768 0.14264895 0.19116545 0.031801056 0.04676773
0.12390616 -0.07625237 -0.11556135 0.07363999 -0.23815629 -0.1873324 -0.37052214 -0.21040362
0.019034386 0.019902334 0.077052146 -0.06909489 -0.17720023 0.17109074 0.19323891 0.18143779
00000000: 5060 f2bd a5a6 913b 50ff 053e fb56 103c
00000010: a249 853e 8f87 713e 31cc 6a3d 8067 b7bd
00000020: 66a1 e13d 2071 31bd 127d e8bd df35 08bc
00000030: 519e e1bd 2a74 84bd 4830 a03b 8bd4 043e
00000040: 2cf0 dd3d 9c92 1cbe a99e 7bbe 4510 79bd
00000050: 22bd aabd c20f bcbc b5d6 d3bb 6fa5 6d3d
00000060: 44d6 903d 0a06 083e 6d56 9cbd 01e2 36be
00000070: a397 a2be da60 743d 9b24 80be e06e 963c
00000080: d5ac d7bd 60e8 a7bc 3d0e 96be ff36 3cbe
00000090: faba 4dbe 74cb 71be b977 5d3e 93fe 73be
000000a0: 8522 21bd e385 6b3e e41c 06be b4bf 7a3e
000000b0: f6ac a33d 9bd9 963d ab88 863e b098 a7ba
000000c0: 9d47 7d3d 3b67 d1bd 6bae 7cbe 73d8 22be
000000d0: f0a5 30bc e980 043d 8969 4ebd b4d0 01be
000000e0: 84da 14be db49 02be 12fe e5bd 91d7 a1be
000000f0: a808 3ebe f289 94bd 798b dabc 4368 55bc
00000100: da8d 88be 44c7 8dbe f2e1 afbd 6252 0c3e
00000110: 240f a5bc ac5f 6a3e adc1 aa3d 40c5 d83b
00000120: 095d 463e c40e 2b3e 8209 6cbe 312b 723d
00000130: ab21 8fbd 52c2 213d 3d0b 323a 3a8c 793d
00000140: d4f4 063e 4705 5dbe a421 1bbe 75ff 953e
00000150: 84f8 11bd 6b5c b23d 042d b23d 763e 1fbe
00000160: 76a4 a03d 16a4 f5bd 46ed 2bbe 7762 8cbe
00000170: 7bf2 a23e 3005 183e 44e0 ae3e 6fac 81be
00000180: a9c0 29be c580 a0be 418c 9f3e edbd 9f3d
00000190: 655d 0a3e e9a6 1e3d 62f2 783e 867e 80be
000001a0: 0823 57bd 25eb 2e3e 6ec8 76be 4c93 0e3e
000001b0: a0b7 98be 2179 5b3e a0e7 96be e572 44be
000001c0: 3fec ffbd b350 d4bd 9bad db3c 4440 56bc
000001d0: 684d 113e 20d8 693e c8c4 07be e0a8 ac3d
000001e0: 48ff 62bd dde6 c63b b1b5 ae3c c6ae 353e
000001f0: ce0f 383e 74f8 20be bcb5 6e38 1478 433e
00000200: 8bd8 5e3e fea5 243e 46db 98be 1031 78be
00000210: 7ed2 5b3d 005f 823e c3bb 21be bcc9 99be
00000220: 33ee a2be fdd3 7fbd 248a 563e d4ed a2be
00000230: 6a8a 4cbe 9739 4e3e c261 aebe 5c58 463e
00000240: ae79 fdbd 2bc0 dcbc 41ee 82be 4eae 023e
00000250: b625 d73d 67fa 9bbe 3ccc 123e b6e6 acbe
00000260: a7f3 323e 2a37 223e 943a 2b3e efb4 8ebe
00000270: a2f3 3d3e d6a9 3dbd 6092 33be ff76 543e
00000280: 0ed9 983e 90ee d63b dfa6 33be a069 52be
00000290: b055 303d 40bb 39bd 60ec 84be da6f b2bd
000002a0: 78d0 483d 7fde 9e3d f2ac 6a3e abd5 403e
000002b0: be45 a63c fce8 7e3e 7ad8 87be 4676 543e
000002c0: acda e53d 8bca 1dbe 205a 163c 838c 1e3e
000002d0: 62c3 413e 09d5 7cbe bc30 fabd fec4 813d
000002e0: 3118 c53c 56bb eabd 4743 1cbe c6a4 d53d
000002f0: c17c 1cbe ce94 15be 0634 293e 992f d1bd
00000300: 32dd 4a3e a2a5 9abe a635 a13d 16fb 303d
00000310: f205 973d 2e32 6abe 04a7 74be 368f 1b3e
00000320: 2dae dc3a 7b0a 2fbe 205f 753e 82e2 923c
00000330: 6b95 613e 7c9c b43d fe7a 1abe b058 2d3e
00000340: 5caa 29be 154a 05be 88e1 61be cbb2 123e
00000350: 6c1e e53d 5550 603e 6b14 ca3d 2025 78be
00000360: 2e8b 86bc 4af8 853c 4672 4f3d 02ce c23d
00000370: 46bd 243c 36da d9bd 355d 3d3e 09d7 03be
00000380: 15bb 5f3e 9f61 ac3d 471c 083e b875 e03c
00000390: dbec 2a3e ead3 36be fa8f fd3d 3b12 6e3d
000003a0: 1b0d ecbd c07e 323e e420 24be 03a6 9dbd
000003b0: 9112 123e e0c0 433e d341 023d 858f 3f3d
000003c0: 83c2 fd3d 342a 9cbd 6eab ecbd 90d0 963d
000003d0: 3edf 73be 11d4 3fbe 14b5 bdbe 0c74 57be
000003e0: 00ee 9b3c 380a a33c 84cd 9d3d 9f81 8dbd
000003f0: fa73 35be 6932 2f3e 6ce0 453e d4ca 393e

fc2.weight f4 [256, 512]
-0.004413355 0.012770086 -0.034999885 -0.13794665 -0.014562214 0.020285247 -0.02880432 -0.0028340332
-0.17991024 0.03759818 -0.011775333 -0.03739384 -0.027760927 -0.013864543 -0.07285873 -0.005332604
-0.050143123 -0.019742949 -0.02763909 0.002997167 0.115990475 0.093309306 0.005643308 0.034115456
-0.08808517 0.008713013 -0.06176848 0.02579727 0.025476895 0.082697816 0.011540527 -0.034969646
0.1155406 -0.012165982 0.048362173 -0.002503151 0.094919726 -0.017667294 -0.13115218 -0.008187662
-0.044174343 -0.085906036 -0.177571 -0.07354734 0.029958703 0.09636585 -0.023707036 -0.07917721
-0.10016285 -0.05322265 -0.068655066 -0.05846389 0.10241163 -0.18506241 -0.021171492 0.21239585
0.0151758315 -0.047833875 0.029424068 -0.0051482646 0.015978187 0.059292182 -0.108457975 0.15406731
0.0305789 -0.09939038 0.007913344 0.039284438 -0.114770435 0.011078807 0.028162073 0.011731911
-0.079175174 0.023826035 -0.027620437 -0.01330068 0.023214428 0.037426546 0.040552992 0.011671069
-0.017260661 -0.2518282 0.024248676 -0.06300846 -0.014093984 0.075982936 -0.019775843 0.04072405
-0.13185236 0.04338031 -0.037830494 0.0027548335 0.03606934 0.005710943 0.017160306 -0.038809117
0.0009084348 0.16113077 -0.13028878 -0.15093789 0.00441709 0.04970361 -0.019233458 0.012207754
-0.040502008 0.03156135 -0.1444511 0.13532756 0.15311462 0.004669048 -0.019781876 0.009929573
-0.0065301196 -0.041576557 0.0073658675 0.06878013 0.052590527 0.07282202 -0.0036104769 -0.016080294
-0.09886067 -0.04219955 0.09202807 0.0801742 0.017939374 0.0018134902 -0.17631206 0.12325737
-0.026767336 -0.13537131 -0.062023774 -0.008557162 0.029235719 -0.16518334 -0.044617914 -0.033110917
0.033179067 0.055281878 0.08162832 0.049538657 0.0022016056 0.006795165 0.008842801 -0.010992985
0.20168294 -0.036206603 0.088134155 -0.03185828 -0.052332927 0.02621824 0.081235506 0.09564464
-0.06815646 0.012846951 -0.1392658 0.0036928803 -0.14108884 0.12933162 0.006555861 0.0031999804
-0.109353185 -0.009962996 -0.030502733 -0.12536505 -0.11069268 -0.018064706 0.07717562 -0.005537316
-0.20427251 -0.05342626 -0.032720078 -0.053780116 -0.017537847 -0.015288732 -0.008151449 0.12421811
0.16549996 -0.16527997 -0.27018416 0.04450237 -0.044870727 -0.0066674612 -0.03385696 0.1492411
0.024826877 0.14920327 -0.0020822212 -0.041688025 0.00946453 -0.019225478 -0.013774622 -0.04637143
0.20003724 -0.00853572 0.052248962 0.06939079 0.03363234 0.032809474 -0.033325355 0.091432996
0.0057338597 -0.056219246 -0.005340731 0.041232724 0.08119727 -0.055617176 0.22235307 0.02350571
-0.015707213 0.016897164 -0.046279065 0.030876461 -0.059302013 0.13890763 0.017195178 -0.21550116
-0.095530614 0.07147121 0.06011138 0.10785492 -0.07829383 -0.014486303 -0.0016243102 0.15095192
0.06353979 -0.025475249 0.007548243 -0.052582618 0.057615746 -0.0057971515 0.24575105 0.035431195
0.019911772 -0.13041848 0.032853376 0.043319363 -0.12857842 -0.118252605 -0.051329628 -0.08327394
0.06462251 0.032686654 -0.13282183 0.013934705 -0.15499288 -0.014824723 -0.22461343 -0.028675077
0.017567076 -0.0069370004 0.101712465 0.043584727 0.051191483 0.03689773 0.017412966 0.017246358
00000000: e89d 90bb 9f39 513c 0a5c 0fbd e341 0dbe
00000010: 5a96 6ebc 3f2d a63c 0af7 ebbc 30bb 39bb
00000020: 643a 38be 8d00 1a3d 54ed 40bc 482a 19bd
00000030: e26a e3bc 1c28 63bc f536 95bd 20bd aebb
00000040: e062 4dbd f7bb a1bc 5f6b e2bc 1e6c 443b
00000050: 6a8c ed3d f318 bf3d 80eb b83b a6bc 0b3d
00000060: ff65 b4bd 06c1 0e3c f200 7dbd cc54 d33c
00000070: ecb4 d03c 795d a93d 7b14 3d3c 553c 0fbd
00000080: 8da0 ec3d d453 47bc 6a17 463d e80b 24bb
00000090: 4665 c23d 00bb 90bc c24c 06be 8b25 06bc
000000a0: 28f0 34bd 81ef afbd 2cd5 35be fd9f 96bd
000000b0: f46b f53c 755b c53d 4235 c2bc a927 a2bd
000000c0: 2e22 cdbd feff 59bd 079b 8cbd d577 6fbd
000000d0: 30bd d13d 0081 3dbe d66f adbc 4c7e 593e
000000e0: 0da4 783c 74ed 43bd be0a f13c c6b2 a8bb
000000f0: b0e4 823c 5cdc 723d 371f debd d2c3 1d3e
00000100: 9a80 fa3c 2f8d cbbd f8a6 013c b8e8 203d
00000110: c30c ebbd e283 353c 26b4 e63c 3437 403c
00000120: 9826 a2bd d12e c33c 4144 e2bc 18eb 59bc
00000130: 2f2c be3c 944c 193d e51a 263d 0338 3f3c
00000140: 3b66 8dbc a0ef 80be 29a5 c63c 940a 81bd
00000150: 74ea 66bc f19c 9b3d f300 a2bc 43ce 263d
00000160: 4e04 07be 8daf 313d 26f4 1abd 708a 343b
00000170: 72bd 133d dd22 bb3b c593 8c3c 4ff6 1ebd
00000180: 0724 6e3a 77ff 243e 6c6a 05be 768f 1abe
00000190: 3dbd 903b 0396 4b3d 7c8f 9dbc 0803 483c
000001a0: 6fe5 25bd 7946 013d fdea 13be 4f93 0a3e
000001b0: 14ca 1c3e d0fe 983b 9a0d a2bc a6af 223c
000001c0: 9dfa d5bb 2e4c 2abd 605d f13b 99dc 8c3d
000001d0: 2a69 573d b623 953d c09d 6cbb d2ba 83bc
000001e0: 7777 cabd 6fd9 2cbd 3679 bc3d 5f32 a43d
000001f0: 98f5 923c a2b2 ed3a 268b 34be 5c6e fc3d
00000200: 2c47 dbbc c79e 0abe a40c 7ebd 5733 0cbc
00000210: bf7f ef3c d225 29be 46c1 36bd 509f 07bd
00000220: c6e6 073d 406f 623d c02c a73d 0ce9 4a3d
00000230: d048 103b faa9 de3b 65e1 103c ec1b 34bc
00000240: f985 4e3e 604d 14bd ae7f b43d d47d 02bd
00000250: 0d5b 56bd a2c7 d63c cd5e a63d 56e1 c33d
00000260: 9d95 8bbd 057c 523c b29b 0ebe 4004 723b
00000270: 9879 10be 826f 043e 8cd2 d63b c3b6 513b
00000280: 90f4 dfbd d53b 23bc dee0 f9bc b25f 00be
00000290: d8b2 e2bd 6ffc 93bc 400e 9e3d 6072 b5bb
000002a0: d02c 51be 7ed5 5abd 7d05 06bd 8a48 5cbd
000002b0: 88ab 8fbc 977d 7abc a88d 05bc 1166 fe3d
000002c0: d278 293e 273f 29be 9455 8abe 1e48 363d
000002d0: 5eca 37bd b87a dabb 98ad 0abd a9d2 183e
000002e0: bc61 cb3c bec8 183e e075 08bb 10c1 2abd
000002f0: 1e11 1b3c c07e 9dbc f4ae 61bc f8ef 3dbd
00000300: 90d6 4c3e 68d9 0bbc 0203 563d c21c 8e3d
00000310: 11c2 093d 3a63 063d 2b80 08bd 3941 bb3d
00000320: 1ae3 bb3b 2746 66bd 4c01 afbb a5e3 283d
00000330: c14a a63d d6ce 63bd 86b0 633e 0c8f c03c
00000340: 6aac 80bc ec6b 8a3c 1e8f 3dbd a2f0 fc3c
00000350: abe6 72bd cd3d 0e3e e7dc 8c3c 56ac 5cbe
00000360: 8ea5 c3bd 7f5f 923d 5a37 763d 0ae3 dc3d
00000370: 8458 a0bd f557 6dbc cee6 d4ba 2493 1a3e
00000380: 2621 823d 78b1 d0bc 4057 f73b df60 57bd
00000390: 7dfe 6b3d 08f6 bdbb 2aa6 7b3e 4d20 113d
000003a0: 031e a33c 6c8c 05be 4391 063d a56f 313d
000003b0: 10aa 03be 6c2e f2bd 043f 52bd 878b aabd
000003c0: ce58 843d 71e2 053d 7202 08be 644e 643c
000003d0: 74b6 1ebe 65e3 72bc 1001 66be ffe7 eabc
000003e0: d4e8 8f3c c74f e3bb a04e d03d e685 323d
000003f0: 29ae 513d 1322 173d a3a5 8e3c 3c48 8d3c

fc2.bias f4 [256]
0.02300355 -0.00290926 0.0129377935 0.045979526 -0.02792087 0.056544024 0.033228442 -0.010963982
0.045678712 -0.024385659 -0.009210938 -0.021264201 -0.042857945 0.024569549 0.031921398 0.029016895
0.01991852 0.025353113 0.032699272 0.019294577 -0.008049604 0.019232037 0.044487216 0.020649647
0.006283893 -0.00042249513 0.023095882 0.041717708 -0.042119414 0.031966023 -0.03666308 0.0671249
0.016051156 0.056632526 -0.035644755 -0.02287499 0.019769076 0.020837495 0.009540613 -0.030105945
-0.014254953 0.044357263 -0.010047925 -0.028509647 0.006585127 0.012360797 0.03501675 -0.046413492
0.0378849 -0.040339757 0.056912195 0.012247611 0.009204517 0.02938606 -0.003985243 0.04727992
0.018923448 -0.020554896 -0.004978827 0.0065604174 0.018195862 0.04815387 -0.020923976 -0.026599934
0.010769046 -0.0065587126 0.042848997 -0.022273257 -0.01647819 -0.030959811 -0.041164476 0.0068261717
0.032890618 -0.02040428 0.037780832 0.00932992 -0.03818613 0.066924624 -0.028330246 0.0121738
-0.019140182 -0.042550948 0.06801843 -0.015969582 0.05307143 -0.029019339 0.010589694 -0.006373737
0.03255677 0.01833539 0.036196526 0.006403703 -0.06512083 -0.0003789509 -0.016225608 -0.017540518
-0.0030909393 0.0073481393 0.05146269 -0.0025412603 -0.03246626 -0.0008431671 -0.037806552 0.03762939
0.009163564 -3.1520336e-05 -0.006671572 -0.0015578078 0.03411668 0.045914195 0.036674827 0.011329524
0.0071410243 0.02644169 0.0035076856 0.011615905 0.063747965 -0.08758463 -0.0075263837 -0.0062706927
0.03362294 0.03289612 0.04633257 -0.020753412 0.010333684 -0.0071977684 0.03254676 0.024985122
-0.03204612 -0.028390788 0.0034657277 0.0050023952 -0.019923558 0.032553762 -0.035277307 0.047466863
-0.0200539 0.003937522 0.0026457906 0.026408311 -0.013264585 0.0055399495 0.029087236 0.0037832048
-0.013579485 0.026524372 0.03178936 0.006630137 0.036658425 -0.026417302 -0.04259056 -0.03844543
0.005617765 0.04741031 0.026943512 0.0034963908 -0.03242944 -0.038172197 -0.0010174242 -0.02796182
0.0012137074 0.056856662 0.008206238 -0.014182243 0.021612015 0.013543499 0.03128555 -0.032219276
-0.0035898755 -0.027225789 0.013690173 0.027512651 0.03798714 0.052554008 -0.041324504 0.00537977
-0.03685201 0.030187083 0.021239137 -0.013283154 -0.014578499 0.031357564 0.00017601845 -0.029767197
0.036633126 0.038822897 0.007636454 -0.006094537 0.025836475 -0.053725604 0.023490373 -0.019181006
0.027824108 0.017717695 0.01008041 0.000853528 -0.01928194 0.03132686 -0.018648274 0.00023157184
0.006658361 0.045556217 0.0012578857 0.011497127 0.02714365 0.032859318 -0.03167313 0.00145065
-0.04184296 0.049769018 0.01918868 0.032035917 -0.03695076 0.018055238 0.019526564 -0.016824026
0.0627357 0.040222425 -0.004495407 -0.029946167 -0.0007925219 0.035065196 -0.008703933 0.0331499
-0.024066107 0.039897323 -0.013344381 0.038976718 0.043682225 -0.004471775 -0.008193016 -0.021124307
0.0026612356 -0.013687741 0.0297385 -0.022162093 -0.028771283 0.021992637 0.0084594805 0.03487563
-0.015971975 -0.033977296 0.03306142 -0.014113058 0.04229511 -0.0012172344 -0.037332967 0.0049969745
-0.037215266 -0.003922222 0.02597887 -0.0036054722 0.0005751785 -0.013772499 0.034548737 0.01756516
00000000: f171 bc3c 49a9 3ebb 0af9 533c 0755 3c3d
00000010: 4fba e4bc b59a 673d 8c1a 083d 46a2 33bc
00000020: 9a19 3b3d 6fc4 c7bc 79e9 16bc 4332 aebc
00000030: d08b 2fbd 1446 c93c 03c0 023d d7b4 ed3c
00000040: 2a2c a33c 55b1 cf3c acef 053d a90f 9e3c
00000050: 7ce2 03bc 818c 9d3c 3a38 363d 7329 a93c
00000060: 1de9 cd3b 5682 ddb9 9333 bd3c 30e0 2a3d
00000070: 6885 2cbd ceee 023d 072c 16bd c878 893d
00000080: b77d 833c 82f7 673d 3c00 12bd 5564 bbbc
00000090: c2f2 a13c 65b3 aa3c 3b50 1c3c bea0 f6bc
000000a0: 9b8d 69bc f6af 353d 0da0 24bc 108d e9bc
000000b0: 0dc8 d73b f184 4a3c b96d 0f3d 131c 3ebd
000000c0: 322d 1b3d 4d3b 25bd c31c 693d 34aa 483c
000000d0: 8bce 163c 09bb f03c a496 82bb 97a8 413d
000000e0: 5905 9b3c be62 a8bc 6e25 a3bb c5f8 d63b
000000f0: 7d0f 953c fe3c 453d c268 abbc 1be8 d9bc
00000100: a770 303c 78ea d6bb 6e82 2f3d 6876 b6bc
00000110: 45fd 86bc 6e9f fdbc 159c 28bd 14ae df3b
00000120: 50b8 063d e026 a7bc 13c0 1a3d 85dc 183c
00000130: 0f69 1cbd c70f 893d d514 e8bc 9e74 473c
00000140: dfcb 9cbc e749 2ebd 3f4d 8b3d a4d2 82bc
00000150: 6e61 593d f7b9 edbc 6580 2d3c c8da d0bb
00000160: 3f5a 053d 1a34 963c cf42 143d 27d6 d13b
00000170: 125e 85bd eead c6b9 91eb 84bc 22b1 8fbc
00000180: 5b91 4abb a9c8 f03b 8bca 523d 468b 26bb
00000190: 57fb 04bd fc07 5dba 0bdb 1abd 4621 1a3d
000001a0: c622 163c b434 04b8 349d dabb 5b2f ccba
000001b0: efbd 0b3d 8610 3c3d 5838 163d 789f 393c
000001c0: 41ff e93b 3e9c d83c 33e1 653b a350 3e3c
000001d0: 4b8e 823d 925f b3bd e29f f6bb 627a cdbb
000001e0: 35b8 093d 15be 063d 39c7 3d3d 0f03 aabc
000001f0: 9d4e 293c 42db ebbb c04f 053d 99ad cc3c
00000200: cb42 03bd cc93 e8bc 4321 633b 22eb a33b
00000210: bb36 a3bc 1857 053d f07e 10bd 9d6c 423d
00000220: 1448 a4bc 5406 813b 0065 2d3b 3e56 d83c
00000230: b453 59bc 7788 b53b 5b48 ee3c a5ef 773b
00000240: 7d7c 5ebc a449 d93c 8f35 023d 9f41 d93b
00000250: 2527 163d 1969 d8bc 7073 2ebd f578 1dbd
00000260: 3a15 b83b 5031 423d a4b8 dc3c b423 653b
00000270: bcd4 04bd 735a 1cbd 175b 85ba 3010 e5bc
00000280: 4315 9f3a 88e2 683d 7573 063c a35c 68bc
00000290: ae0b b13c 8de5 5d3c 4725 003d 5cf8 03bd
000002a0: 1e44 6bbb 9e08 dfbc bf4c 603c 3662 e13c
000002b0: 6798 1b3d df42 573d e243 29bd c848 b03b
000002c0: 22f2 16bd e74a f73c b3fd ad3c 96a1 59bc
000002d0: a8da 6ebc ca70 003d 9891 3839 56da f3bc
000002e0: 9e0c 163d c204 1f3d 383b fa3b afb4 c7bb
000002f0: 04a7 d33c 610f 5cbd e26e c03c 7c21 9dbc
00000300: 62ef e33c b324 913c 4e28 253c 4bbf 5f3a
00000310: 29f5 9dbc 9850 003d 44c4 98bc 18d2 7239
00000320: 612e da3b 2899 3a3d a4df a43a 725e 3c3c
00000330: 5c5c de3c 7e97 063d afbb 01bd bd23 be3a
00000340: 8663 2bbd 99da 4b3d 9431 9d3c 1838 033d
00000350: ae59 17bd 94e8 933c 2cf6 9f3c 8ad2 89bc
00000360: 937b 803d 45c0 243d 354e 93bb aa51 f5bc
00000370: 3fc1 4fba 86a0 0f3d f19a 0ebc 31c8 073d
00000380: 4926 c5bc 606b 233d 64a2 5abc 0da6 1f3d
00000390: 22ec 323d f887 92bb 003c 06bc e20c adbc
000003a0: 2068 2e3b 8c42 60bc 289e f33c 478d b5bc
000003b0: c1b1 ebbc e729 b43c a299 0a3c c0d9 0e3d
000003c0: a9d7 82bc c72b 0bbd 696b 073d 753a 67bc
000003d0: a33d 2d3d 9c8b 9fba 74ea 18bd a9bd a33b
000003e0: 096f 18bd fc85 80bb a4d1 d43c c949 6cbb
000003f0: 93c7 163a 0ca6 61bc fa82 0d3d cfe4 8f3c

fc3.weight f4 [128, 256]
-0.27482685 0.048234027 -0.074833095 0.05918668 -0.03147073 0.114983276 -0.03068939 0.08204613
0.0018276025 0.20548624 0.047969587 -0.08737614 0.05328486 -0.023831474 0.20793371 0.026701856
-0.03790654 -0.0058344947 -0.0178743 0.041531984 -0.0065170377 0.059262138 0.1782453 0.0058954516
0.022533244 -0.045785923 0.42177215 0.043764144 -0.028440796 -0.05302773 -0.029688163 0.020686012
-0.036258187 0.035484843 0.019319301 -0.017407343 -0.04182755 0.08522156 -0.035752837 0.11381921
-0.037718643 -0.051811002 0.6861296 -0.050956458 -0.033499256 0.8204301 0.07914821 0.01691054
0.020453872 0.17441075 0.096229814 0.0218537 0.04257785 -0.019690134 0.286494 0.051845253
0.00013327936 0.20507649 0.011632687 0.008346998 0.09189468 -0.0024044367 0.07059956 0.12436445
0.4200565 0.12916972 0.07656224 0.050729964 -0.007925153 -0.060155287 0.034459345 -0.023490747
0.26575842 0.01830129 0.017982949 -0.023916932 0.05806444 0.11115184 -0.008106014 0.08225843
-0.004672925 -0.016931029 0.046271864 0.05993351 0.049191754 0.03579695 0.2687097 0.049490064
0.021727761 0.04701577 0.2155567 0.02761968 -0.08777761 0.09330807 0.043719873 0.096171856
-0.020571606 -0.005358052 -0.09997289 -0.0010976274 0.006983887 -0.046315778 0.035805568 0.03338085
-0.042430744 0.019440435 0.053716112 -0.19793782 -0.29138628 0.06449997 0.14133829 0.037612814
-0.020387545 -0.015824541 0.13980871 -0.19499741 0.018521305 0.050320547 0.19210668 -0.11504068
0.027932208 -0.03892851 0.08042932 0.037968814 0.14318006 0.057303496 -0.06553244 0.010864642
0.16464089 0.044257317 0.41042012 -0.05947455 -0.0010232313 0.04340285 -0.0027861188 -0.21498658
0.016764991 -0.073593475 0.0019545597 0.027498754 -0.04913027 0.015443916 -0.0066777593 0.047214404
-0.37664244 0.049614295 0.051443033 0.012597558 0.05624376 0.21163864 0.059264045 0.0009064467
0.109329574 -0.027690226 -0.014236866 0.018362148 -0.04174052 0.06354059 0.6226714 0.013457108
-0.103214204 0.019838529 0.16666813 0.023860352 -0.021256989 -0.011127341 -0.0024077538 0.0035031773
-0.06105 -0.058120176 0.12950696 0.1082392 -0.08614035 -0.013273502 0.051727876 0.043396436
0.033535764 0.11654379 -0.048128698 0.050015897 0.12885933 -0.15374629 0.14625819 -0.039734736
0.055363767 -0.089111835 0.096556894 0.05034979 0.032882694 0.12934354 0.044674635 -0.15743996
0.0005505703 -0.0027116074 -0.045744997 0.17365146 0.14145882 0.12246568 -0.18719262 0.054243527
0.010965446 0.023821613 0.3369883 0.56295335 0.02469302 0.11048957 0.004900924 0.081055716
-0.012878738 0.0055403453 -0.011539447 0.24039333 0.022009816 -0.45293725 0.0019796994 0.05787475
-0.05761694 0.16016091 0.0054559465 0.059947364 -0.022018306 -0.2702792 0.11216189 0.11390829
-0.030095953 0.008223058 0.033319008 -0.054218378 -0.05891009 0.066449456 0.07114437 -0.03228914
0.01734293 -0.051615078 -0.091278106 0.05821521 0.1741547 -0.020438224 -0.00085818564 -0.03352675
-0.05907486 -0.050040077 0.035726465 0.14800632 0.042558044 0.14283499 -0.0004054572 -0.061296426
-0.00911344 -0.16954021 0.0035428724 0.15487319 0.113709204 0.06559153 0.3368602 0.046023566
00000000: 1bb6 8cbe 0b91 453d 1842 99bd bb6d 723d
00000010: 74e7 00bd 5a7c eb3d 5168 fbbc cd07 a83d
00000020: 2a8c ef3a fc6a 523e c27b 443d 43f2 b2bd
00000030: 3a41 5a3d 393a c3bc 93ec 543e dabd da3c
00000040: e343 1bbd 4a2f bfbb 206d 92bc 711d 2a3d
00000050: e08c d5bb dbbc 723d f085 363e a22e c13b
00000060: a397 b83c 058a 3bbd 85f2 d73e 0842 333d
00000070: acfc e8bc 9b33 59bd 9734 f3bc b675 a93c
00000080: 7783 14bd 8e58 113d 8343 9e3c d899 8ebc
00000090: 5d53 2bbd a488 ae3d 9171 12bd 0c1a e93d
000000a0: dd7e 1abd c637 54bd 31a6 2f3f b8b7 50bd
000000b0: 8436 09bd b507 523f 7518 a23d f987 8a3c
000000c0: e18e a73c bb98 323e 2314 c53d 8806 b33c
000000d0: 1d66 2e3d 344d a1bc 57af 923e b05b 543d
000000e0: e8c0 0b39 92ff 513e 0797 3e3c d9c1 083c
000000f0: 4733 bc3d c193 1dbb 8196 903d cab2 fe3d
00000100: a511 d73e 1145 043e aacc 9c3d 39ca 4f3d
00000110: 80d8 01bc 6465 76bd 3e25 0d3d ab6f c0bc
00000120: 7d11 883e 96ec 953c fa50 933c 71ed c3bc
00000130: fad4 6d3d 93a3 e33d 16cf 04bc 1c77 a83d
00000140: 561f 99bb f1b2 8abc 9187 3d3d d77c 753d
00000150: 4b7d 493d d39f 123d 5194 893e 18b6 4a3d
00000160: 6bfe b13c 9c93 403d e5ba 5c3e ab42 e23c
00000170: bfc4 b3bd 4d18 bf3d 9c13 333d c0f5 c43d
00000180: c985 a8bc 9992 afbb 96be ccbd 44de 8fba
00000190: 17d9 e43b 9db5 3dbd dca8 123d 5cba 083d
000001a0: dccb 2dbd 8c41 9f3c 6d05 5c3d 36b0 4abe
000001b0: 9530 95be 8f18 843d fcba 103e e50f 1a3d
000001c0: c803 a7bc 78a2 81bc 042a 0f3e 67ad 47be
000001d0: feb9 973c eb1c 4e3d 9db7 443e 739a ebbd
000001e0: 16d2 e43c 8073 1fbd 21b8 a43d 3085 1b3d
000001f0: cb9d 123e 12b7 6a3d df35 86bd 9d01 323c
00000200: 9f97 283e 2947 353d 9622 d23e 969b 73bd
00000210: f21d 86ba 30c7 313d 5197 36bb 7125 5cbe
00000220: bc56 893c 2db8 96bd 1218 003b 1145 e13c
00000230: d23c 49bd 7b08 7d3c 1bd1 dabb e463 413d
00000240: 47d7 c0be 5c38 4b3d eeb5 523d fd65 4e3c
00000250: db5f 663d cdb7 583e dbbe 723d 9c9e 6d3a
00000260: 2fe8 df3d 9dd6 e2bc be41 69bc 376c 963c
00000270: 1cf8 2abd 9221 823d 6567 1f3f 347b 5c3c
00000280: f861 d3bd 6984 a23c 0dab 2a3e c976 c33c
00000290: 2323 aebc 734f 36bc 68cb 1dbb 9095 653b
000002a0: 910f 7abd 6c0f 6ebd 799d 043e 84ac dd3d
000002b0: 5a6a b0bd 1a79 59bc 9ce0 533d 76c0 313d
000002c0: cc5c 093d 83ae ee3d 9922 45bd 78dd 4c3d
000002d0: b3f3 033e ab6f 1dbe b5c4 153e e4c0 22bd
000002e0: 1ec5 623d 4480 b6bd 9fbf c53d 953b 4e3d
000002f0: 01b0 063d a272 043e c0fc 363d f137 21be
00000300: 2654 103a 39b5 31bb 1b5f 3bbd b0d1 313e
00000310: 95da 103e 49cf fa3d 6caf 3fbe 762e 5e3d
00000320: 6aa8 333c 8b25 c33c bb89 ac3e b61d 103f
00000330: 0449 ca3c 5b48 e23d ee97 a03b 8a00 a63d
00000340: 5801 53bc c98b b53b f30f 3dbc ab29 763e
00000350: ee4d b43c 64e7 e7be d8bd 013b 130e 6d3d
00000360: beff 6bbd 3901 243e ccc7 b23b 5e8b 753d
00000370: bc5f b4bc 0962 8abe 22b5 e53d c048 e93d
00000380: ca8b f6bc 01ba 063c 8379 083d 1714 5ebd
00000390: b54b 71bd a716 883d 24b4 913d 9e41 04bd
000003a0: c312 8e3c 556a 53bd 04f0 babd 1273 6e3d
000003b0: 9c55 323e 106e a7bc ddf7 60ba 5853 09bd
000003c0: 7bf8 71bd d3f6 4cbd ea55 123d f88e 173e
000003d0: 5851 2e3d 5643 123e 8b93 d4b9 f611 7bbd
000003e0: 8a50 15bc f39b 2dbe 892f 683b 1497 1e3e
000003f0: 5fe0 e83d da54 863d f178 ac3e 3583 3c3d

fc3.bias f4 [128]
0.08595908 0.06376251 0.005475431 -0.0092718825 0.053958595 0.039984398 0.026174154 0.023711223
-0.012203549 0.108320154 0.003593391 0.0050744573 -0.015707588 0.025603676 0.06376451 0.06262701
-0.03082042 0.013303152 0.014307602 0.051017936 0.024269113 -0.019562803 -0.022541547 -0.00023665949
0.055377696 -0.04147836 0.08465775 -0.0646394 -0.034575097 0.087454 0.020337451 -0.021922847
-0.030904964 0.002607194 0.0073385327 0.05517099 0.03951138 0.0011663297 -0.031281065 -0.059079483
0.028781349 -0.03523358 -0.035337146 -0.0018009511 -0.057745673 0.10942111 -0.07399234 -0.0118837
0.0346599 0.020868992 0.027015025 0.103063434 0.115978226 0.05531842 0.0667908 0.013297582
0.030347897 0.015255897 0.03782782 0.06444212 0.04199913 0.05603157 0.044556256 0.042394955
0.013551365 -0.00659537 0.046435528 0.021102546 -0.031559817 0.041946452 0.034366395 0.013826857
0.02445421 0.024771633 0.047023736 -0.024502994 -0.010145544 0.054540563 -0.084617235 -0.012098439
-0.010570222 -0.0664776 0.011231643 0.010042373 0.092101246 -0.0744453 -0.028151397 -0.022349782
-0.06555663 -0.01899667 0.0012589531 0.011422565 0.0068555265 0.04562608 -0.059975546 0.02230912
-0.016811347 -0.015372885 0.07818785 0.027702488 0.000714243 -0.00516041 -0.069401376 -0.004346782
0.083401404 0.086378075 -0.015374962 0.016472097 0.013982533 0.022852791 0.017796408 0.054035712
-0.05200336 -0.051589273 0.054760408 -0.07206758 0.033822227 0.023170108 0.051819935 0.005885128
0.024791874 0.08265125 0.05540523 -0.007640195 -0.02636593 -0.0031049787 0.06456327 -0.009860987
00000000: 500b b03d eb95 823d 3f6b b33b 18e9 17bc
00000010: b003 5d3d aec6 233d 2e6b d63c 0a3e c23c
00000020: 65f1 47bc f5d6 dd3d 197f 6b3b a247 a63b
00000030: 33ad 80bc cdbe d13c f896 823d 9742 803d
00000040: 1b7b fcbc 77f5 593c 6f6a 6a3c 2ff8 503d
00000050: 05d0 c63c 2c42 a0bc 0da9 b8bc cc27 78b9
00000060: b9d3 623d 36e5 29bd 0b61 ad3d a961 84bd
00000070: 9e9e 0dbd 151b b33d ba9a a63c 8b97 b3bc
00000080: 682c fdbc 75dd 2a3b 1378 f03b fafa 613d
00000090: afd6 213d 88df 983a 9320 00bd 54fd 71bd
000000a0: ddc6 eb3c 1651 10bd afbd 10bd e40d ecba
000000b0: ba86 6cbd 2d18 e03d 4c89 97bd dab3 42bc
000000c0: 8af7 0d3d 73f5 aa3c 9d4e dd3c ec12 d33d
000000d0: fe85 ed3d 9195 623d 9dc9 883d 1ade 593c
000000e0: 279c f83c dff3 793c 58f1 1a3d 3bfa 833d
000000f0: 4807 2c3d 5c81 653d 9f80 363d 55a6 2d3d
00000100: 8b06 5e3c f91d d8bb 2e33 3e3d 3fdf ac3c
00000110: de44 01bd 0bd0 2b3d c7c3 0c3d 0b8a 623c
00000120: 3254 c83c e1ed ca3c f69b 403d 81ba c8bc
00000130: 7f39 26bc ed65 5f3d cd4b adbd 8838 46bc
00000140: b92e 2dbc 6825 88bd ed04 383c c488 243c
00000150: 949f bc3d c776 98bd c29d e6bc e416 b7bc
00000160: 8e42 86bd e89e 9bbc 7503 a53a b625 3b3c
00000170: 53a4 e03b 6ae2 3a3d eba8 75bd 9ec1 b63c
00000180: f3b7 89bc 8ede 7bbc f420 a03d 54f0 e23c
00000190: 093c 3b3a a818 a9bb 4f22 8ebd 736f 8ebb
000001a0: 5bce aa3d fde6 b03d 44e7 7bbc 7ef0 863c
000001b0: fe16 653c c735 bb3c c6c9 913c 8d54 5d3d
000001c0: 7a01 55bd 464f 53bd 734c 603d 2b98 93bd
000001d0: 2d89 0a3d 3dcf bd3c 2441 543d 08d8 c03b
000001e0: 5418 cb3c 0f45 a93d 98f0 623d 9a5a fabb
000001f0: 5dfd d7bc e67c 4bbb bf39 843d fa8f 21bc

out.weight f4 [7, 128]
-0.040048342 -0.075278476 0.19569787 -0.11048254 0.10639179 0.20731778 0.025075128 -0.08704589
0.03173414 0.18350008 0.057419207 0.07253853 -0.079527564 -0.0708862 0.05335161 -0.03261464
-0.073365964 0.09692636 -0.37711656 -0.079867326 -0.07183054 0.3312746 0.070241794 0.076589175
0.042166494 -0.08349058 -0.12373229 -0.0037998247 0.06038619 -0.0756329 -0.03951585 -0.171266
-0.24575032 0.054941405 -0.07381122 -0.046072777 -0.08520424 0.1783948 -0.021744419 -0.0754385
-0.05648276 0.01945017 0.08082637 -0.16045104 0.019217012 0.09959858 0.041641466 0.056335986
0.09239551 -0.079776846 -0.08528156 0.08865687 0.0053827283 0.05528689 -0.12945342 -0.03257003
0.07258087 -0.124510214 -0.04770319 0.19197145 0.09643111 -0.13601857 -0.020372989 0.23043557
-0.0006257616 0.14518012 -0.086069904 -0.060757197 -0.016503219 0.16734536 0.056541774 0.043653354
-0.09163436 -0.11569204 -0.08180683 0.07158266 -0.36923853 -0.0066056103 -0.36461872 -0.12442772
0.1438003 -0.06698005 -0.35157922 0.18976703 -0.09553462 0.05749686 -0.17361933 -0.036651645
-0.04233443 -0.1177594 0.07721788 -0.11228561 0.22062832 0.23655632 -0.02075348 -0.2753311
-0.062482502 0.041790955 0.25429043 0.0071282405 0.71752876 0.068215705 -0.050843313 0.071001254
0.082791954 0.008505763 -0.12760204 0.052171666 -0.020892791 0.081640095 0.037604846 -0.075128935
-0.022782743 -0.056320906 0.15086243 -0.04397905 -0.22798923 -0.11226693 -0.10442714 -0.025381261
0.007681957 -0.13480163 0.074917264 -0.034090217 0.088047646 0.13532457 0.124332674 -0.02475298
0.074483395 -0.11109208 0.17320694 -0.01931646 0.0047759046 0.1468068 0.03517536 -0.12039802
-0.19322 0.14018914 0.0010061414 0.08131303 -0.032434624 0.019631483 -0.0012770955 -0.107134245
-0.13086492 -0.13130446 -0.34274745 -0.12643556 -0.08858884 0.28078154 -0.014601521 -0.08825503
0.0472688 0.05560133 0.016927203 -0.062105995 0.058669683 -0.09908796 0.06708336 0.072492704
-0.18220359 0.042137768 -0.11002837 -0.12564215 -0.08769251 0.09184096 -0.11353922 0.043644186
0.023203442 0.08492885 -0.030902231 -0.11956989 0.042114638 0.13569355 -0.108147055 -0.041063935
0.13507727 -0.01772417 -0.040150043 0.114867225 -0.1586725 0.1610407 -0.121821195 -0.2415518
-0.07680434 -0.13168018 -0.20520206 0.116696574 0.006603584 0.0066218544 -0.022184707 -0.12925766
-0.068800785 0.13377638 -0.105034724 0.061965916 -0.0062144827 0.1616272 0.13820504 -0.08748384
-0.02346985 -0.11754315 -0.052928045 0.014555663 -0.49268246 -0.061022326 -0.36682668 -0.14455885
-0.068969786 -0.0031009763 -0.21813352 0.11274815 -0.051706195 -0.23338991 -0.1003874 -0.18752834
-0.065503046 -0.13666889 0.08917695 -0.06451027 0.15013494 0.023523595 0.01542451 0.11159888
-0.005592915 -0.074719936 -0.11588413 -0.080219544 0.6701478 -0.043927066 -0.12995683 -0.05754747
0.13705422 0.13369179 -0.19950627 -0.07077688 -0.17253216 0.4331883 0.07793612 -0.1325333
0.069185816 0.07671625 0.24374199 -0.06415985 -0.03914435 -0.02111381 0.04326487 -0.044171248
0.043132175 -0.12105331 0.10764403 -0.06542532 0.004722448 0.13262078 0.12434807 0.031042624
00000000: bb09 24bd 9a2b 9abd 0665 483e ac44 e2bd
00000010: f0e3 d93d 1d4b 543e 5b6a cd3c 1e45 b2bd
00000020: a8fb 013d 72e7 3b3e 6730 6b3d 158f 943d
00000030: 59df a2bd c92c 91bd 3887 5a3d ee96 05bd
00000040: e540 96bd 5481 c63d 6c15 c1be 7b91 a3bd
00000050: e41b 93bd d39c a93e eeda 8f3d c9da 9c3d
00000060: c6b6 2c3d 1cfd aabd 5b67 fdbd 7b06 79bb
00000070: 8257 773d 6ce5 9abd 5fdb 21bd 5b60 2fbe
00000080: f9a5 7bbe 3d0a 613d 562a 97bd cfb6 3cbd
00000090: 907f aebd 20ad 363e 5a21 b2bc 807f 9abd
000000a0: 775a 67bd f755 9f3c 4c88 a53d 474d 24be
000000b0: ff6c 9d3c 57fa cb3d 3e90 2a3d 90c0 663d
000000c0: db39 bd3d 0b62 a3bd 19a8 aebd bc91 b53d
000000d0: 9961 b03b 8274 623d 708f 04be 2768 05bd
000000e0: 47a5 943d 36ff febd 6c64 43bd 2a94 443e
000000f0: ac7d c53d 7448 0bbe 41e5 a6bc 4df7 6b3e
00000100: 260a 24ba 19aa 143e 6b45 b0bd 8adc 78bd
00000110: c231 87bc 955c 2b3e 5998 673d dccd 323d
00000120: ccaa bbbd f3ef ecbd 578a a7bd ee99 923d
00000130: d50c bdbe e073 d8bb 4eaf babe f6d3 febd
00000140: 6340 133e d62c 89bd 3102 b4be 4a52 423e
00000150: a8a7 c3bd d481 6b3d 44c9 31be 0920 16bd
00000160: de66 2dbd d72b f1bd 6824 9e3d fff5 e5bd
00000170: 64ec 613e d23b 723e 3403 aabc 33f8 8cbe
00000180: a7ed 7fbd fe2c 2b3d 5b32 823e 0494 e93b
00000190: f7af 373f adb4 8b3d 1441 50bd 1b69 913d
000001a0: d48e a93d c15b 0b3c 1caa 02be f5b1 553d
000001b0: 5c27 abbc ec32 a73d 8a07 1a3d 33dd 99bd
000001c0: e0a2 babc c0b0 66bd ae7b 1a3e 6023 34bd
000001d0: 0276 69be 34ec e5bd e5dd d5bd 5dec cfbc
000001e0: edb8 fb3b 7009 0abe 396e 993d 2fa2 0bbd
000001f0: 5352 b43d 8692 0a3e 21a2 fe3d c3c6 cabc
00000200: c08a 983d 3f84 e3bd 295d 313e 8d3d 9ebc
00000210: 317f 9c3b 8654 163e 0a14 103d 3d93 f6bd
00000220: 77db 45be be8d 0f3e 81e0 833a 7287 a63d
00000230: 2bda 04bd 34d2 a03c 3764 a7ba 3369 dbbd
00000240: 7401 06be ad74 06be 987c afbe 5378 01be
00000250: 116e b5bd 99c2 8f3e 383b 6fbc 0ebf b4bd
00000260: ee9c 413d 38be 633d ebaa 8a3c db62 7ebd
00000270: 9f4f 703d a1ee cabd 0063 893d 0e77 943d
00000280: 9493 3abe a798 2c3d 8e56 e1bd 56a8 00be
00000290: 2198 b3bd 1d17 bc3d 4087 e8bd 3fc4 323d
000002a0: 2515 be3c 2def ad3d ad26 fdbc 0fe1 f4bd
000002b0: 6680 2c3d 40f3 0a3e 347c ddbd a832 28bd
000002c0: b251 0a3e 4732 91bc 5f74 24bd 823f eb3d
000002d0: 0b7b 22be dae7 243e 647d f9bd 5b59 77be
000002e0: 984b 9dbd 2bd7 06be 7d20 52be 9dfe ee3d
000002f0: e162 d83b 24fc d83b b4bc b5bc 1f5c 04be
00000300: 6de7 8cbd adfc 083e 721c d7bd f9cf 7d3d
00000310: dca2 cbbb 9a81 253e 9f85 0d3e ba2a b3bd
00000320: d843 c0bc 77ba f0bd 14cb 58bd e07a 6e3c
00000330: e040 fcbe 8cf2 79bd b5d0 bbbe 3c07 14be
00000340: 0840 8dbd c039 4bbb 655e 5fbe 81e8 e63d
00000350: e0c9 53bd c4fd 6ebe e997 cdbd 6e07 40be
00000360: 7626 86bd eef2 0bbe 68a2 b63d f61d 84bd
00000370: f9bc 193e 8eb4 c03c 16b7 7c3c f48d e43d
00000380: c644 b7bb c406 99bd a954 edbd 254a a4bd
00000390: ce8e 2b3f deec 33bd 6713 05be e5b6 6bbd
000003a0: f157 0c3e 80e6 083e 5f4b 4cbe 78f3 90bd
000003b0: 45ac 30be dbca dd3e f99c 9f3d cfb6 07be
000003c0: 4bb1 8d3d 691d 9d3d 8097 793e 3d66 83bd
000003d0: d355 20bd def6 acbc 8136 313d e9ec 34bd
000003e0: 5dab 303d ccea f7bd 7974 dc3d b6fd 85bd
000003f0: c4be 9a3b becd 073e 33aa fe3d 1a4d fe3c

out.bias f4 [7]
-0.054540325 0.010892409 0.03885432 0.012018084 0.07823092 0.012549128 -0.03069805
00000000: ad65 5fbd 1376 323c b525 1f3d 7fe7 443c
00000010: 8837 a03d dc9a 4d3c 7a7a fbbc
