trained_models/_lvl1_ep20.pt (torch, 686292 bytes, 8 tensors)

fc1.weight f4 [512, 10]
00000000: 6dc7 29bd fb0f 95bd bc27 c0be 77b2 563e
00000010: c5c4 93be e050 923e 27d0 6eba 967f adbc
00000020: 9cf2 86be 6c00 463e 3160 013e 4ef1 ed3d
00000030: 5093 ac3e 94e1 6abe fc5a 7b3e e9c2 a4be
00000040: 2e8d b4be 9cac 893e 1306 e4bd 45f4 7bbe
00000050: 4428 22be 8eff 67be e62e f7bd f8ee 323d
00000060: e9a4 903e b278 533e f054 96bd 540e 243e
00000070: d4eb 2d3e e400 9bbd 1fe9 d53d 0f0e 073e
00000080: 79b0 763e ffcc 79bd 5f1e 843e 36ad 5dbe
00000090: 989f 0abd ec5f cdbd fd38 9abe b8c4 cd3d
000000a0: 31af 95be f27e 3c3e 622d d03d 85f3 2dbd
000000b0: 142b 503e 2edf 843e 615c 8e3d e408 043e
000000c0: 0af7 6f3e d8df c03d a5c9 823d 6037 9c3e
000000d0: f01a 92be 5583 fbbd 09b9 c4bd 6217 b7bd
000000e0: 5d76 263d 7035 e63d 0112 ce3d 0b48 a43d
000000f0: dd5b cabc a364 cf3d 45c6 9b3d 8891 a6bc
00000100: b973 473e 6df1 8dbe 3466 5dbe 0321 403e
00000110: 8d36 89be 6616 0ebe df01 283e 45aa 033e
00000120: b170 2fbd e393 e33c 3ff1 00be 515c bd3b
00000130: 10b9 a53e 40cc c1bd dc2a e8bc a994 eb3d
00000140: 0b39 f4bc 6c1b c53c 3968 fa3d 9c92 6fbc
00000150: 0092 66bd a6f2 f6bd d760 59be 9cbc 293d
00000160: 2bfc 9b3e fc06 583e 34a8 c23d 5891 493d
00000170: f8fb 223e a2d6 113e 7037 abbc b32b 16be
00000180: 2cfc ab3d 68a5 2fbd b886 18be 7ae6 99be
00000190: 9b2d 0ebd 352d 803e 52fa cc38 139f a83d
000001a0: 6427 b4bd a8c0 cd3e 310c a53e 6e1d 5a3a
000001b0: eda0 613d f853 02bc 6008 35be 4e07 67be
000001c0: 8944 883e ddc2 26be 5e0e 173e 3bbe 88be
000001d0: 1ba3 73be 88e5 8d3e babd 1fbe faba 973e
000001e0: 884c 58bd 7538 803e eaf1 a4be 54b3 cabd
000001f0: fe78 313e be02 b13e 170b a63e b203 86bd
00000200: 7223 0c3d b509 733e 4e3b 4abe 7a92 943e
00000210: 0f81 953e fd83 56be 0a8d 44bd ca66 72be
00000220: 11f7 88bd 3d0f 683e c902 743d 32d9 93be
00000230: 6e1e 6fbe 449a 55be 72bc 4b3e 61eb 84be
00000240: 3af5 8fbd 4016 22bd 4cde 393e 20e9 b93c
00000250: 90f4 f13c e0f4 02bd 67b6 9dbc 11ac 433e
00000260: a343 013e e825 0b3e 0ddd 753e 787e 8fbe
00000270: 78a2 a3bd dd9b 3e3e c7eb 26be 23c2 bebc
00000280: fbcd c83d 0f2e a43e 71fb c2be 5835 1bbe
00000290: 7bce 0fbe a09b b33e 01bc 75bd e199 98be
000002a0: 90af bc3c d66c a83e b037 e1bc 9e09 dabd
000002b0: 08b6 033d 5a14 91be e88f 353d 5037 11bd
000002c0: 1d59 91be eadb 97bd 6eac 9ebe 00dd 873b
000002d0: 8ac1 4c3d 3244 8abe 5b17 0c3e a363 06be
000002e0: b328 a0bd e404 aebd 6ebd 78be 6afb 233e
000002f0: 2cce 4d3e e1ea 183e 9b5b b33c 8b80 cebd
00000300: 5742 0f3e 22d6 f9bd 5622 95be 8f38 72be
00000310: b5a4 1fbe 9bdc 613e 890e 4d3e 704f 873e
00000320: 00b8 2d3e 8656 e2bd 5c2a a73d 12b6 9f3e
00000330: 23d0 ae3d 9116 4bbd 98c0 203e 19cc 2ebe
00000340: 98df 923e fb03 28be bae3 e5bd d493 b83e
00000350: 31b2 853d 6084 963e c542 68bd 6545 cf3e
00000360: 581c 02be 8e44 6c3e eb71 6bbe 8657 883d
00000370: 516c 0cbe 9252 3f3e e50f 7a3c 7d3c 9abb
00000380: 256a 953e 7075 6fbe 0b2b a63e 6f80 403e
00000390: 3bf8 05be e3d1 a8bd 961f 25be 0942 59be
000003a0: 8633 523d 3daf 713e f7d2 0abe b691 b53e
000003b0: 6ec8 d83d 245e 7fbe d90c 953e ee01 243e
000003c0: 98fa 1e3d 5787 0e3e 8e35 4fbe a8c3 093e
000003d0: 4443 19be 4567 13bd 1c9a 143e 4c81 683e
000003e0: 5685 4abe 16c3 843e f57a 09bd b3f9 cbbd
000003f0: 6d78 1cbe c29a 40be 5ba7 6c3d 333a df3d
-0.041449953 -0.07278439 -0.37530315 0.20966516 -0.2886106 0.28577328 -0.00091099966 -0.021179002
-0.2635697 0.19336098 0.1263435 0.11618291 0.3370614 -0.22937614 0.24546427 -0.32179955
-0.35263962 0.26889503 -0.11133971 -0.246049 -0.15835673 -0.2265608 -0.12069492 0.04368493
0.28250816 0.2065151 -0.07340419 0.16021091 0.16984493 -0.07568529 0.10444855 0.13188957
0.24090756 -0.060986515 0.2580442 -0.21648106 -0.033843607 -0.10028061 -0.30121604 0.10047287
-0.29235223 0.18407801 0.10164906 -0.042468566 0.20328933 0.25951523 0.06951214 0.12894017
0.23434082 0.09417695 0.06386117 0.30510998 -0.28536177 -0.12280909 -0.09605605 -0.08940007
0.040640224 0.11240661 0.10062028 0.080215536 -0.024702007 0.10126617 0.07606176 -0.020333067
0.19477738 -0.27723256 -0.21621019 0.18762593 -0.2679943 -0.13875732 0.16406964 0.12857921
-0.04283208 0.027780479 -0.12592028 0.0057788272 0.32367754 -0.09462786 -0.02834075 0.11502964
-0.029812356 0.024060927 0.1222691 -0.014622357 -0.05629158 -0.12058 -0.21228348 0.041439638
0.30465826 0.21096414 0.095047385 0.049210876 0.15916431 0.14242032 -0.020900458 -0.14665107
0.08397707 -0.042882353 -0.14895141 -0.30058652 -0.03471146 0.2503449 9.774104e-05 0.08233466
-0.08796576 0.40186048 0.32235864 0.00083204254 0.05508511 -0.00795459 -0.17678976 -0.2256138
0.26614788 -0.16285272 0.14751574 -0.26707634 -0.23792689 0.2771418 -0.15599719 0.2963484
-0.05280736 0.25043073 -0.32215816 -0.098974854 0.17331311 0.34572405 0.32430336 -0.065436736
0.03421349 0.23734172 -0.19749185 0.29018003 0.29200026 -0.20948787 -0.047986068 -0.23672023
-0.06687749 0.22662063 0.05957297 -0.28876644 -0.23351452 -0.20859629 0.19896105 -0.2596083
-0.07029195 -0.039572 0.18151206 0.02269417 0.029535562 -0.031971812 -0.019252015 0.19108607
0.12623458 0.13588679 0.24010105 -0.28026175 -0.07989973 0.18614145 -0.1630088 -0.023285931
0.09804913 0.3206639 -0.3808246 -0.15157068 -0.1404361 0.3507967 -0.059993748 -0.298049
0.023032933 0.32895535 -0.027492374 -0.106463656 0.03215602 -0.2833584 0.044326693 -0.03545314
-0.283883 -0.07414992 -0.30990928 0.0041462183 0.04998926 -0.27005154 0.13680784 -0.13123946
-0.07820263 -0.084970266 -0.24291012 0.16013876 0.2009818 0.14933349 0.021894267 -0.100831114
0.1399015 -0.12199046 -0.2912776 -0.23654388 -0.15590174 0.2205681 0.20025076 0.26427794
0.16964722 -0.11051659 0.08162376 0.31193596 0.08535793 -0.049582068 0.15698469 -0.17070045
0.28686213 -0.16407768 -0.11225076 0.36050284 0.06528128 0.2939787 -0.0567043 0.4048263
-0.12706125 0.23073027 -0.22992675 0.06657319 -0.13713194 0.18683842 0.015262579 -0.004706918
0.29182544 -0.23384643 0.32454714 0.18798994 -0.13082974 -0.08243158 -0.1612533 -0.21216597
0.051318668 0.23602004 -0.13557039 0.3546273 0.10585104 -0.24938256 0.29111364 0.16016361
0.038813204 0.13918816 -0.20235273 0.13453543 -0.14967066 -0.035987157 0.14511913 0.22705573
-0.19777426 0.2593009 -0.033564527 -0.09959736 -0.15280314 -0.18809035 0.05777679 0.108997725

fc1.bias f4 [512]
00000000: 365b 393e a025 0cbe b32e 10be ba83 29be
00000010: 3b0d 133e 2756 9c3d ff64 8e3d b1cb 683e
00000020: bbd3 3b3d 50ac 45bd 1955 85bd 33e2 00bd
00000030: 7323 7c3e ae92 f63d 8bb9 1fbe fbe9 09bd
00000040: 10d1 38be 68df 2f3d b5ee 823d 302a 75be
00000050: 5807 18be 4088 04be 03c1 953d 3692 a8bd
00000060: 07eb 923e f29e 1c3e cec7 58be 2182 95be
00000070: a009 d83c a6d0 41be 748a 84be 0a8e 4dbe
00000080: 5ed3 b23d a769 103e abe1 683d 9c61 ddbd
00000090: f88f ec3d 7561 98be e200 90bd 5f3c 4bbe
000000a0: b00c 183d 8984 df3d 2e87 89be fa11 80be
000000b0: 7eb2 dbbd b31b 77be aa6d 663e 1920 39be
000000c0: 2c71 d13d 6495 b53b 38c7 053e 997a 09be
000000d0: 1c8d f63d 1ff1 763e 0c47 fdbd ece7 81be
000000e0: a5ec 1a3d fb43 32be ed7d 4fbe 2b25 13be
000000f0: 346c 92be 002b bf3a 281f 07be abd2 7e3e
00000100: 285a 94be d8b3 34be 27de babc bb36 2dbe
00000110: 0c00 cf3c fd80 573e d26a 2abe be20 153e
00000120: 8f9b 3abc 0c11 95be 4792 2c3e aea1 98be
00000130: 418b 31bd 2e5a 9abe 1e70 3c3e 4ad2 8abd
00000140: c901 5e3e 4de9 d23d cc43 893e 0f07 9bbe
00000150: 0c04 93bd 40e1 0dbd 4e2a 343e 7059 ec3d
00000160: bbdb 743e e5e2 9d3e 188d 9abd 921f 0dbd
00000170: dcb8 9bbe 2b7b b63c 6964 4c3e 31d1 9d3e
00000180: b6a1 893e 69e2 04be 0630 083e 1d15 89be
00000190: 983a 943e 3933 543d e974 88be c405 57be
000001a0: 850c 93be e1f4 84be 208a edbd 2f07 803d
000001b0: b2ea 173e 46d1 6a3e 00d1 a93b 8403 b53d
000001c0: 8737 bc3d 4101 873c 2d61 60bd f895 043e
000001d0: 0561 34be 0d68 083e c2d4 37be 127e 77bd
000001e0: 14a2 863e ebb5 473e c122 7f3e c282 3b3e
000001f0: 8e8b abbd 65d8 103e 1cf4 3bbe 4a08 643e
00000200: 9b60 3c3e 4bb3 c03d 16b4 7dbe bdf4 36be
00000210: ccaf 6f3e 900d 95bc c44d 073d 2c51 1e3e
00000220: de04 9d3e e003 a43c 7b7d 963e b621 10be
00000230: 3f61 5c3e 321f 82be 0353 4bbd 1948 53be
00000240: e649 0c3e bb6a c6bc b986 333e aff1 c0bd
00000250: 4d15 583e 92ee 243e 2046 ccbc a589 97be
00000260: d49d 093e 2787 23bd d01e 88be d8c0 7fbe
00000270: 57bb 48bb ff8f 69b9 87ef 5cbe 5eaf 7ebe
00000280: 6436 39bc 5a44 6cbe d248 6ebe 7e57 96bb
00000290: 3503 92be ae7c 5cbe 4aca dbbd ef8e d9bc
000002a0: ae39 2bbe 13e7 363e 1847 c43d cb94 95be
000002b0: c405 3d3a b9e4 c73c e5e1 b23d 91b2 513e
000002c0: 5243 20be 0cc5 6a3e b4b0 a43d bcda 6bbe
000002d0: 1a3e 20be 627f 44be c93b eebd 3048 67bd
000002e0: 5b3e 0cbd 91a6 01be a94d 4cbe 21a7 313d
000002f0: 3f1d 7dbd 6139 f8bd f3b7 8cbe 9f3c 9e3e
00000300: 1c66 883c 1d22 0b3e c072 9dbe 76a4 753e
00000310: 8873 4ebe b618 98be a103 953e be2d 773e
00000320: e2de 823e ee22 c53d 3bb0 903d 2366 803e
00000330: ef39 9cbe 30fa 3e3e 53a5 063e cb85 15be
00000340: f7d9 95be 2049 e1bd b9dc 5ebe 5f14 563e
00000350: cf33 47be 5169 b0bd ae1a 7d3e 92cf 983e
00000360: f23a 723e eea0 583e 97dc 95bc 4969 1cbe
00000370: 5f3f 473e bc22 3c3e aa3a 443e f972 91be
00000380: 0c44 fd3c ce2a 8dbd 36e8 3dbe af29 5cbd
00000390: e505 4ebe 1dab 9c3e 5941 b23d be8b 2d3e
000003a0: 0150 5b3e bd18 803e c569 273e 93ee 26be
000003b0: 03bb a6be 9048 2a3e 7e32 32bd 1864 8abe
000003c0: 008b d7bd 7a81 983e bafb 4c3e 8a56 72be
000003d0: 0fac 983e cd2f dfbd 6496 83be 9495 43be
000003e0: 8dd5 ccbd 8126 653e f654 153e 5242 99be
000003f0: 88eb 903e fe0a deba da95 15bd 81a3 433e
0.181012 -0.13686228 -0.14080314 -0.16554156 0.14360516 0.0763362 0.06952857 0.22733952
0.04585622 -0.048260033 -0.06510372 -0.03146572 0.24622898 0.12039696 -0.15598123 -0.033670407
-0.18048501 0.042937666 0.06393186 -0.23941875 -0.14846551 -0.129426 0.07312205 -0.082310125
0.28694937 0.15295008 -0.2116997 -0.29200843 0.026371777 -0.1892725 -0.2588688 -0.20073715
0.08731721 0.14102803 0.05685584 -0.10809633 0.11550897 -0.29761854 -0.070314184 -0.19847248
0.037121475 0.10913951 -0.26860946 -0.25013715 -0.10727404 -0.2413166 0.22502771 -0.1807865
0.10226664 0.0055414904 0.13064277 -0.13425674 0.12038633 0.24115418 -0.12367067 -0.25372255
0.037823338 -0.17408745 -0.2026288 -0.14369647 -0.28598177 0.0014584959 -0.13195479 0.24885051
-0.28975034 -0.1764673 -0.022811009 -0.1691541 0.025268577 0.21045299 -0.16642311 0.14563271
-0.011389627 -0.29114568 0.16852675 -0.29810852 -0.043345693 -0.30146927 0.18402144 -0.06778391
0.21680368 0.10298405 0.26809537 -0.30278823 -0.07178506 -0.034638643 0.17594263 0.11540496
0.23911946 0.3083717 -0.07546443 -0.034453936 -0.30414474 0.022275528 0.19960178 0.30823663
0.26881188 -0.12976994 0.1329957 -0.2677392 0.28950953 0.051806662 -0.26651695 -0.20998293
-0.2872049 -0.25968078 -0.11598611 0.0625137 0.14835623 0.22931394 0.0051823854 0.08838561
0.091902785 0.01648009 -0.054780174 0.12947834 -0.17615135 0.13320942 -0.17952254 -0.060422964
0.2629553 0.1950299 0.24915601 0.18311599 -0.08376227 0.14145048 -0.18354839 0.22268787
0.18396227 0.094091974 -0.24775729 -0.17866798 0.23406905 -0.018194944 0.033033147 0.15460652
0.30667776 0.020021379 0.2939261 -0.1407536 0.21521471 -0.25414425 -0.049639713 -0.20632972
0.13700065 -0.024220815 0.17531861 -0.094210975 0.21101876 0.16106632 -0.024935782 -0.29597202
0.13439113 -0.039923813 -0.26586008 -0.24975908 -0.0030629241 -0.00022274254 -0.21575747 -0.24871585
-0.011304472 -0.23072949 -0.23269966 -0.0045880666 -0.28518072 -0.21531937 -0.10731943 -0.026557414
-0.16721222 0.17861585 0.095838726 -0.29215083 0.0007210637 0.024401056 0.08734492 0.20478274
-0.1565068 0.2292673 0.08041516 -0.2303266 -0.1564869 -0.19189218 -0.11632497 -0.056465328
-0.034239154 -0.12661196 -0.199515 0.043372277 -0.06179547 -0.12120319 -0.27484092 0.30905625
0.016650252 0.13587232 -0.3075161 0.23988518 -0.20161259 -0.29706353 0.2910433 0.24138543
0.2556067 0.09625803 0.07064863 0.25077924 -0.3051295 0.18650126 0.13149004 -0.14601819
-0.29267856 -0.110002756 -0.21763887 0.20906208 -0.19453357 -0.086138375 0.24717209 0.29845864
0.23655298 0.2115514 -0.018293662 -0.15274538 0.19457768 0.18372625 0.19163004 -0.2840803
0.030916236 -0.0689293 -0.18545613 -0.05375069 -0.20119436 0.305993 0.0870387 0.16947839
0.21417238 0.25018874 0.16348942 -0.16301946 -0.32564554 0.16629243 -0.043505184 -0.2702949
-0.10524559 0.29786283 0.20017901 -0.23665825 0.2981877 -0.10897789 -0.25700676 -0.19100028
-0.10001669 0.2237797 0.14583191 -0.2993341 0.28304696 -0.0016940532 -0.036519863 0.1910534

fc2.weight f4 [256, 512]
00000000: 5773 6b3d 4513 cebd c6e7 993c fadb eabc
00000010: 82c8 11bd 0859 e83c 3daf 2dbc 124a c7bb
00000020: f3b3 57bc 1608 18bd e5a3 7f3d 097e dbbc
00000030: 63f7 f03c addf f8bd cdcc 22bd 0eb0 0bbd
00000040: aa1f 593e c076 06ba 58d6 b6bc 2b04 fcbd
00000050: 6162 57bc 713a 06ba 3e22 1d3d 8532 0ebd
00000060: ce9d 80bc 69cc 4c3d 83d2 6fbc 2d53 9dbc
00000070: a2c8 58bc fed8 f53c be40 c43c baa6 8f3d
00000080: 8831 0bbc 9929 76bd c87f bcbc c242 e93c
00000090: 8859 c5bb 8930 a63d 6db0 de3c 3e5f 84bc
000000a0: 1b9c fa3b c7bf 9dbd 3495 df3c 5b06 08bd
000000b0: 27fc 28bd 9ebe c1bc dde9 16bd e1dd 093d
000000c0: 50c3 ee3b 05ae 80bd aeed 223c 6080 14be
000000d0: 5993 9dbc 5429 b53c 7577 f6bc 1ff6 433d
000000e0: 539a 753d 2e33 7a3c a4f9 a13d 78cb a0bb
000000f0: db35 1f3d 0eb8 9b3c 71c6 41bc f357 14bb
00000100: eab4 23be f71a 853c fc4f 7cbe 0429 013c
00000110: 273b 7c3c 5aa1 cc3c a258 a33c 6966 323d
00000120: 71f1 903d e526 003d 28a6 87bc f07a a9ba
00000130: 00be 463d 1afa 21bd c0ee 5bbb 4722 293c
00000140: 561d 43bd 54db 05bd 9ca7 823d d096 bdbc
00000150: 9615 fe3c b571 28bd f428 133c 66e9 23bd
00000160: 7e15 1bbc c8e3 31bd 9335 173d ba38 6b3c
00000170: 810d a9bb 9aa0 6b3e 96b3 0abd c925 153e
00000180: 7f8e 11bd 8027 3c3b 3240 f93c 0803 90bb
00000190: 2ac6 003e 6e53 d53d 100c 713c 1cbb f8bc
000001a0: 517c fbbc c2f0 9b3c 2578 62bd 491b 833e
000001b0: 4952 26bb 3095 10bc 9f5c f6bc bb13 0c3d
000001c0: 6b9b 62bc 6759 263c c330 6e3e b1a4 11bd
000001d0: 4d4e 143d f39a efbb 3011 efbc c2ae 873c
000001e0: 0951 f0bc e990 183c 0c41 eabc 92f6 9fbc
000001f0: f441 1cbc b5da 8b3c 407e 373c 1e92 a0bc
00000200: 60f1 fbbc b160 ea3c 51a7 b1bc 0451 623c
00000210: a49d b83a e312 23bd 889d 89bd f1a2 d13d
00000220: 47f3 c0bc 25af 2cbd 7a30 3ebb e057 3e3c
00000230: 482e 02bd 8afe 333e 8e4b d93c 29b1 8fbc
00000240: f694 fa37 c978 d0bb ec30 563c b622 18be
00000250: 8a20 c8bb bd66 80bc e04d dfba 672a 5d3d
00000260: 44ba 503d 1a1f 4cbc 39b2 18bd fd34 0ebd
00000270: c6f0 16bd dee8 c03a 1d26 1bbd 5ace 10be
00000280: b769 823d 4043 abbc 5458 313c b1c8 af3d
00000290: 4048 04bc 0c23 523c bd65 84bc 667a f538
000002a0: 96cf 84bd c4ae ed3d 73b4 e13c dc98 babd
000002b0: 184e c23c 73e9 dd3c 2f28 1a3d 8076 0c3d
000002c0: 71c3 32bd 1c48 053d c980 c2bc ab08 5b3d
000002d0: d83b 8e3c d321 643d e76d bdbd a7ab 86bc
000002e0: 0456 923d 555b 003d 52ed d1bc d874 d03c
000002f0: 0046 b33b 7f9a 1a3d 3914 d8bc 1b8f eb3c
00000300: f8a7 10bd f43a 733c 909c 1dbb 60fc 7abc
00000310: aaa4 9f3d c9ff 193d 6044 bc3d cf6d 3abd
00000320: d4df 6e3d 96bc 48bd 0c93 31bd 103b 18bd
00000330: b51e 7fbd 5729 b3bb b2e3 ebbd 2f29 b9bc
00000340: 781a 853c 62e8 b8bc 6329 fbbc 13b1 56bc
00000350: 3b78 6c3d 0537 20bd 14d9 3ebd 7615 31bc
00000360: e7a1 083d 8ee2 4cbc 6654 7bbd a99c 1b3d
00000370: 0129 e3bc 04fb 9ebc b9ef 583d 3b9f 19bd
00000380: 9997 533e 27dd 0abd ab8a 62bd 8cc7 853d
00000390: 77d8 a03d 0712 053d 90c9 f1bc 99de 4abd
000003a0: 120b de3c 29c9 e7ba eeb2 0bbc 353a ee3d
000003b0: 5795 543c 3cc6 19bd a764 273d 7fcb 1cbd
000003c0: 14f5 243a 01e6 c63c b57c f53c 2a8e 15bd
000003d0: 6d7a c13c 48a9 c2bc 9c45 33be e843 fabb
000003e0: 3381 143d 0f6a ad3d ac32 40bd be82 e73c
000003f0: edd0 a73c 4bc4 babc 8599 6f3d f2e6 b13d
0.057483044 -0.10062269 0.018787276 -0.028669346 -0.03559161 0.028362766 -0.010600862 -0.006081828
-0.013165462 -0.037117086 0.06241216 -0.026793497 0.029414838 -0.12152038 -0.039746094 -0.034103446
0.21203485 -0.00051293895 -0.022319004 -0.123054825 -0.013146014 -0.0005120403 0.038362734 -0.034716148
-0.015700247 0.04999963 -0.014637592 -0.0192047 -0.013231428 0.030010697 0.023956653 0.070142224
-0.008495696 -0.060098264 -0.02301015 0.028474215 -0.006022636 0.08114726 0.027183736 -0.016158696
0.0076480038 -0.07702594 0.027292825 -0.033209186 -0.041256096 -0.023650464 -0.036844123 0.033658866
0.0072864667 -0.062831916 0.009944363 -0.14502096 -0.0192353 0.022114433 -0.030086258 0.04784214
0.05996163 0.015270991 0.07908943 -0.004907068 0.03886972 0.019008663 -0.011827097 -0.002263543
-0.15986982 0.01624821 -0.24639887 0.007883314 0.015394962 0.024979282 0.019939724 0.043554697
0.07077301 0.031287093 -0.016558722 -0.0012930315 0.048521042 -0.039545156 -0.0033559054 0.010323114
-0.0476354 -0.03267987 0.06379625 -0.023143202 0.031016152 -0.041124064 0.008981932 -0.040017508
-0.009465573 -0.04343012 0.036916327 0.014356786 -0.0051590805 0.23010483 -0.033862673 0.14565195
-0.035536285 0.0028710067 0.030426119 -0.0043948926 0.12575594 0.104163036 0.014712349 -0.030362658
-0.030698927 0.0190357 -0.05529036 0.25606754 -0.0025378636 -0.008824632 -0.030073462 0.034198504
-0.013831 0.010153151 0.23260789 -0.035557453 0.036207486 -0.0073121726 -0.029183 0.016562823
-0.029335516 0.009311893 -0.02859547 -0.019526754 -0.009537209 0.017072061 0.011199534 -0.019600924
-0.030754745 0.02861056 -0.021686228 0.013813261 0.0014085067 -0.039812934 -0.067195 0.10236157
-0.023553504 -0.04215922 -0.0029020594 0.011617631 -0.03178242 0.17577568 0.026525285 -0.017540531
2.9871688e-05 -0.006362055 0.013073187 -0.14856991 -0.0061073946 -0.01567399 -0.0017036758 0.053995516
0.050958887 -0.012458587 -0.03727934 -0.034718502 -0.036850713 0.0014717837 -0.037878145 -0.14141217
0.0636782 -0.02090609 0.010824282 0.08583201 -0.008073866 0.012825739 -0.016161794 0.00011705309
-0.064849064 0.116055995 0.027551865 -0.09111187 0.023718879 0.027088856 0.03763598 0.034292698
-0.04364342 0.032539472 -0.02374305 0.053475063 0.01736252 0.05569632 -0.09249478 -0.016439272
0.071453124 0.0313371 -0.025625858 0.02544634 0.005470991 0.037744995 -0.02637683 0.028754761
-0.035316437 0.0148455985 -0.0024049617 -0.01531896 0.07795079 0.03759745 0.09192729 -0.045514878
0.058318928 -0.049007975 -0.043353125 -0.0371657 -0.062285144 -0.0054675746 -0.11518039 -0.022602646
0.016247973 -0.022571746 -0.030659383 -0.013103741 0.05773185 -0.03911497 -0.04659374 -0.010808339
0.033357527 -0.012505187 -0.061359785 0.0379912 -0.027729513 -0.019406803 0.052962992 -0.03750537
0.20663299 -0.033902314 -0.055308025 0.06532201 0.078537874 0.032487895 -0.029515058 -0.049528692
0.027104888 -0.0017683852 -0.008526547 0.11632196 0.0129750585 -0.037542567 0.040867474 -0.038280006
0.0006292623 0.024279596 0.029966692 -0.03651253 0.023617947 -0.02376236 -0.17507023 -0.0076374896
0.036256026 0.08467495 -0.046923324 0.028260585 0.020485366 -0.022798678 0.058496017 0.086866274

fc2.bias f4 [256]
00000000: 9338 fb3c 4e3e 85bc 2acf 073d 603b 383c
00000010: 7c20 2fbc db2e 143d 37b3 b8bc 4b5b 3dbc
00000020: 4bf1 143d aa71 a93c 566e 163d cf16 d7bc
00000030: 7b98 123d feb3 20bb e62e b63c edf7 393d
00000040: 834c 83bc 9d80 333d a677 3abb 9c4e f639
00000050: efa2 b1bc de31 283c 358c 3b3d 54a0 273d
00000060: 7ae1 7bbc 476b 0ebc 6270 c83a 4f0e cfbc
00000070: a222 66bc 9f3b 02bd 4091 d33b 4c82 753b
00000080: fa95 ddbc 777f abbc 5f4b c4bc 4892 e23a
00000090: 332d 04bd a3ed 903c f8df 5c3b 5975 303d
000000a0: 6dbb 96bc 9c87 9fbc 8b48 09bd 42fa 933c
000000b0: f85a c5bb 627d 22ba 41bd 3c3d d0a9 2ebc
000000c0: e950 9dbc 0d5c c1bb 7239 b7ba fec5 203d
000000d0: 5abb a2bc 5e1e 24bd ea43 a93b c826 403d
000000e0: a0c8 983b 1de2 bbbb 0f86 2c3d 86c0 043d
000000f0: e0d6 cdbc 60e9 333c da25 14bd b4c7 56bb
00000100: 3576 10bd bc42 14bc efe1 74bc af35 b93c
00000110: ecbc 15bc c0ba 663a b3c4 0abd b16e 81bb
00000120: 4a06 aa3c ee96 173a bee6 043d 7555 e0bc
00000130: 6928 a8bb f587 a13c 39f2 dbbc 4aa6 d63c
00000140: 1057 543d b07b acbb 5de4 e4bc f03c 27bb
00000150: 10ed 923c 0832 a83c 922f 893c d101 3c3d
00000160: 2a33 e33b 21aa 96ba ca63 56bc 3e11 853c
00000170: 00df 43ba fc2e 1fbd 284c 21bd 9df7 b6bc
00000180: d4cb 30bc 9297 1ebd 9889 043d e38d 0a3d
00000190: b727 37bc d806 8b3b f498 5fbc 4867 9ebb
000001a0: 5ab6 a03c 2c30 87bb 1689 96ba e8b8 7e3c
000001b0: d0f1 09bd 2e1f 283d 2043 beba 4ff9 32bd
000001c0: 8a96 d23c 6959 20bc ee23 463d dd3e 103d
000001d0: b13a 8a3c 503f 483c e7f2 31bd cb11 12bc
000001e0: 18af ec3b c548 193d af6d 833a c33a 33bc
000001f0: d6aa 1bbd 04da b03c 23a0 113d 5deb c7bc
00000200: a658 a1bc 261c f43c 6de0 363d 0be4 c53c
00000210: 3f2d 383d 28d6 babc f626 563c 9fc4 183c
00000220: e055 623c 34d1 88b9 dcfe 40bb ffcf cd3c
00000230: 608e 6d3b 63a0 8e3c bc8c 643c 2a7c abbc
00000240: 80d7 9cbc 59e3 4a3d d0d7 9cbc 8357 6b3a
00000250: 2fa6 1abd b8ee f83b 9693 f83c 8768 b4bc
00000260: e506 aabc 1b28 36bd 2133 d6bc b015 5dbc
00000270: eb78 d53c 8055 9e3c befc 423c 41ed 2e3d
00000280: 1c69 803b 6506 b53b 8a3a 753c 8262 b43c
00000290: de11 be3c 8c1a dbbc 6d4e b83c 9d54 9bbc
000002a0: 5744 4fbc 7d2d d93c 797f b4bc 507a 563b
000002b0: a7ed 163d 6007 37bd 207b 293b 0e14 d93c
000002c0: e61d 363d 3504 f43c 9d1d 5bbb fc67 2a3d
000002d0: 6d0f 14bd 58e6 84bc fb6a 1bbd 7f11 47bc
000002e0: 086e 903c 1e71 2dbd e36c 103d cfbc 2a3c
000002f0: d870 153c 50b7 263b ff9a 10bd c1b6 8bbc
00000300: 5e68 00bd 8473 3e3c 5418 683c 802d 44ba
00000310: 1b8a 1bbd b078 fc3c d6eb e2bc ca0c e1bc
00000320: 0106 f53b 99c5 d4ba 64c3 1b3c 11de 313d
00000330: a93b d73c 79b2 05bc 4159 d4bc e4c5 633d
00000340: f993 d2bc 48ef e73b 496b 10bb 50a4 a43c
00000350: b81f 8d3b a5bb d5bc 4d26 a33c b233 27bd
00000360: b078 20bb ce2a 1ebc 5998 e6bb 9ea7 d13c
00000370: d71d 263d 985b 15bd 03f8 113c 55e2 5c3d
00000380: 7970 383c da4c 07bd f6f8 e0bc 9c42 95bb
00000390: 982a c8bc 8712 63bc f72d 033d 7de2 4fbc
000003a0: dd57 b7bb 67ad f53c 399a 1dbc 6766 9e3c
000003b0: 5025 abbb 633f 013d 4e55 b33c 2c5f efbc
000003c0: 3787 70bc 780e f3bc 8c6d 493d 0821 01bb
000003d0: 6e6b fb3b 8416 0bbc 400e 3ebc 60d3 e2bc
000003e0: 4ae8 95bc f540 de3c 8751 e2bb a393 e1bb
000003f0: b450 45bc 76bf a3bc c87e 9cbc 350d 1a3d
0.030666625 -0.01626506 0.03315655 0.011244625 -0.010688897 0.036177497 -0.022546394 -0.0115574105
0.036362927 0.020684082 0.03672632 -0.026255993 0.035789948 -0.0024521346 0.02223916 0.045402456
-0.016027695 0.043823827 -0.0028452664 0.00046979345 -0.021684138 0.0102657955 0.04578801 0.040924385
-0.015373582 -0.008692569 0.0015292282 -0.025275378 -0.014046343 -0.03179514 0.006456524 0.0037461696
-0.027049053 -0.020934803 -0.023961721 0.0017286027 -0.032269668 0.017691439 0.0033702832 0.04308066
-0.018399918 -0.019473843 -0.033516448 0.018063668 -0.006022807 -0.0006198493 0.046078924 -0.010660604
-0.01920362 -0.005900866 -0.0013978912 0.03925132 -0.019864727 -0.040068023 0.0051655667 0.046911985
0.0046625882 -0.005733742 0.042120036 0.032410167 -0.025126874 0.010980934 -0.03616891 -0.003277284
-0.03526898 -0.009049114 -0.014946445 0.022608606 -0.009139281 0.00088016316 -0.033878993 -0.003949963
0.020754952 0.0005782683 0.032446615 -0.0273845 -0.0051317704 0.01971815 -0.0268489 0.02620234
0.05184084 -0.005263768 -0.027940923 -0.00255185 0.017935306 0.02053167 0.016746316 0.04590017
0.0069335895 -0.0011494794 -0.013085315 0.016243573 -0.0007471889 -0.038863167 -0.03937927 -0.022334868
-0.010790784 -0.038718767 0.032357782 0.03382672 -0.011178902 0.004242759 -0.013647307 -0.0048340894
0.019618202 -0.0041256156 -0.0011484947 0.015547015 -0.033677876 0.04104536 -0.0014515854 -0.04369479
0.025706548 -0.009786942 0.04837411 0.0352162 0.01687369 0.012222126 -0.04344454 -0.008915375
0.0072230212 0.037422914 0.0010027195 -0.010939303 -0.03800472 0.021588333 0.03555311 -0.024404222
-0.019695591 0.029798578 0.044647623 0.02415659 0.044965025 -0.022807196 0.013070812 0.009324222
0.0138144195 -0.0002609581 -0.0029448783 0.025123594 0.0036248192 0.017410463 0.013949569 -0.02093323
-0.019145727 0.049533222 -0.019145876 0.0008977579 -0.03775614 0.007596817 0.030343812 -0.022022499
-0.02075524 -0.04447184 -0.026147427 -0.01349394 0.026058635 0.019327879 0.011901079 0.04270673
0.00391878 0.005524444 0.01496757 0.022019628 0.02320188 -0.026746057 0.022498334 -0.018961245
-0.012650571 0.026510948 -0.02203344 0.0032726713 0.036847737 -0.044684768 0.0025860742 0.02649882
0.044462107 0.029787162 -0.00334344 0.041603073 -0.036147524 -0.016223118 -0.03794382 -0.0121501675
0.017630592 -0.042344205 0.035260092 0.010420992 0.009121142 0.0025438853 -0.035304066 -0.017054917
-0.031349532 0.011624221 0.0141659565 -0.00074835867 -0.037973505 0.030819267 -0.027700346 -0.027471919
0.0074775224 -0.0016233205 0.009507034 0.04342467 0.026273565 -0.008160227 -0.025921466 0.055608645
-0.025705324 0.007078085 -0.0022036603 0.020097882 0.0043067597 -0.026090452 0.019915724 -0.040820785
-0.0024485998 -0.00965376 -0.007037204 0.025592621 0.0405558 -0.036464304 0.008909228 0.053926785
0.011257284 -0.033032276 -0.027462464 -0.0045550596 -0.024434373 -0.013859398 0.032026257 -0.012688276
-0.005595191 0.029989911 -0.009619289 0.019335939 -0.005222954 0.03155459 0.021891262 -0.029220186
-0.014680675 -0.029669985 0.049176738 -0.0019703526 0.0076727187 -0.008489255 -0.011600077 -0.027688682
-0.01829924 0.027130583 -0.0069066915 -0.0068840547 -0.012043167 -0.019988757 -0.019103423 0.03761025

fc3.weight f4 [128, 256]
00000000: 529e 77bd d607 753d 2ea5 4b3d e83d cb3c
00000010: a0cc 8fbc b88c 213d 2eef 16bd 2479 3f3d
00000020: 0264 17bd 0c2e 5cbd 16be 0b3d be74 4dbd
00000030: 2cde ba3c b42d f0bc 804a 93bb 4445 4e3d
00000040: 74b5 10bd 5e64 103d 1efd 5abd f6a7 4ebd
00000050: c49c 75bd e090 80bb c867 05bc ce48 2abd
00000060: 8023 363c a0b2 163b 500e 813b c083 403b
00000070: 2a05 0dbd 80c5 903c 3a9f 59bd 1441 a9bc
00000080: a8a4 46bd 80a1 cbbb e06f 93bb e232 36bd
00000090: 6ce2 a43c 10f2 14bc e419 22bd e0f6 34bd
000000a0: 5870 523c 08a2 7d3c 002c b4bc 3673 7bbd
000000b0: 463e 23bd d446 183d 96b7 333d 285e 3cbc
000000c0: 3c89 08bd 900f 0ebc e287 26bd 9c57 fabc
000000d0: c4d1 c1bc 92a3 6fbd 60e9 0ebb 7098 2c3c
000000e0: c064 5fbd d4b2 a93c 228d 66bd 26e9 423d
000000f0: fc5e 3dbd 645f 00bd 40ec 06bb c408 60bd
00000100: 0c66 cebc c0b7 a73a e4c9 fe3c 90fe fb3b
00000110: 20f0 f53c 8c14 5f3d 480c 013d bcf7 303d
00000120: fe3e 3ebd 088f 20bd 002a 96bc 50ee b63c
00000130: 5226 44bd b0c1 6b3c 0832 4ebd d809 7d3d
00000140: e087 39bc d4ed 22bd 601f 3b3c 1071 d3bc
00000150: 54ca 473d dc04 40bd 2c52 793d 5e40 3bbd
00000160: b0fd 13bc 5024 91bc c62f 3ebd 5441 8bbc
00000170: c012 a7ba 1038 05bc 1024 32bc dc6f e2bc
00000180: 78b2 05bc f282 10bd e6d1 01bd f869 2ebd
00000190: b82f 173c 140d d5bc 1834 6d3d a8b4 6bbd
000001a0: 3283 543d 706a e1bc a46f ecbc 2e20 273d
000001b0: 74b1 5e3d 600c 4abb f0ff babb c0ec 263d
000001c0: 0890 f9bc bc3e ccbc 6c9a 953c e829 02bc
000001d0: 3041 a7bc c879 f83c 801a 4dbd 8c3a cbbc
000001e0: 400c acba 8481 15bd 0493 f9bc c04b 603b
000001f0: 489f f9bc a41a 623d b825 00bd 00bd 97bc
00000200: 580c 133d 9067 c2bb 0015 71bd 5c64 c4bc
00000210: a897 f5bc 7237 07bd e4b9 30bd d06c 7d3d
00000220: c4b0 fd3c 80f8 13bb 785d d4bc d43b e4bc
00000230: a0d2 4ebb f4fe 0abd 4c5a fa3c 5641 1cbd
00000240: 60a5 6bbb 7c9f eb3c d6cb 7e3d 68b6 3f3c
00000250: 6c38 0a3d 0c2d 933c 48cb 763c 6477 1bbd
00000260: f87e 0e3c 526f 13bd e23c 6fbd 44da 0f3d
00000270: 7c6a 2cbd 4c7a 963c 7607 72bd c014 fc3a
00000280: 1645 793d 58d9 07bc 78a6 673d 7007 923c
00000290: e419 cfbc 4c44 0fbd 68e8 773d 58fa 7b3d
000002a0: 7027 f93c 383f f4bc c0ab 7a3d 7863 bfbc
000002b0: c4f7 4a3d 104e 28bc 1615 79bd e07a e7bc
000002c0: 5444 d83c 10ba fabb 98b9 31bc 80ca 253a
000002d0: bc0f 9c3c 1e42 423d c0d4 ecbb ac81 fb3c
000002e0: 4646 42bd c88b 1bbc a6f0 4c3d 4c36 083d
000002f0: 726d 0abd 58c0 e5bc 56f2 0fbd 96a6 42bd
00000300: 04da aebc 6c9e 123d de50 0bbd c819 323c
00000310: 24f9 cc3c 7840 353c 3483 c5bc 1024 f13c
00000320: 7416 2b3d 361e 69bd fac5 1f3d 70cb 393d
00000330: 28b3 3abd 9242 3d3d a080 27bd ca53 76bd
00000340: 1821 d73c f017 85bc 50db 443c e03b 833b
00000350: 1a03 72bd e4ee 733d 44dc 8c3c b4ea 83bc
00000360: 6ac2 583d b8eb b13c 68b9 063c 180f 1c3c
00000370: 7ab3 0cbd 70ce 6b3c 74f0 ab3c 280d c5bc
00000380: e0c8 05bc ecca 33bd ec9c 43bd 9866 16bd
00000390: 0821 633c a003 2c3b 10fa 9ebc 0424 5fbd
000003a0: a21c 013d 3640 52bd d41b b9bc 385a 393c
000003b0: a85d 203d 3eea 163d 6817 8bbc 18be 7f3c
000003c0: 6836 2a3d 08b0 973c 5002 f23b 9479 84bc
000003d0: b873 7f3d 82b9 45bd 546a af3c b64f 613d
000003e0: eeea 79bd d4d3 b43c fa2c 373d 0c1b 83bc
000003f0: a805 5a3c 4094 54bb bee9 253d 001f a3b9
-0.06045372 0.059821926 0.049718075 0.024809793 -0.017553627 0.03944084 -0.036849193 0.046746388
-0.03696061 -0.05375485 0.034116827 -0.050160162 0.022811018 -0.029318668 -0.004494965 0.050359026
-0.035329297 0.035251968 -0.053464048 -0.05045315 -0.059963956 -0.0039235204 -0.008142419 -0.04157334
0.011116862 0.0022994652 0.0039384738 0.0029375404 -0.034428753 0.0176723 -0.053130366 -0.020660914
-0.048496872 -0.0062143207 -0.0044994205 -0.04448212 0.020127498 -0.009090915 -0.039575472 -0.04418075
0.012844168 0.015480526 -0.021993637 -0.06138917 -0.03985431 0.037176922 0.043876253 -0.011497058
-0.033334002 -0.008670703 -0.04065693 -0.030559354 -0.023659594 -0.058505602 -0.0021806583 0.010534391
-0.054539442 0.020715155 -0.05628694 0.04758563 -0.046233162 -0.03134097 -0.0020587593 -0.05469586
-0.025195144 0.0012795851 0.031102128 0.0076902583 0.030021727 0.054462954 0.031505853 0.043205008
-0.046446793 -0.039198905 -0.018330574 0.022330433 -0.047888108 0.01438944 -0.050340682 0.061776966
-0.011323899 -0.03977759 0.011421055 -0.025810748 0.04877694 -0.046879634 0.06086938 -0.045715682
-0.009032652 -0.01771751 -0.04643228 -0.016998924 -0.0012746677 -0.008131042 -0.010872856 -0.02764123
-0.008160226 -0.03528113 -0.031694315 -0.04258153 0.009227686 -0.026007213 0.05791101 -0.057545334
0.05188293 -0.027516574 -0.028861828 0.040802173 0.05436845 -0.003083013 -0.0057067797 0.040753126
-0.030464187 -0.024932258 0.01826211 -0.007944562 -0.020416826 0.030331507 -0.0500741 -0.02480819
-0.0013126209 -0.03650047 -0.03046561 0.0034224838 -0.030471459 0.055201188 -0.03128597 -0.01852274
0.035900444 -0.005932756 -0.058857918 -0.023973636 -0.029979542 -0.03301186 -0.04314603 0.06187135
0.030968077 -0.0022578537 -0.025923476 -0.02786056 -0.0031558648 -0.03393455 0.030560635 -0.038148247
-0.0035956725 0.028762572 0.06220611 0.011701204 0.033745214 0.017965816 0.015063114 -0.037955657
0.008697264 -0.035994835 -0.05840767 0.035120264 -0.04209374 0.018368863 -0.059089147 0.0019232258
0.0608569 -0.008291565 0.05655524 0.017825812 -0.0252809 -0.034977242 0.060524374 0.061518043
0.030414313 -0.029815301 0.06119895 -0.02336286 0.049552694 -0.010272518 -0.060811125 -0.028256834
0.026399769 -0.007651575 -0.010847472 0.00063244253 0.019050471 0.047426336 -0.00722751 0.03070148
-0.0474303 -0.009493776 0.050034188 0.033254907 -0.03379578 -0.028045818 -0.03514322 -0.04752215
-0.021344192 0.035795614 -0.034012668 0.010870405 0.025021143 0.011062734 -0.024110414 0.029436141
0.04176946 -0.056913577 0.039007165 0.04536003 -0.045581013 0.046206065 -0.04089415 -0.0601385
0.026260898 -0.016246766 0.012015179 0.0040049404 -0.05908499 0.059553996 0.017194875 -0.016103126
0.052919783 0.021718845 0.008222915 0.009525083 -0.03435085 0.01439248 0.02098868 -0.024054125
-0.008165568 -0.043894693 -0.047757074 -0.036718935 0.013862856 0.0026247278 -0.019406348 -0.054477707
0.031521447 -0.051330768 -0.022596277 0.011313014 0.039151818 0.036844485 -0.016978934 0.015609287
0.041555792 0.018516555 0.0073855296 -0.016171254 0.062366217 -0.048272617 0.021413006 0.05500766
-0.061015062 0.022073664 0.044720627 -0.016004108 0.013307013 -0.0032436997 0.040506117 -0.0003111288

fc3.bias f4 [128]
00000000: e012 4ebd 7648 193d 5535 6a3d 10d2 e2bb
00000010: 5867 18bd 58d6 95bc a9ba 633d fd52 c2bc
00000020: ecbb 013d aa79 65bd afc1 86bd 6092 d83b
00000030: 76d7 0b3d 8b34 80bd 0add 28bd e41f 27bd
00000040: 6aba 69bc ad96 c2bc 1eed 41bc 740e 503d
00000050: 6009 3dbd 0b15 59bd 4a54 02bd 5878 29bd
00000060: 60ca 74bb 7c90 9fbc ce76 963c 09e8 a4bc
00000070: ca94 e23c d63f 583d f7fb 833d 6c2e 21bd
00000080: 8660 74ba ff65 33bd b6b8 febc a588 5b3d
00000090: 6ddd 3dbd 8581 963c 42fc 443b 83e9 53bd
000000a0: 806f 60bd 49d7 833b 8b01 943d a22c 7b3d
000000b0: 4e19 323d c058 95ba 00ec 71bd 0165 0b3d
000000c0: a41c af3b 3fd2 d7bc 6950 e6bc 4fe6 63bc
000000d0: 5a7f 733c f5a7 11bb 86f3 333d c7ff 8b3d
000000e0: f0a5 0fbc e850 513d 8368 6d3d d2f4 dd3b
000000f0: 23f4 6fbd 4167 83bd 9e20 063d 5c5f 1a3c
00000100: 2917 74bd a927 1f39 8327 0f3d 49b3 043d
00000110: 772e 9e3c eedd 503d 185b c73c edba f13b
00000120: 24bd e8bc 4e50 48bd 48e6 7ebc 2676 173d
00000130: 54c9 4c3d eb01 02bd 8301 fdbc e382 373d
00000140: 6b58 67bd 298d 81bb 1f53 4b3d 22f1 15bd
00000150: 8686 033d dc71 4d3c ad7b 26bd 7a59 f73c
00000160: 82a0 013d 2001 5fbb 28fb 793c 4eed 2bbd
00000170: 9e49 79bd e280 a4ba bfd5 d4bc 93f1 8fbc
00000180: 1143 563d 6708 8b3d ec09 973d 43d3 983d
00000190: b267 0fbd f6fb b93c 0caf d5bc e099 57bb
000001a0: e2bd 203d a037 79bc 2e7f 033d 013c 0b3c
000001b0: f1be 77bd 1227 a1bb aa46 8bbb 6e63 133a
000001c0: 07b4 093d c6a0 c3bc 31e0 46bd 07b7 9f3c
000001d0: bc68 76bd 4c75 303d 8282 92bc 728e 63bc
000001e0: fc0f 0e3d 6c3f 88bc a811 e63c 80e2 69bb
000001f0: 51a9 3d3d c0f5 843d 2a23 573d 8428 1c3d
-0.05031097 0.03742262 0.057179768 -0.006922014 -0.03720793 -0.018290684 0.055597935 -0.023721213
0.031673357 -0.05602423 -0.06579911 0.006609246 0.034141026 -0.06260022 -0.041226424 -0.040801898
-0.014265636 -0.023753488 -0.011836318 0.050795034 -0.04615152 -0.052998584 -0.031818666 -0.041374534
-0.003735207 -0.019478075 0.018367197 -0.020130174 0.027658839 0.052795254 0.06444543 -0.039350912
-0.00093222444 -0.043798443 -0.031093936 0.05359711 -0.046353746 0.018372307 0.0030057584 -0.051736366
-0.054793835 0.0040234667 0.07226857 0.061321862 0.043481164 -0.0011394247 -0.059062958 0.03403187
0.0053439904 -0.02634537 -0.028114514 -0.01390989 0.014861906 -0.0022225354 0.043933414 0.06835895
-0.00876759 0.05110255 0.057961 0.0067735696 -0.058582436 -0.064161785 0.03274595 0.0094221495
-0.0595924 0.00015178196 0.03494979 0.032397542 0.019309266 0.0509929 0.02433543 0.0073770196
-0.028410502 -0.04890471 -0.015557833 0.03697791 0.04999669 -0.03174011 -0.03088451 0.044802558
-0.056480806 -0.003953595 0.049639817 -0.036606915 0.032110713 0.012539353 -0.04064529 0.030194033
0.031647213 -0.003402777 0.015257634 -0.04197436 -0.060861222 -0.0012550617 -0.025980828 -0.017571246
0.052310053 0.06788712 0.07374939 0.0746217 -0.035011 0.022703152 -0.026084445 -0.0032898113
0.039243586 -0.015211016 0.03210371 0.008498193 -0.06048483 -0.0049179876 -0.004250367 0.0005622421
0.033618953 -0.023880374 -0.04855365 0.019496454 -0.060158476 0.043080613 -0.017884497 -0.013888942
0.034683213 -0.016631804 0.028084591 -0.0035687983 0.04630405 0.064921856 0.05252377 0.038124576

out.weight f4 [7, 128]
00000000: 949e 80bc f9ce a2bc 06e5 4f3d 6826 093c
00000010: 987b 1f3c 3056 53bc 9d15 b63c 3bd9 123c
00000020: 3d37 abbd 0115 953d 58ae 87bd 796d 02bd
00000030: 486b 04bd 280e 6b3d 9475 b23c 34c4 d2bc
00000040: d914 4c3d ada3 7cbd 667e acbd 6bd1 f8bb
00000050: b879 723c 2219 633c 125b cabd 8b0d 94bd
00000060: 836c 86bd 5ccb acbd 87c4 a1bd c41c 933d
00000070: da96 d5bd 0f84 07bd 5592 a0bd 013a ab3d
00000080: 1a71 fbbc fa42 923d d83b a53d a743 783d
00000090: 30cb ed3c 4083 84bd 5ebf 823d c19c 47bd
000000a0: c910 873d 752d 623d a03b 19bd 8edf af3d
000000b0: 8b51 82bd ac38 5cbd 5ec6 2ebd 8116 bf3c
000000c0: bd0a 6f3d 0067 3eba a2ae cdbd 3078 393c
000000d0: 3311 5d3d b5d0 373e e638 07bd 2de8 9fbd
000000e0: 806b c1bb 1694 103b 8961 99bd 71e1 313d
000000f0: 68a9 92bd 8356 d5bb c581 40bd af2e 683b
00000100: 0e2e 803d d161 c6bd 98ff debd 86fc 913c
00000110: 35de 82bc ef53 9ebc 497e 8bbd d202 a23d
00000120: 307b 36bd 392f 5d3d dc46 423d 63e5 09bc
00000130: 32a7 2fbd 35cf 533d 7fa1 5abd 68d5 bebd
00000140: c65a 2c3d 7602 6d3d 0b43 81bd 4802 1f3d
00000150: eae3 45bd 20e3 8f3c 9d08 92bc c6f7 613d
00000160: fe6a 80bd 8153 8abd 584b 713c 6b4a 983d
00000170: 03dd 26bc 485a 55ba bef3 023d 1af4 b93c
00000180: e5a4 9ebd fef5 dd3c 7491 89bd 88f2 943e
00000190: 7512 49bd 7ab3 443d de47 103d fd95 943d
000001a0: f8d6 abbd 0f1d 61bd 8d5b 92bd 19db 903d
000001b0: d8f0 8e3d 0eed 9a3d 67e2 a23d bd90 323e
000001c0: 4a7d 9b3d f48e 6d3c 000c 913c cf39 733d
000001d0: 9956 a13d c0a2 303d ccd3 9c3e e077 4ebb
000001e0: 0429 3a3d 66fe a6bd 8cc3 fc3c b8e1 553c
000001f0: 34f3 a33d 0c3d 43bc c8c9 abbd 962b 8e3d
00000200: b989 903d 3580 e13d e4b0 43bd f0b9 c4bc
00000210: 5f00 cf3c a0cc 79bc 702d 8fbd 1e79 8ebd
00000220: 5f5e 7cbd 768d 253d aa72 69bd b047 43bd
00000230: aeb7 a83d f2f1 823d 404a 29bc 5826 423c
00000240: 1c4c 323d bbf2 963d 5347 99bd 1830 56bd
00000250: 4ba7 22bd 0d87 733c 3096 203d 59f6 ffbc
00000260: c30b 8b3d a947 2bbd 5685 42bd 01a6 a4bd
00000270: 2fce 74bc bdff b43c f4a5 a2bd 4f47 5fbd
00000280: 589d 133d f539 83bc ca3f 9abd 0837 3bbb
00000290: 9906 c13c 1998 803d 27ce b43c 9098 f6bc
000002a0: dffe 833c 2b12 ae3c 7efb bbbd de9e 86bd
000002b0: e3de 513d 8786 61bd add4 ea3b 55da 6d3b
000002c0: e6c8 b7bc 9e6a 87bd 008b 833c c256 9e3d
000002d0: d625 0cbe 274f 203e a682 a8bd c39e bcbd
000002e0: 557b 96bd 4021 a7bd 347b c7bd 27d5 a73d
000002f0: d615 4abd 607c 90bd f76e 943a ce11 883d
00000300: 26d2 9abb 3f7f 6d3c d715 b0bd da6a 73bc
00000310: 3d2a a3bd ea97 81bc ace6 ca3c 77dd a83c
00000320: 55f5 c43d 0e01 f0bc f001 fabd 84c5 a63d
00000330: 1a5c 773d cafa 95bc a29d 95bc 6bff 2b3d
00000340: c523 10bd 9181 97bd da2c e2b9 31bd bd3c
00000350: 7868 6dbd f09c 71bc c33f 00be 4daf 24bd
00000360: 1637 9b3d 681c 1d3c f1a0 87bd 7863 7c3c
00000370: a1cc 803d e383 48bd 68c3 e4bd 778f 5b3c
00000380: 1d03 d8bc 3a97 b5bd 2bae 4abd ecf2 ce3d
00000390: 7c61 bebc 3768 8cbd 48aa 5d3c 108c 5bbd
000003a0: 5ada 343d 18a4 ff3c efe7 6f3d 8021 0d3c
000003b0: 48e3 9bbd 8f26 8d3d 881a 863d 54ed 4e3e
000003c0: fa1e 8c3d bba9 bd3c 1a15 35bb 3753 17bb
000003d0: 3ef5 9abd 6f46 1d3c 4354 f33d fa0c 613d
000003e0: 1d97 f93c a29e f9bc 9d9e 893d de03 523d
000003f0: 31b7 0b3d 628f 74bd d26b 77bd af89 503d
-0.015700616 -0.019874083 0.050755523 0.008370973 0.009734057 -0.012898967 0.022227103 0.008962925
-0.08360145 0.07279397 -0.0662505 -0.031842683 -0.032328874 0.057386547 0.021784581 -0.025728323
0.04982457 -0.06167953 -0.08422546 -0.007593324 0.014799528 0.013860973 -0.098806515 -0.072291456
-0.06563666 -0.08437225 -0.07898813 0.07183221 -0.10429163 -0.033084925 -0.078404106 0.08360673
-0.03069358 0.07141681 0.08068055 0.060611393 0.029027551 -0.064703465 0.06384157 -0.048733477
0.065949984 0.055219132 -0.03741038 0.085875615 -0.06363209 -0.053764984 -0.042669646 0.02332616
0.05835985 -0.0007263273 -0.10043074 0.011320159 0.05397148 0.17950709 -0.033013247 -0.07807956
-0.0059027076 0.0022060922 -0.074893065 0.04342789 -0.07161218 -0.006510557 -0.046998758 0.0035428216
0.06258784 -0.09686626 -0.108885944 0.017820608 -0.015975097 -0.019327132 -0.06811196 0.07910694
-0.044551075 0.054000113 0.047430858 -0.008416506 -0.04288406 0.05171128 -0.05337667 -0.09318048
0.042078756 0.057863675 -0.063116156 0.038820535 -0.04831306 0.017564356 -0.017826373 0.055167936
-0.06270407 -0.06754208 0.014727436 0.07436069 -0.010184529 -0.0008138758 0.031970732 0.022699405
-0.07746295 0.027094837 -0.06717196 0.29091287 -0.049089868 0.048022725 0.035224788 0.072551705
-0.083906114 -0.054959353 -0.07146368 0.070730396 0.06979531 0.07564746 0.07953339 0.17438026
0.07592256 0.014499415 0.017705917 0.059381302 0.07877845 0.04312396 0.30630338 -0.0031504557
0.04544927 -0.081539914 0.030854963 0.013054304 0.08005372 -0.01191641 -0.08388096 0.06941907
0.070575185 0.11010782 -0.047776118 -0.024014443 0.025268732 -0.01524654 -0.069910884 -0.06956695
-0.061613437 0.04041811 -0.056994118 -0.04767579 0.08238159 0.06393804 -0.010332644 0.011849962
0.043529615 0.07370516 -0.07484307 -0.05229196 -0.039710324 0.014863742 0.03920573 -0.031245397
0.06789353 -0.041816387 -0.04749044 -0.08039475 -0.014941736 0.022094602 -0.07941809 -0.054511365
0.036038727 -0.016018847 -0.07531698 -0.0028566737 0.023562716 0.0627901 0.022070957 -0.030102044
0.016112743 0.021248898 -0.09178828 -0.0657327 0.051237952 -0.055059936 0.007166466 0.0036293466
-0.022434663 -0.066121325 0.016057491 0.077313915 -0.13686308 0.15655194 -0.08228044 -0.09209969
-0.073477425 -0.08160639 -0.09740296 0.081949525 -0.04933723 -0.07054973 0.0011324574 0.06644021
-0.0047247587 0.01449567 -0.085979156 -0.014857018 -0.07967041 -0.015819509 0.024768196 0.020613415
0.09617106 -0.029297378 -0.12207401 0.08143142 0.06039057 -0.018308062 -0.018263642 0.041991632
-0.035190362 -0.0739776 -0.00043139496 0.023161503 -0.057960957 -0.0147468895 -0.12524323 -0.040206242
0.07578866 0.009589292 -0.06622494 0.015404575 0.0628903 -0.048953902 -0.11170083 0.013400904
-0.026368672 -0.08866735 -0.049482506 0.101049274 -0.023239844 -0.06855815 0.013529368 -0.05360037
0.04415355 0.031206176 0.0585708 0.008613944 -0.0761171 0.0689212 0.06548029 0.20207721
0.06841846 0.023152223 -0.0027630986 -0.0023090371 -0.075663075 0.009599312 0.11881306 0.054944016
0.030467564 -0.03047115 0.06719706 0.05127322 0.03411025 -0.059707053 -0.06040556 0.050912555

out.bias f4 [7]
00000000: 6dbe 633d 8313 36bd 1b9c 2dbc f4fc ddbc
00000010: e824 843d 46af 25bd e8a7 84bd
0.055601526 -0.0444522 -0.0105963005 -0.027098157 0.06452352 -0.040450357 -0.06477338
