trained_models/dqn_shooter_900.pt (torch, 686304 bytes, 8 tensors)

fc1.weight f4 [512, 10]
-0.12777264 0.003537634 0.027872507 0.038751435 -0.060798153 -0.30669308 -2.4904046 -0.42261583
-0.4168323 0.11310964 0.082226165 0.017943386 -0.28990865 -0.20967273 0.08208396 0.8495404
-0.007036646 -0.044439908 -0.43547013 -0.19394282 -0.30823684 0.026337951 -0.2537162 -0.2155299
-0.06915048 -0.22292902 0.28129008 -0.12084864 0.06658518 -0.0025521815 -0.2070828 -0.12763545
0.01205454 0.06716272 0.08299344 -0.2547315 2.8596094 1.2509346 -0.42134428 -0.15568726
0.19962676 -0.14319716 -0.24055627 -0.4119542 -0.20044704 0.4828749 0.19439586 0.38783067
-0.08685977 -0.3897112 0.012817135 0.2667414 0.055212043 0.031608712 -0.17958923 0.27773693
-1.5184927 -2.4501295 -0.13179792 -0.014671607 0.11705962 -0.17847243 -0.3151146 -0.2633841
-0.112422384 1.0248787 0.12895708 0.033661358 0.045347374 0.1002263 -0.26446155 0.060909353
0.63500553 0.118445754 -0.11420826 -0.8552893 -0.7776498 0.5869274 -0.405672 -0.28786078
0.089657806 0.07873798 -0.024400275 -0.18720044 0.024573972 0.8292847 0.4551182 0.27425045
0.036714092 -0.138148 -0.13036834 0.23829362 0.17079955 -0.09707187 -0.08818793 0.037192672
0.011510551 0.13490218 0.27597657 0.036205083 0.22490779 -0.16481116 0.29199302 -0.041648217
0.22192791 1.1229116 -0.7547073 -0.110020675 -0.5138507 -0.15520655 -0.33179355 0.21076947
-0.47934955 0.09726605 0.20139858 0.10234329 0.088619694 3.9277835 0.48045895 0.062612034
-0.0698228 -0.122980535 -0.28431934 -0.13645257 -0.23994893 -0.16168427 0.19438192 -0.044377387
0.25641748 -0.18276215 -0.06211928 0.13442451 -0.52698094 0.040904656 -0.2844855 1.1521035
-0.44965547 -1.9186761 0.10836484 0.05509283 -0.08682767 0.3506647 0.21117829 0.043890633
-0.28861737 -0.53940475 2.8127346 -2.1770365 0.33435532 -0.091852054 -0.015236229 0.2094523
0.03075111 -0.04621446 0.05381891 0.1486904 -0.09086497 0.10424125 0.27947566 -0.15114984
0.1487815 -0.09121507 -0.7232768 -0.27685088 -0.14567925 0.80362105 -0.4568417 -0.1310297
0.10682423 0.05468024 -0.008467048 0.041291684 -0.06120068 -0.12929408 -0.13554731 0.08344388
0.18031174 0.17413992 0.30987194 -0.0633913 -0.28531447 0.021749139 -0.19845778 -0.16230872
0.124047905 -0.112729445 0.0009792149 -0.05288458 0.2074978 -0.26961398 -0.18301256 0.2558603
0.12649813 -0.1675272 0.3061227 -0.3032577 -0.024307966 -0.15522172 -0.04156658 0.21173248
0.087785766 -0.19595592 -0.452682 0.10482956 -0.07152652 0.5677237 -1.7374655 -2.053499
0.022030884 -0.40976545 -0.07678443 -0.21724994 -0.93429613 0.11783712 -0.18504672 -0.11960311
1.9572886 -1.5300512 -0.07756447 0.028916143 -0.13373516 -0.102512345 -0.09030864 -0.21850452
0.06546906 0.010970026 0.25515893 -0.0046144724 -0.07953687 -0.20054768 -0.19559225 -0.097629905
0.30272713 -0.19626322 -0.2575649 0.0648492 -0.25931093 -0.11837137 0.13466007 -0.090399936
-0.0032733278 -0.09839745 0.10398501 0.08019823 -0.030644078 -0.78775394 -2.3467796 -3.4656897
0.06781674 -0.18102427 0.009248263 -0.014655921 -0.97402143 0.028934998 0.16179454 1.0830715
00000000: d5d6 02be a6d7 673b e254 e43c d3b9 1e3d
00000010: 7c07 79bd e006 9dbe ca62 1fc0 1a61 d8be
00000020: 0b6b d5be 07a6 e73d 3166 a83d 02fe 923c
00000030: e86e 94be 73b4 56be a31b a83d 7b7b 593f
00000040: aa93 e6bb 9f06 36bd f1f5 debe f298 46be
00000050: 38d1 9dbe b0c2 d73c 17e7 81be dfb3 5cbe
00000060: c49e 8dbd 8147 64be 4105 903e 7e7f f7bd
00000070: d05d 883d 8042 27bb 830d 54be deb2 02be
00000080: 6880 453c 9c8c 893d 77f8 a93d 2b6c 82be
00000090: d703 3740 a01e a03f 70ba d7be 7b6c 1fbe
000000a0: f56a 4c3e 47a2 12be 6254 76be a9eb d2be
000000b0: fd41 4dbe 613b f73e b50f 473e be91 c63e
000000c0: 89e3 b1bd 3a88 c7be f6fe 513c 5492 883e
000000d0: 0626 623d 2378 013d 3de6 37be 8933 8e3e
000000e0: f85d c2bf ecce 1cc0 09f6 06be 2e61 70bc
000000f0: f4bc ef3d 7ac1 36be b356 a1be 48da 86be
00000100: b53d e6bd 3a2f 833f 530d 043e 7ee0 093d
00000110: 2bbe 393d 7243 cd3d 8167 87be 167c 793d
00000120: b98f 223f b093 f23d 05e6 e9bd 3df4 5abf
00000130: 0f14 47bf e040 163f 3eb4 cfbe 7d62 93be
00000140: 839e b73d 6141 a13d 16e3 c7bc 79b1 3fbe
00000150: 5b4f c93c 014c 543f 4105 e93e 8e6a 8c3e
00000160: 8461 163d ab76 0dbe 477f 05be 3e03 743e
00000170: 14e6 2e3e 9ecd c6bd e09b b4bd 5857 183d
00000180: c096 3c3c cc23 0a3e cd4c 8d3e c84b 143d
00000190: 3a4e 663e 42c4 28be 1c80 953e 5297 2abd
000001a0: 1241 633e 91bb 8f3f 7f34 41bf 8552 e1bd
000001b0: b88b 03bf 77ee 1ebe d8e0 a9be f4d3 573e
000001c0: 4e6d f5be 6c33 c73d 6e3b 4e3e 5c99 d13d
000001d0: 3e7e b53d ce60 7b40 b7fe f53e bd3a 803d
000001e0: 42ff 8ebd 38dd fbbd 4e92 91be 39ba 0bbe
000001f0: 2cb5 75be 9090 25be 0e0c 473e 10c5 35bd
00000200: 2749 833e 0026 3bbe c970 7ebd 94a6 093e
00000210: 39e8 06bf a48b 273d 15a8 91be 2178 933f
00000220: 3e39 e6be 2e97 f5bf 63ee dd3d 05a9 613d
00000230: b5d2 b1bd 538a b33e 1f3f 583e aac6 333d
00000240: a8c5 93be 6e16 0abf d803 3440 9154 0bc0
00000250: 9f30 ab3e ee1c bcbd 60a1 79bc aa7a 563e
00000260: c0e9 fb3c 604b 3dbd 3871 5c3d 4c42 183e
00000270: 6a17 babd 707c d53d 6f17 8f3e 06c7 1abe
00000280: 2d5a 183e f7ce babd ab28 39bf 66bf 8dbe
00000290: f12c 15be 1cba 4d3f 28e7 e9be a62c 06be
000002a0: a9c6 da3d 63f8 5f3d 60b9 0abc 7821 293d
000002b0: 90ad 7abd ab65 04be eacc 0abe a0e4 aa3d
000002c0: a4a3 383e bc51 323e 89a7 9e3e 4cd3 81bd
000002d0: bd14 92be 402b b23c 8438 4bbe 4234 26be
000002e0: d40c fe3d b2de e6bd 0059 803a 809d 58bd
000002f0: 4e7a 543e d80a 8abe a567 3bbe 1f00 833e
00000300: ba88 013e 408c 2bbe 1dbc 9c3e 9844 9bbe
00000310: 8021 c7bc 71f2 1ebe b841 2abd 66d0 583e
00000320: 06c9 b33d aba8 48be efc5 e7be e1b0 d63d
00000330: 7f7c 92bd 5756 113f 4565 debf 876c 03c0
00000340: 1d7a b43c c7cc d1be 2841 9dbd c576 5ebe
00000350: 082e 6fbf 9754 f13d e37c 3dbe 7af2 f4bd
00000360: 6f88 fa3f b8d8 c3bf 1fda 9ebd 8ce1 ec3c
00000370: dff1 08be fef1 d1bd bcf3 b8bd a6bf 5fbe
00000380: a414 863d a0bb 333c 31a4 823e 0035 97bb
00000390: 3ae4 a2bd 5f5c 4dbe 5649 48be 30f2 c7bd
000003a0: 0dff 9a3e 3af9 48be 8cdf 83be a8cf 843d
000003b0: 67c4 84be b06c f2bd 54e4 093e 9a23 b9bd
000003c0: 5485 56bb 9a84 c9bd 18f6 d43d f83e a43d
000003d0: 4a09 fbbc 3eaa 49bf a331 16c0 dccd 5dc0
000003e0: 81e3 8a3d 6d5e 39be 0786 173c 631f 70bc
000003f0: 7859 79bf 1709 ed3c 78ad 253e 16a2 8a3f

fc1.bias f4 [512]
-0.34164196 -0.1776514 0.14657462 -0.20707928 -0.27843818 -0.29052576 -0.17617981 -0.17673168
0.1916231 0.14496952 -0.18843012 -0.20441304 -0.3069716 -0.3854295 0.10427797 0.25868925
0.19266964 -0.03392142 -0.15594365 0.1770055 -0.20619902 -0.23775241 -0.23638439 -0.23287728
-0.23665953 -0.29740855 -0.03901899 -0.12736265 -0.16900937 -0.43781146 -0.033920985 -0.24221113
0.069501124 -0.23659319 -0.04256302 0.12980941 -0.027900415 0.08555148 -0.11742575 0.1184695
-0.29107526 0.040154997 -0.24135399 -0.13637052 0.09019582 0.09265065 -0.30302447 0.18571924
-0.05175194 0.120903194 -0.028000504 0.17205568 -0.2667815 0.04664491 -0.38779482 0.13674487
-0.1849473 0.004608176 0.16995847 -0.24130425 0.080240734 0.21756086 -0.32102177 0.011052923
0.15358852 -0.054146916 -0.066594616 0.1084367 0.112829864 0.0024587214 -0.38978764 0.22461936
-0.10748871 -0.30877888 0.23218651 0.049890175 0.07489819 -0.11315332 0.11839308 0.18526119
-0.08140982 0.06291962 -0.22477622 -0.2510456 0.092266716 -0.30465493 0.18683627 -0.011462539
-0.21809469 -0.30277273 -0.3173705 -0.09225318 0.23516312 0.24924658 0.14431338 -0.035843495
-0.099333555 -0.3866736 0.3645616 -0.07321332 -0.03754309 -0.3685606 -0.04228723 -0.107218795
0.17655516 -0.046175018 -0.081138976 -0.34696102 0.21607158 -0.22837794 0.072645955 -0.087062225
-0.1719984 -0.057697892 -0.39989984 -0.16001052 0.1476455 -0.223389 -0.04282573 0.12708716
0.13935998 0.074717425 -0.03977114 0.017528487 -0.343893 -0.12176086 0.084119044 -0.050236102
0.22291788 -0.31354776 0.14536509 -0.16783194 -0.0803141 -0.2679979 0.3144016 -0.25884026
0.10384339 0.24323049 0.081230395 -0.25351685 0.13610066 0.046201766 0.018635333 0.27827868
-0.02270956 -0.26461 -0.31762323 0.013026953 0.17067924 -0.20278518 0.22529843 -0.31601942
0.24605998 -0.020422429 -0.009381584 -0.1446658 0.1915278 0.07525194 -0.09558409 0.06154707
-0.09746692 0.15734452 0.20523314 -0.059933513 0.025307264 0.061495263 -0.08684145 0.13317312
-0.24489571 -0.14272693 -0.2648656 -0.11233784 -0.17913336 0.009791287 -0.138197 0.041853417
-0.043043226 -0.21451053 0.07828936 -0.11234869 0.27899185 0.037481427 0.15924492 0.25763777
-0.155971 -0.36599824 -0.37434745 -0.05739176 -0.252633 -0.38699338 0.15328257 -0.032881796
0.018907253 -0.3118238 -0.43334305 -0.1939115 -0.14643417 0.145584 0.08586693 -0.18171105
-0.3444214 0.029564083 0.06678313 0.160594 0.109933086 -0.058006827 -0.3332152 -0.085635304
-0.23025042 0.04222533 0.26157776 0.25058678 -0.10897454 0.20445165 0.0022741198 -0.16011442
-0.24010561 -0.23908165 -0.28253034 0.17918643 -0.18526901 -0.030410968 -0.02619367 0.09478676
-0.036535915 -0.092711076 -0.03457501 -0.16195025 -0.09251347 0.057753045 -0.08761914 0.1275426
-0.2946118 -0.12791517 -0.013807502 -0.10391627 -0.063802436 -0.28044578 0.12197146 -0.18380511
-0.28648555 -0.026247628 -0.25388217 0.26372617 -0.08331909 0.140954 -0.2399494 -0.16377543
-0.3186545 -0.09228696 0.14723408 -0.31512335 -0.13534103 0.2790909 0.15470682 -0.09174132
00000000: b2eb aebe 40ea 35be a817 163e 970c 54be
00000010: 738f 8ebe cbbf 94be 7b68 34be 26f9 34be
00000020: d938 443e e472 143e d3f3 40be a751 51be
00000030: 622b 9dbe 0457 c5be b08f d53d eb72 843e
00000040: 314b 453e 30f1 0abd b1af 1fbe ee40 353e
00000050: d625 53be 5e75 73be c00e 72be 6277 6ebe
00000060: e056 72be ef45 98be 60d2 1fbd 5b6b 02be
00000070: cb10 2dbe d328 e0be bbf0 0abd 3206 78be
00000080: 9b56 8e3d 7c45 72be 9056 2ebd c2ec 043e
00000090: 698f e4bc 9d35 af3d e97c f0bd 23a0 f23d
000000a0: d107 95be 9179 243d 8025 77be b7a4 0bbe
000000b0: 96b8 b83d a0bf bd3d 0626 9bbe 2f2d 3e3e
000000c0: d8f9 53bd 189c f73d 5061 e5bc 5d2f 303e
000000d0: 9697 88be bc0e 3f3d 0b8d c6be d906 0c3e
000000e0: d362 3dbe 2f00 973b 9809 2e3e 7618 77be
000000f0: 4155 a43d 46c8 5e3e f75c a4be 5217 353c
00000100: 4f46 1d3e 28c9 5dbd c262 88bd 1014 de3d
00000110: 5813 e73d 8022 213b 3f92 c7be 9e02 663e
00000120: 0a23 dcbd 4418 9ebe 4dc2 6d3e a459 4c3d
00000130: 3964 993d eebc e7bd 1278 f23d 1cb5 3d3e
00000140: 31ba a6bd 00dc 803d bd2b 66be 0d89 80be
00000150: 55f6 bc3d bbfb 9bbe 0252 3f3e 60cd 3bbc
00000160: 3754 5fbe 0705 9bbe 637e a2be 3cef bcbd
00000170: 9ace 703e 7f3a 7f3e e3c6 133e a1d0 12bd
00000180: 646f cbbd 15fa c5be d1a7 ba3e ddf0 95bd
00000190: c8c6 19bd fab3 bcbe 6035 2dbd 8795 dbbd
000001a0: e0ca 343e 0422 3dbd 312c a6bd e0a4 b1be
000001b0: de41 5d3e e8db 69be 67c7 943d ae4d b2bd
000001c0: 5920 30be a054 6cbd acbf ccbe ccd9 23be
000001d0: 6230 173e 16c0 64be 086a 2fbd 2323 023e
000001e0: 62b4 0e3e 7305 993d 10e7 22bd e797 8f3c
000001f0: be12 b0be c25d f9bd 9b46 ac3d 5fc4 4dbd
00000200: 9644 643e 5589 a0be 96da 143e 23dc 2bbe
00000210: b87b a4bd 0537 89be 3ff9 a03e b686 84be
00000220: d8ab d43d 6a11 793e 1f5c a63d f6cc 81be
00000230: f95d 0b3e 103e 3d3d 20a9 983c 8b7a 8e3e
00000240: 6609 babc f67a 87be 839f a2be 006f 553c
00000250: 8ac6 2e3e eba6 4fbe a2b4 663e 4ccd a1be
00000260: 26f7 7b3e f04c a7bc 37b5 19bc 4523 14be
00000270: dd1f 443e b01d 9a3d 97c1 c3bd c818 7c3d
00000280: bd9c c7bd ec1e 213e a328 523e d87c 75bd
00000290: 2e51 cf3c 75e2 7b3d eed9 b1bd 895e 083e
000002a0: f1c5 7abe 0227 12be 779c 87be 6211 e6bd
000002b0: bc6e 37be a26b 203c 8483 0dbe 7d6e 2b3d
000002c0: 184e 30bd a6a8 5bbe 2c56 a03d 1217 e6bd
000002d0: 05d8 8e3e 2086 193d 1a11 233e 19e9 833e
000002e0: ddb6 1fbe 1f64 bbbe 78aa bfbe 9f13 6bbd
000002f0: 1d59 81be ff23 c6be 1bf6 1c3e 10af 06bd
00000300: 62e3 9a3c 5ea7 9fbe 24df ddbe bc90 46be
00000310: d7f2 15be f913 153e 00db af3d 7612 3abe
00000320: 0058 b0be 6030 f23c 98c5 883d c172 243e
00000330: 9924 e13d 9198 6dbd 2f9b aabe 9061 afbd
00000340: c4c6 6bbe 78f4 2c3d 85ed 853e e94c 803e
00000350: 0b2e dfbd c65b 513e 6609 153b 09f5 23be
00000360: 3fde 75be d2d1 74be d1a7 90be a67c 373e
00000370: 29b7 3dbe 6c20 f9bc 1c94 d6bc 901f c23d
00000380: afa6 15bd 4edf bdbd 879e 0dbd 49d6 25be
00000390: b477 bdbd 758e 6c3d aa71 b3bd 879a 023e
000003a0: 5cd7 96be 32fc 02be dc38 62bc 0ed2 d4bd
000003b0: daaa 82bd 9796 8fbe 2ccc f93d 6837 3cbe
000003c0: 3cae 92be 4405 d7bc d8fc 81be 1e07 873e
000003d0: 33a3 aabd 3f56 103e 4cb5 75be bfb4 27be
000003e0: af26 a3be f200 bdbd 88c4 163e d957 a1be
000003f0: d796 0abe 01e5 8e3e 776b 1e3e e0e2 bbbd

fc2.weight f4 [256, 512]
0.0023652927 -0.013737138 0.02209996 0.028937822 0.02969395 -0.030632263 -0.021140406 -0.027104603
-0.04074027 0.013299655 0.033746667 0.030858861 -0.034098156 0.036832247 -0.03369442 -0.028798852
-0.023584485 0.033446055 -0.00783436 0.011534832 0.014250606 0.019085605 0.0348203 0.02830464
0.023878213 0.03279152 -0.013426064 -0.026486864 0.035980646 0.003517628 0.03586872 -0.0199505
-0.0055218264 -0.039889254 -0.017850589 -0.015888356 0.009678919 0.026277205 -0.00054436794 0.030850008
-0.027598524 -0.041148793 0.019905392 0.011315906 -0.032173075 -0.011947237 0.021160483 0.033946823
-0.011713266 -0.027516942 -0.0347932 -0.026008917 0.035898704 -0.030185282 0.033648416 0.018977396
0.008297227 -0.018646637 -0.004536625 -0.021821165 -0.030957699 0.037156735 -0.04948963 0.006853399
0.014474314 -0.007536959 -0.04802092 0.01686348 0.027798 0.02431995 -0.026441135 -0.027837506
-0.0015333199 0.036434513 0.033853795 -0.039898824 -0.04369003 -0.030220322 -0.041700114 -0.03685254
-0.040238656 -0.024390267 -0.011694344 0.04202679 -0.0020059277 0.019554343 0.015883494 -0.025573453
-0.025709487 0.0073988596 -0.005403463 0.03289393 0.005287919 -0.040731046 0.01944853 0.0013143495
0.014100112 0.006148885 0.03796234 0.02698713 0.022346944 0.028613012 0.026816208 0.0041180295
-0.03360183 0.027393322 -0.0295458 0.025694301 0.009980019 0.03579211 0.01574406 0.019309986
0.042523235 0.039016385 -0.045717623 -0.03277997 0.036325436 0.010881089 0.00046295562 0.019093245
-0.0050625466 0.009285718 0.005047977 -0.0129622575 -0.046564966 0.029003251 0.011221718 -0.012744376
-0.0009725578 -0.007891193 0.018218365 0.036959242 0.041256327 -0.0040564593 -0.008758042 0.0018244572
0.0350496 -0.0044253506 -0.0138499485 0.04150605 -0.042545266 0.0391036 0.040360857 0.036186557
0.03598139 -0.023012996 0.014194568 -0.0059999526 0.011291789 0.020275071 -0.03894779 -0.01556969
0.006739013 0.028145652 -0.014553641 0.040118422 0.02788376 -0.023148699 -0.04087574 -0.018543238
-0.02120929 0.0022766297 -0.011774827 -0.042965405 0.022206662 0.026761547 -0.044476464 0.032008547
0.032837097 0.025732333 -0.0096804425 0.0035205346 -0.00082399324 0.014309193 0.027362641 -0.019040165
-0.030407736 0.017701082 0.0110441595 0.020530406 0.033625428 0.0019623898 0.03787734 0.007880058
-0.0106299035 0.00013984367 0.020893792 -0.03141617 -0.01676284 0.019465515 0.037467845 -0.012126274
0.03446542 -0.0268347 0.00055234483 -0.032097355 0.027625423 0.037958357 0.0077602975 -0.0329079
0.01172654 0.031976078 0.03287695 0.0036382067 -0.045270354 0.03082396 0.029689724 -0.027279874
-0.027667698 -0.025716884 -0.010373592 -0.040043157 0.021697786 0.036381308 -0.034758713 -0.022913834
0.010035224 -0.04112424 0.023540791 0.012735106 -0.009541571 -0.03887861 -0.04246774 0.015171862
0.010085469 0.020640243 0.013315496 -0.03235356 -0.035145473 -0.0014137588 -0.039370216 0.02860976
-0.007542778 -0.021632653 0.007194842 0.03662703 0.030991692 -0.030869927 -0.026734225 -0.003464155
-0.02269398 -0.023200016 -0.013204225 0.03787462 0.030779472 0.023709035 0.012403801 -0.040729586
-0.046330497 0.025093507 -0.0035323836 -0.019701011 0.035972644 -0.034993023 -0.014455628 0.011156082
00000000: 0703 1b3b bc11 61bc fa0a b53c 030f ed3c
00000010: ba40 f33c 83f0 fabc a52e adbc 790a debc
00000020: 45df 26bd cce6 593c f239 0a3d b9cb fc3c
00000030: 82aa 0bbd 69dd 163d 2903 0abd 92eb ebbc
00000040: 4034 c1bc bbfe 083d b05b 00bc 98fc 3c3c
00000050: 607b 693c 6a59 9c3c bb9f 0e3d 22df e73c
00000060: 3e9c c33c 6750 063d fef8 5bbc fbfa d8bc
00000070: 7160 133d 0188 663b 14eb 123d 3b6f a3bc
00000080: 70f0 b4bb ea62 23bd 663b 92bc 4c28 82bc
00000090: 5494 1e3c 4b43 d73c eab3 0eba 28b9 fc3c
000000a0: 4d16 e2bc a38b 28bd a210 a33c 5a66 393c
000000b0: eac7 03bd 58be 43bc c058 ad3c d30b 0b3d
000000c0: 00e9 3fbc 366b e1bc 5183 0ebd a710 d5bc
000000d0: 850a 133d 2047 f7bc ecd2 093d 7c76 9b3c
000000e0: 18f1 073c d5c0 98bc f8a7 94bb 4dc2 b2bc
000000f0: 009b fdbc a931 183d a3b5 4abd 7a92 e03b
00000100: ac25 6d3c 98f8 f6bb 96b1 44bd 4825 8a3c
00000110: a2b8 e33c a23a c73c 149b d8bc 7b0b e4bc
00000120: aef9 c8ba 5b3c 153d 47aa 0a3d f36c 23bd
00000130: 51f4 32bd 9c90 f7bc bdcd 2abd b0f2 16bd
00000140: 4ad1 24bd 19ce c7bc a299 3fbc 4924 2c3d
00000150: e275 03bb 6e30 a03c 1a1e 823c 6b7f d1bc
00000160: b49c d2bc 2272 f23b 880f b1bb c9bb 063d
00000170: 4846 ad3b 99d5 26bd 8652 9f3c 4046 ac3a
00000180: 2804 673c 967c c93b 667e 1b3d 1d14 dd3c
00000190: f010 b73c d665 ea3c aaad db3c 89f0 863b
000001a0: 13a2 09bd f667 e03c 090a f2bc db7c d23c
000001b0: 3c83 233c bf9a 123d b0f9 803c fa2f 9e3c
000001c0: d82c 2e3d a5cf 1f3d 6742 3bbd 4a44 06bd
000001d0: fbc9 143d 9846 323c dab8 f239 7069 9c3c
000001e0: b8e3 a5bb 2023 183c 8069 a53b a65f 54bc
000001f0: e8ba 3ebd 3a98 ed3c 4cdb 373c cacd 50bc
00000200: 40f3 7eba 104a 01bc ae3e 953c 9362 173d
00000210: 65fc 283d 0cec 84bb e47d 0fbc a022 ef3a
00000220: 2b90 0f3d 8802 91bb e5ea 62bc 3f02 2a3d
00000230: f243 2ebd 192b 203d 6d51 253d 5b38 143d
00000240: 3961 133d c085 bcbc 5590 683c 409b c4bb
00000250: 3201 393c e817 a63c b887 1fbd 0318 7fbc
00000260: f0d2 dc3b b691 e63c 6572 6ebc 3753 243d
00000270: 7c6c e43c 57a2 bdbc 526d 27bd fde7 97bc
00000280: 1bbf adbc 8233 153b 34eb 40bc 7efc 2fbd
00000290: bfea b53c 083b db3c f42c 36bd 651b 033d
000002a0: 3180 063d 9dcc d23c b89a 1ebc c5b8 663b
000002b0: 4001 58ba 1b71 6a3c 9e27 e03c 1ffa 9bbc
000002c0: a519 f9bc dc01 913c 90f2 343c 622f a83c
000002d0: d1ba 093d 709b 003b 4525 1b3d 5c1b 013c
000002e0: 0c29 2ebc 00a3 1239 7529 ab3c 3eae 00bd
000002f0: 3952 89bc 2576 9f3c e277 193d 48ad 46bc
00000300: 9d2b 0d3d 72d4 dbbc 3ccb 103a 8478 03bd
00000310: b64e e23c 397a 1b3d 184a fe3b 6fca 06bd
00000320: ac20 403c 59f9 023d fba9 063d fb6e 6e3b
00000330: 686d 39bd 8882 fc3c dd37 f33c 0b7a dfbc
00000340: 5ea7 e2bc 37ac d2bc 00f6 29bc 4b04 24bd
00000350: 8ebf b13c 9104 153d 275f 0ebd cbb5 bbbc
00000360: c86a 243c e471 28bd 9ed8 c03c e8a6 503c
00000370: 4054 1cbc 2d3f 1fbd a7f2 2dbd 6793 783c
00000380: 863d 253c ba15 a93c 3d29 5a3c 2b85 04bd
00000390: b3f4 0fbd e04d b9ba aa42 21bd 045f ea3c
000003a0: 6829 f7bb f636 b1bc b6c2 eb3b 3906 163d
000003b0: 4ae2 fd3c eee2 fcbc bc01 dbbc e006 63bb
000003c0: bae8 b9bc f60d bebc 8956 58bc 6b22 1b3d
000003d0: 3b25 fc3c 7339 c23c 5039 4b3c 11d4 26bd
000003e0: 0cc5 3dbd e690 cd3c 907f 67bb 0464 a1bc
000003f0: 0d58 133d d854 0fbd 4cd7 6cbc 00c8 363c

fc2.bias f4 [256]
-0.030530633 0.024088949 -0.024936905 -0.024128253 -0.044524927 -0.0011725053 -0.007816718 0.030019466
-0.026917282 -0.029534666 -0.027038477 0.030741997 0.02589295 -0.032644063 -0.019781502 -0.0030659426
0.020609075 0.020308547 -0.01281634 0.0036991213 0.0026718709 -0.0145376595 -0.039558694 0.026586516
0.014339799 -0.0126194535 0.006415614 -0.026357448 0.01383079 -0.033206582 0.04612776 -0.018494759
-0.014020068 0.0020228887 -0.014040368 0.012707356 -0.01566806 -0.042835724 -0.018926434 0.039861925
0.0334972 0.025701648 0.035702903 0.041081514 -0.043038674 0.014749299 -0.04312758 0.019644462
0.03880089 -0.045239244 0.030991402 -0.03713515 0.030831063 0.0079975035 0.023811841 0.009849593
-0.027824476 -0.02335295 -0.06709701 0.016490277 -0.003000449 0.016409643 0.02596824 -0.0070487102
0.019247327 0.02193379 -0.030557642 -0.041765016 0.025049794 -0.026295766 0.004169811 0.030658053
-0.011467426 0.023787308 0.0044549853 -0.0019799666 0.002214142 0.040091004 0.03316321 -0.047658283
0.0029383264 -0.007130284 -0.0155797005 -0.025260726 0.0055857324 0.111521736 0.039799422 -0.02975611
-0.0051133633 0.010075341 0.008758226 0.027232708 0.017881244 0.028597597 0.03329036 -0.028437158
0.04714402 -0.0021334356 -0.04289796 -0.026416918 0.021951357 -0.005328462 -0.0058803316 0.028623387
-0.049146265 -0.03642283 0.017282525 -0.0001181428 0.039455216 0.0035260508 -0.04341935 0.03614104
0.019382175 -0.048835237 -0.016269436 -0.009821061 0.028971078 0.02311848 -0.017208787 -0.013224669
-0.017435111 -0.024372093 -0.032359205 0.011457851 0.03790373 -0.041320108 -0.028077157 0.016712932
-0.011237051 -0.01799966 -0.0046514384 0.0038751177 -0.035774082 -0.04202762 -0.022329615 0.032783225
0.034760054 -0.046225894 -0.0048955083 -0.010601603 0.027784685 0.02072521 -0.022915758 0.033020515
0.03124838 -0.021913972 -0.037375998 -0.029398615 -0.0025437959 -0.043663397 -0.0072674206 0.0039799623
-0.021667028 -0.04132523 -0.018974127 -0.0146874515 0.011600494 0.020410037 -0.034609407 -0.035795894
-0.03301086 0.018697312 0.0056035966 -0.025837936 -0.0023173264 0.037258968 -0.005017551 0.03674445
0.04355303 0.034281842 -0.008825066 -0.010850511 0.017466359 0.019226283 0.005765049 0.021879962
-0.028263098 -0.008025462 0.034433324 0.013689713 0.020628873 0.030388562 -0.018790554 0.021971896
0.015379189 0.010906066 0.016095866 0.013047842 -0.014540433 -0.0053549 -0.004771647 0.024978103
-0.023793751 0.008301407 -0.0047661955 -0.01791075 -0.028391255 -0.0021839216 0.028594421 -0.053925864
0.0064274636 0.017339148 0.033222225 -0.016504077 0.028847788 0.01063879 0.0036171547 -0.0002655761
-0.07274032 -0.01580773 -0.02804565 -0.018556265 0.04115827 0.021792917 0.012917366 -0.03847418
0.015953124 0.064494796 -0.024775948 0.017349344 0.008361425 0.0034574964 0.015823122 -0.039021496
-0.010851001 -0.013376945 -0.024568774 -0.05020962 -0.0031489653 -0.03775175 -0.009793118 0.01281833
-0.024672072 -0.0013099869 0.032555647 0.0031335058 -0.004461961 -0.041893404 0.025300039 -0.008652453
-0.014145627 0.03777797 -0.013297811 0.009175912 -0.017551865 -0.016716389 0.034506332 0.009250035
-0.045264333 0.024996927 0.03811766 0.028288666 0.02428145 -0.043346483 -0.03263557 0.017211538
00000000: 611b fabc 3056 c53c 7b48 ccbc 9da8 c5bc
00000010: c55f 36bd c0ae 99ba b111 00bc 62eb f53c
00000020: a281 dcbc aff2 f1bc cc7f ddbc a4d6 fb3c
00000030: 741d d43c c8b5 05bd d10c a2bc fbed 48bb
00000040: 5dd4 a83c 1c5e a63c a0fb 51bc f56c 723b
00000050: 8e1a 2f3b 5d2f 6ebc 4c08 22bd f7cb d93c
00000060: 7af1 6a3c d3c1 4ebc 123a d23b 93eb d7bc
00000070: 8a9a 623c a003 08bd 76f0 3c3d 5282 97bc
00000080: 6db4 65bc 7192 043b 9209 66bc 8432 503c
00000090: 4e5a 80bc 8374 2fbd 9c0b 9bbc 4246 233d
000000a0: 5c34 093d 438c d23c 353d 123d 1745 283d
000000b0: 5249 30bd 0ba7 713c 8ca6 30bd 6ced a03c
000000c0: afed 1e3d c94c 39bd aee1 fd3c 071b 18bd
000000d0: 6d91 fc3c f607 033c 0d11 c33c 3060 213c
000000e0: 28f0 e3bc b04e bfbc 286a 89bd 9e16 873c
000000f0: 2ea3 44bb 846d 863c 59bb d43c def8 e6bb
00000100: 92ac 9d3c 7eae b33c 0554 fabc cb11 2bbd
00000110: 3a35 cd3c 386a d7bc e9a2 883b 9926 fb3c
00000120: dfe1 3bbc 9add c23c 20fb 913b 54c2 01bb
00000130: 231b 113b 7736 243d 25d6 073d 5535 43bd
00000140: f090 403b 28a5 e9bb 0042 7fbc 95ef cebc
00000150: 8508 b73b 8265 e43d b804 233d 16c3 f3bc
00000160: 008e a7bb 0b13 253c aa7e 0f3c 2117 df3c
00000170: b07b 923c 8245 ea3c 795b 083d 0bf5 e8bc
00000180: 171a 413d 1cd1 0bbb c5b5 2fbd 4b68 d8bc
00000190: 55d3 b33c 619a aebb ccaf c0bb 987b ea3c
000001a0: 984d 49bd 1b30 15bd 1594 8d3c 6fc3 f7b8
000001b0: cb9b 213d 5115 673b 7dd8 31bd a108 143d
000001c0: 5ec7 9e3c 7507 48bd 7b47 85bc 84e8 20bc
000001d0: c154 ed3c f762 bd3c 71f9 8cbc 48ac 58bc
000001e0: 14d4 8ebc fca7 c7bc 168b 04bd b6b9 3b3c
000001f0: f140 1b3d 463f 29bd 1102 e6bc 8fe9 883c
00000200: 9c1b 38bc 0674 93bc 186b 98bb b0f5 7d3b
00000210: d887 12bd 2725 2cbd 99ec b6bc b447 063d
00000220: 8f60 0e3d 5d57 3dbd 806a a0bb 59b2 2dbc
00000230: b59c e33c eac7 a93c d4b9 bbbc 8540 073d
00000240: 9afc ff3c ee84 b3bc 9317 19bd 5dd5 f0bc
00000250: d0b5 26bb 64d8 32bd 8b23 eebb 586a 823b
00000260: 0d7f b1bc a544 29bd a16f 9bbc a3a3 70bc
00000270: 0010 3e3c f332 a73c 98c2 0dbd b79e 12bd
00000280: 6536 07bd 1b2b 993c 609e b73b 14aa d3bc
00000290: 49de 17bb dc9c 183d 456a a4bb 5981 163d
000002a0: a964 323d 1e6b 0c3d 0297 10bc 57c6 31bc
000002b0: 9c15 8f3c 7080 9d3c bce8 bc3b 9b3d b33c
000002c0: 0388 e7bc 3a7d 03bc f509 0d3d d14a 603c
000002d0: e2fd a83c 6ff1 f83c a6ee 99bc 68fe b33c
000002e0: fef8 7b3c 5baf 323c 7adb 833c 9ec6 553c
000002f0: ff3a 6ebc 2878 afbb 7a5b 9cbb e19e cc3c
00000300: 1deb c2bc a002 083c bf2d 9cbb 91b9 92bc
00000310: c794 e8bc 2020 0fbb d93e ea3c 5ee1 5cbd
00000320: 799d d23b d40a 8e3c 0714 083d 8f33 87bc
00000330: 3252 ec3c 524e 2e3c c90d 6d3b 053d 8bb9
00000340: e0f8 94bd 367f 81bc febf e5bc 4f03 98bc
00000350: 9395 283d 0f87 b23c 5ca3 533c 1a97 1dbd
00000360: 20b0 823c d915 843d eef6 cabc 3620 8e3c
00000370: 5cfe 083c 2a97 623b 7e9f 813c 01d5 1fbd
00000380: 66c8 31bc f92a 5bbc 7444 c9bc 9aa8 4dbd
00000390: df5e 4ebb 94a1 1abd 5073 20bc f903 523c
000003a0: 161d cabc deb3 abba 1259 053d 815b 4d3b
000003b0: a435 92bb 6b98 2bbd 0742 cf3c 05c3 0dbc
000003c0: 0fc3 67bc 13bd 1a3d 10df 59bc 9056 163c
000003d0: eec8 8fbc cff0 88bc 8356 0d3d 758d 173c
000003e0: 1867 39bd 5bc6 cc3c 4321 1c3d a2bd e73c
000003f0: e4e9 c63c 158c 31bd e0ac 05bd 36ff 8c3c

fc3.weight f4 [128, 256]
-0.009389722 0.0056933686 0.029906802 0.017578915 -0.0069326162 -0.049023062 -0.05597186 0.02038864
0.01185137 0.053106904 -0.057019148 0.004499361 -0.04862667 -0.033762544 -0.032837063 0.04363435
-0.03886465 0.04959011 0.028030813 0.044675983 0.006571956 -0.01630415 -0.06119041 -0.025660634
-0.033663422 0.023068875 0.009259037 0.044686444 0.025897779 0.044298127 -0.039712187 0.038239688
-0.022760905 0.005355321 -0.066657625 0.03073484 0.049530197 -0.049715757 0.010941334 -0.019018874
0.04295902 0.03145264 0.041058965 0.0011105239 -0.008606449 0.03607764 0.002654694 0.012378842
-0.0429279 -0.048901293 0.048150025 0.0425087 0.055704758 -0.028262377 -0.0007175803 0.028507859
-0.05950883 0.045821507 -0.042429056 0.052584857 -0.006879896 0.03168825 -0.03811243 -0.0031864643
-0.045385532 -0.045709543 -0.04379545 -0.02405554 -0.031340748 -0.049405716 0.01392214 0.010975964
-0.018012293 0.057357125 -0.030666776 -0.038286492 -0.04497758 -0.032340966 -0.015772697 -0.05042486
0.02488809 0.029154643 0.0055847513 -0.043899767 -0.026088335 -0.004363606 -0.03633149 0.041580975
-0.049675256 0.06082803 0.013734318 0.017631136 -0.028569764 -0.061339512 0.04445439 -0.00809025
-0.0270596 -0.024477439 -0.034198344 -0.036101624 0.03347949 -0.014323428 -0.06008494 0.023181953
-0.063483015 -0.022521924 0.015271327 0.0061068996 0.042815603 0.0011116862 0.062205084 0.041412294
-0.009565424 -0.031088846 -0.0005091727 -0.053044245 -0.007521552 -0.008616839 0.006320335 -0.045858197
-0.024139777 0.022154294 0.033134744 0.055342734 0.012975954 0.05705153 0.009176485 0.023066193
0.027661093 0.023408659 -0.054578334 0.03349574 -0.0076774284 -0.05917398 0.06210672 0.042432904
0.030125864 -0.04101537 0.008409282 -0.028765514 -0.051283054 -0.039152186 0.020548522 0.008702536
0.060872614 0.008239947 -0.057762526 -0.010345277 0.010790572 0.02510354 0.05317369 -0.033104956
-0.019580916 -0.06628196 -0.03443808 0.032561854 -0.05071055 0.0022038668 0.014882824 0.04714977
-0.048961826 0.03509596 0.0023690984 -0.02913148 -0.02701857 -0.027804092 -0.0016165749 -0.023665145
0.02465748 0.03990858 -0.023340672 -0.016569227 -0.065769516 -0.064234056 -0.027355006 -0.011376649
0.0033052117 -0.061972998 0.024935879 -0.060687475 0.027746774 -0.040831313 0.028687067 -0.016551927
0.05112929 -0.0108213425 -0.0060339347 0.061661184 -0.050244015 -0.052527554 0.036323637 0.025942259
0.022914998 -0.034465864 -0.026786484 0.035267815 0.052783415 -0.057275392 -0.034625627 -0.0046060546
-0.021804834 -0.0615353 0.052515276 -0.059388973 -0.04054357 0.060251504 0.03432291 -0.014734754
-0.02496554 0.007926084 -0.015876457 0.025596062 0.051552333 -0.041593127 -0.050691977 0.018870376
-0.054957952 0.04577702 0.041336823 -0.019975185 0.042493924 -0.054411106 0.015558717 0.042862788
0.021822633 -0.058171093 -0.0037926212 -0.027128167 0.04303757 -0.014382086 -0.03664676 -0.008950397
0.020818334 -0.031182438 -0.05760795 -0.039323192 -0.045628592 -0.058844693 0.030649513 -0.0109839365
0.02792953 0.022605516 0.012249025 -0.0075566336 0.02028849 -0.052425973 0.05121537 -0.0039873123
0.058393434 0.009018041 0.04918944 0.04283169 0.05106616 0.038591355 -0.061781935 -0.06839046
00000000: 59d7 19bc 708f ba3b 1cff f43c a801 903c
00000010: 002b e3bb 68cc 48bd c042 65bd 1406 a73c
00000020: 402c 423c a086 593d e98c 69bd 606f 933b
00000030: c22c 47bd 984a 0abd 2880 06bd efb9 323d
00000040: 8a30 1fbd 001f 4b3d e0a0 e53c 2afe 363d
00000050: 9059 d73b 4890 85bc cca2 7abd 4036 d2bc
00000060: a8e2 09bd f0fa bc3c 37b3 173c 2209 373d
00000070: 9427 d43c f471 353d 3fa9 22bd 38a1 1c3d
00000080: 1475 babc b07b af3b cb83 88bd a2c7 fb3c
00000090: 2de0 4a3d c0a2 4bbd 4843 333c 78cd 9bbc
000000a0: ccf5 2f3d 7cd4 003d 722d 283d 008f 913a
000000b0: 1002 0dbc 26c6 133d 60fa 2d3b a0d0 4a3c
000000c0: 2ad5 2fbd b94c 48bd f638 453d 9a1d 2e3d
000000d0: ac2a 643d 8086 e7bc 001c 3cba 5089 e93c
000000e0: 88bf 73bd 55af 3b3d 17ca 2dbd 3863 573d
000000f0: c070 e1bb 8acb 013d c81b 1cbd 00d4 50bb
00000100: 2ee6 39bd ee39 3bbd dc62 33bd 2010 c5bc
00000110: 285f 00bd a65d 4abd b019 643c 88d4 333c
00000120: 848e 93bc 4eef 6a3d e438 fbbc 4cd2 1cbd
00000130: 693a 38bd f677 04bd be35 81bc 4c8a 4ebd
00000140: 1ce2 cb3c b8d5 ee3c 4a00 b73b 3ed0 33bd
00000150: 34b7 d5bc 95fc 8ebb 54d0 14bd d050 2a3d
00000160: 4878 4bbd d026 793d e805 613c 2c6f 903c
00000170: 230b eabc 243f 7bbd ce15 363d f88c 04bc
00000180: 18ac ddbc e984 c8bc 9013 0cbd 4cdf 13bd
00000190: ca21 093d d0ac 6abc a01b 76bd 14e8 bd3c
000001a0: 6203 82bd e67f b8bc 9734 7a3c 631c c83b
000001b0: 6a5f 2f3d 00b6 913a c2ca 7e3d f09f 293d
000001c0: 4cb8 1cbc 09ae febc 007a 05ba ec44 59bd
000001d0: 5a77 f6bb a42d 0dbc d01a cf3b ced5 3bbd
000001e0: c8c0 c5bc ec7c b53c 4cb8 073d 10af 623d
000001f0: 1999 543c ddae 693d f858 163c 50f5 bc3c
00000200: 8499 e23c 84c3 bf3c 888d 5fbd d432 093d
00000210: f092 fbbb 6a60 72bd 9e63 7e3d 20ce 2d3d
00000220: 84ca f63c bcff 27bd 16c7 093c a8a5 ebbc
00000230: 2e0e 52bd 0b5e 20bd 6055 a83c 1595 0e3c
00000240: 9055 793d d800 073c 6698 6cbd 3d7f 29bc
00000250: f0ca 303c f0a5 cd3c a8cc 593d 1099 07bd
00000260: 2868 a0bc d6be 87bd f20e 0dbd 945f 053d
00000270: deb5 4fbd c06e 103b 17d7 733c 1e20 413d
00000280: 328c 48bd c8c0 0f3d e042 1b3b 24a5 eebc
00000290: 0c56 ddbc 68c5 e3bc 41e3 d3ba 68dd c1bc
000002a0: 7cfe c93c 2e77 233d f034 bfbc 30bc 87bc
000002b0: 2bb2 86bd 258d 83bd 9b17 e0bc 2065 3abc
000002c0: 409c 583b 66d7 7dbd 5446 cc3c 6e93 78bd
000002d0: 344d e33c bc3e 27bd 2401 eb3c e897 87bc
000002e0: f26c 513d 004c 31bc 50b8 c5bb 7090 7c3d
000002f0: abcc 4dbd 2227 57bd 18c8 143d dc84 d43c
00000300: 3cb8 bb3c 142c 0dbd 546f dbbc fc74 103d
00000310: 6c33 583d 9a99 6abd 9ad3 0dbd 63ee 96bb
00000320: 0da0 b2bc 700c 7cbd 421a 573d da41 73bd
00000330: 0411 26bd 48ca 763d 2e96 0c3d 0a6a 71bc
00000340: 8884 ccbc 68dc 013c 580f 82bc d5ae d13c
00000350: 8a28 533d 8e5d 2abd 64a2 4fbd 0c96 9a3c
00000360: 971b 61bd af80 3b3d cd50 293d 00a3 a3bc
00000370: 1c0e 2e3d 2ede 5ebd fde9 7e3c e490 2f3d
00000380: 61c5 b23c d044 6ebd a08d 78bb e43b debc
00000390: 2a48 303d d7a2 6bbc ea1a 16bd b0a4 12bc
000003a0: 368b aa3c 5072 ffbc 50f6 6bbd 5b11 21bd
000003b0: 0ce5 3abd 2207 71bd b014 fb3c f8f5 33bc
000003c0: 78cc e43c 342f b93c 22b0 483c a39d f7bb
000003d0: 0c34 a63c 9ebc 56bd 35c7 513d 00a8 82bb
000003e0: f42d 6f3d 68c0 133c de7a 493d 4870 2f3d
000003f0: c02a 513d f811 1e3d 0e0f 7dbd 4c10 8cbd

fc3.bias f4 [128]
0.03333463 -0.061689872 0.022635758 0.0004866836 -0.02628649 0.03444355 0.05286399 -0.07314064
0.019524712 -0.027242078 0.0318011 0.019489259 -0.06904223 0.043710332 -0.0693287 0.03389436
-0.069433 0.108437546 0.05578027 -0.056933388 0.04513554 0.044757273 -0.035739254 -0.039859097
0.082655855 0.04873739 -0.021761512 -0.07746565 -0.04733948 -0.010627237 -0.0034434013 -0.011193516
-0.04006628 -0.006000523 0.00074636703 0.034277216 0.034844022 0.02974133 -0.037811093 -0.0255189
-0.05179841 -0.058575418 0.037090845 -0.035490923 -0.03958856 -0.063180745 0.01241704 0.0033531978
0.029554382 -0.0023361817 -0.026209982 -0.13262348 -0.01789873 0.1239103 0.05330137 0.016252188
-0.063855484 -0.0012572607 -0.035965133 -0.106374495 0.04294678 -0.08608066 0.05086697 -0.04534867
0.074202575 -0.061225425 0.036759384 -0.07124545 -0.05451968 -0.03642298 -0.04729488 -0.045951467
-0.040793065 0.10296776 0.10955342 -0.009709605 0.1489313 -0.015756631 -0.06550438 0.060258918
0.01712656 -0.04693484 -0.06620321 -0.02414976 -0.016501373 0.012658051 -0.040910862 -0.072436556
0.044886664 -0.01951411 -0.10980598 -0.038129516 0.029543173 -0.051658418 0.047035746 0.07005048
-0.010361757 -0.004520304 -0.04625497 0.003878269 -0.060054503 -0.087306276 -0.0129033495 0.11811841
-0.06591501 -0.04247171 0.06252114 0.027527561 0.014810395 0.1258348 -0.0068328325 -0.02431021
-0.10814366 0.047595046 -0.060311936 -0.06425163 -0.0737527 0.0821473 0.016663015 0.014439117
-0.0370605 0.035647057 0.14086823 0.00477191 -0.03907078 0.033289663 -0.04882285 0.05892729
00000000: e589 083d 85ae 7cbd a06e b93c 9129 ff39
00000010: c456 d7bc ae14 0d3d e987 583d c3ca 95bd
00000020: 4af2 9f3c c72a dfbc df41 023d f0a7 9f3c
00000030: 0366 8dbd 9b09 333d 35fc 8dbd d0d4 0a3d
00000040: e432 8ebd 8114 de3d da79 643d fc32 69bd
00000050: 0be0 383d 6753 373d 5363 12bd 4b43 23bd
00000060: 7947 a93d dca0 473d 3345 b2bc 50a6 9ebd
00000070: 0be7 41bd dd1d 2ebc b0aa 61bb 0265 37bc
00000080: 8a1c 24bd 09a0 c4bb d8a7 433a 4466 0c3d
00000090: 9bb8 0e3d 17a4 f33c cedf 1abd 030d d1bc
000000a0: 922a 54bd c7ec 6fbd 92ec 173d ee5e 11bd
000000b0: 9d27 22bd e864 81bd d770 4b3c 53c1 5b3b
000000c0: 081c f23c a01a 19bb 51b6 d6bc 73ce 07be
000000d0: 5ba0 92bc afc4 fd3d 8a52 5a3d 4f23 853c
000000e0: aac6 82bd abca a4ba 2d50 13bd dfda d9bd
000000f0: f6e8 2f3d 0f4b b0bd e259 503d 87bf 39bd
00000100: 85f7 973d 83c7 7abd 0291 163d 22e9 91bd
00000110: 0750 5fbd 4330 15bd 47b8 41bd 9b37 3cbd
00000120: a116 27bd c3e0 d23d 8b5d e03d 0915 1fbc
00000130: 7281 183e 0d14 81bc 2927 86bd 0ed2 763d
00000140: 004d 8c3c bf3e 40bd 8c95 87bd b8d5 c5bc
00000150: e32d 87bc b763 4f3c 2692 27bd 9e59 94bd
00000160: 14db 373d 0edc 9fbc f5e1 e0bd b22d 1cbd
00000170: 8604 f23c c797 53bd 8ea8 403d a076 8f3d
00000180: 5cc4 29bc 0f1f 94bb da75 3dbd 8f2a 7e3b
00000190: b6fb 75bd a2cd b2bd 9268 53bc 11e8 f13d
000001a0: 73fe 86bd d1f6 2dbd 150b 803d 7b81 e13c
000001b0: 4da7 723c d6da 003e f4e5 dfbb 3526 c7bc
000001c0: 6c7a ddbd 06f3 423d a609 77bd 5c96 83bd
000001d0: a80b 97bd d83c a83d e080 883c 0c92 6c3c
000001e0: c0cc 17bd a602 123d c33f 103e af5d 9c3b
000001f0: af08 20bd be5a 083d 78fa 47bd be5d 713d

out.weight f4 [7, 128]
0.043327216 0.0508187 -0.060993366 -0.023712806 0.025198355 -0.0040066466 0.77496886 -0.26891944
0.053010084 0.37648955 0.13224311 -0.06518836 -0.27842805 -0.2415838 0.0359949 -0.06988847
-0.5460001 0.071010455 0.17004706 -0.0666436 0.02100981 0.1046591 0.026636131 0.0044696494
0.36487216 0.11813537 -0.25353247 0.009332015 -0.08876422 0.15888025 -0.16668352 0.8429519
-0.008157276 -0.021467974 0.043927565 -0.0049288813 0.31279457 0.040232487 -0.044261064 0.06186326
-0.022775134 0.00028005158 0.10516144 0.029989304 0.047193374 -0.37673017 0.106759205 0.058622997
-0.032752994 -0.03972999 0.009862795 -0.029235952 -0.0058274046 0.08178127 0.064147316 -0.00095166935
-0.035986867 0.022400841 0.06325235 0.24983068 0.076851174 0.052830044 -0.0104051605 -0.056580987
0.42221683 0.0006479452 0.009390235 -0.06782628 -0.023827033 -0.009987264 0.06554546 -0.17914203
-0.05395095 0.5393387 0.11703291 -0.4687587 0.06810741 -0.027009547 -0.06813835 0.088948704
0.049228813 -0.30479392 0.5666488 -0.055837575 -0.120200545 0.07042975 -0.30693913 -0.45432785
0.021658123 -0.13001709 -0.044742547 0.061973043 -0.050485805 0.04636567 -0.051913504 0.13378987
-0.0244587 -0.100543536 0.005869641 -0.014121786 -0.06481268 -0.2687687 -0.60695267 0.12922898
-0.05115463 0.07036178 0.103625305 -0.55774754 0.084818386 0.24192277 0.0514521 0.20293026
-0.09733893 0.008492908 -0.051123485 -0.018147243 -0.010368125 0.12689494 -0.052141897 0.09122714
-0.23723635 0.080711156 0.41760835 0.48012206 -0.26317918 0.09784995 -0.012777421 -0.0009614527
0.07341364 -0.018478753 -0.047426887 0.047674485 0.087827764 -0.05606065 0.6475369 -0.18116355
0.08130918 0.5182607 0.20873998 -0.051843014 -0.41373006 -0.32920346 0.034335695 -0.018547393
-0.3230691 0.11451176 0.12929326 0.025915705 0.010427855 0.14996502 0.0015951548 0.026337555
0.2568345 0.041555457 -0.28982708 -0.053693265 -0.1030103 0.13997059 -0.12591152 0.76927876
-0.026001075 -0.029495653 -0.026337856 -0.06603847 0.3149456 0.042403765 -0.048445195 0.17930081
-0.02799086 -0.03874084 0.13150932 0.0973075 -0.056935683 -0.111177325 0.09670792 0.053997237
-0.07721373 0.07987014 -0.06662887 0.040191323 -0.06675224 0.1330607 -0.00428313 -0.0395739
0.05233936 -0.010837931 -0.006082445 0.26335275 0.058154125 0.11477917 0.054241978 -0.055870954
0.29804453 -0.00391102 -0.067314595 0.038433 -0.009947323 -0.011304614 0.038219232 -0.14427193
-0.036976412 0.5084703 0.07539884 -0.42328948 0.09190225 -0.038194213 0.010802681 -0.04591047
-0.03638434 -0.3381149 0.38982627 -0.086235434 -0.20043743 0.08328031 -0.3206464 -0.42849788
0.00026115277 -0.11895283 -0.021841956 -0.008533317 0.085909545 0.0045026536 0.07457771 0.110153995
-0.06641002 -0.028562235 0.003190383 0.042632762 -0.038589083 -0.1841816 -0.720628 0.07062446
0.031927336 -0.067817606 0.057328437 -0.48618522 0.13967781 0.29491258 0.058490362 0.040056262
-0.16609374 -0.017352894 0.06958946 0.04981973 0.011019379 0.13534844 -0.00062331127 0.101229995
-0.3466776 0.25416285 0.45530322 0.51548105 -0.30654186 0.11920442 0.00015831021 0.026615545
00000000: e177 313d 4527 503d 2ed4 79bd 5c41 c2bc
00000010: c86c ce3c 304a 83bb 5c64 463f cfaf 89be
00000020: 1a21 593d 3dc3 c03e bd6a 073e 7a81 85bd
00000030: 1f8e 8ebe be61 77be 636f 133d b021 8fbd
00000040: aac6 0bbf ee6d 913d d120 2e3e 717c 88bd
00000050: c41c ac3c 8357 d63d 0434 da3c 2376 923b
00000060: 86d0 ba3e f5f0 f13d 02cf 81be 4fe5 183c
00000070: 04ca b5bd 81b1 223e 16af 2abe b2cb 573f
00000080: 18a6 05bc 9bdd afbc 64ed 333d 7482 a1bb
00000090: 9c26 a03e d2ca 243d 174b 35bd 5464 7d3d
000000a0: eb92 babc e3d3 9239 e25e d73d 21ac f53c
000000b0: d74d 413d c7e2 c0be 92a4 da3d ab1e 703d
000000c0: 0128 06bd eabb 22bd 8f97 213c 3c80 efbc
000000d0: d0f3 bebb f07c a73d ab5f 833d 7379 79ba
000000e0: f766 13bd f881 b73c 738a 813d 9dd3 7f3e
000000f0: 2664 9d3d 5164 583d 687a 2abc 77c1 67bd
00000100: ce2c d83e deda 293a 80d9 193c 81e8 8abd
00000110: e930 c3bc 9fa1 23bc b33c 863d 0271 37be
00000120: acfb 5cbd 1a12 0a3f f3ae ef3d 2401 f0be
00000130: e67b 8b3d 2043 ddbc 1f8c 8bbd bd2a b63d
00000140: 27a4 493d f30d 9cbe e50f 113f f1b5 64bd
00000150: b42b f6bd 793d 903d 2027 9dbe a99d e8be
00000160: 606c b13c 3323 05be f643 37bd 72d7 7d3d
00000170: 34ca 4ebd eee9 3d3d 41a3 54bd 3600 093e
00000180: 9d5d c8bc c5e9 cdbd 1e56 c03b 105f 67bc
00000190: 83bc 84bd 0d9c 89be 4061 1bbf 9a54 043e
000001a0: 8487 51bd d619 903d 8139 d43d 8bc8 0ebf
000001b0: 43b5 ad3d 9aba 773e 70bf 523d f3cc 4f3e
000001c0: a259 c7bd d725 0b3c dc66 51bd 87a9 94bc
000001d0: 11df 29bc bff0 013e be92 55bd 4bd5 ba3d
000001e0: 16ee 72be e44b a53d c3d0 d53e 8fd2 f53e
000001f0: 6cbf 86be 8e65 c83d 6358 51bc 000a 7cba
00000200: e459 963d c160 97bc b242 42bd 5246 433d
00000210: 0bdf b33d da9f 65bd fac4 253f f082 39be
00000220: 6d85 a63d bcac 043f efbf 553e 5759 54bd
00000230: 6dd4 d3be 5b8d a8be 96a3 0c3d b4f0 97bc
00000240: 5069 a5be 2485 ea3d 7465 043e 2c4d d43c
00000250: 98d9 2a3c 6e90 193e 8314 d13a dbc1 d73c
00000260: d07f 833e 0e36 2a3d 3764 94be 78ed 5bbd
00000270: 10f7 d2bd 7354 0f3e f3ee 00be 74ef 443f
00000280: 3500 d5bc dea0 f1bc 7dc2 d7bc 2d3f 87bd
00000290: 8d40 a13e 92af 2d3d 786e 46bd a29a 373e
000002a0: 174d e5bc b7ae 1ebd 61aa 063e 2849 c73d
000002b0: 6435 69bd f0b0 e3bd cd0e c63d 352c 5d3d
000002c0: 3b22 9ebd f592 a33d b874 88bd a89f 243d
000002d0: 66b5 88bd 1041 083e 8059 8cbb 3e18 22bd
000002e0: cc61 563d 9491 31bc 3f4f c7bb 2cd6 863e
000002f0: 0533 6e3d 5711 eb3d d62c 5e3d f1d8 64bd
00000300: 4b99 983e 0328 80bb 3cdc 89bd ec6b 1d3d
00000310: 19fa 22bc fd36 39bc c58b 1c3d 05bc 13be
00000320: 9474 17bd 1c2b 023f b56a 9a3d 66b9 d8be
00000330: 3f37 bc3d 8971 1cbd bafd 303c 9e0c 3cbd
00000340: bf07 15bd 651d adbe 4f97 c73e 349c b0bd
00000350: 783f 4dbe de8e aa3d c42b a4be 1364 dbbe
00000360: 55eb 8839 8b9d f3bd e7ed b2bc 53cf 0bbc
00000370: 58f1 af3d ff8a 933b 33bc 983d 6b98 e13d
00000380: fa01 88bd 59fb e9bc bf15 513b b19f 2e3d
00000390: 960f 1ebd 1a9a 3cbe 147b 38bf 8fa3 903d
000003a0: 3dc6 023d f5e3 8abd 39d1 6a3d 45ed f8be
000003b0: b307 0f3e c8fe 963e 9793 6f3d 0912 243d
000003c0: 7a14 2abe a827 8ebc eb84 8e3d c60f 4c3d
000003d0: a08a 343c c898 0a3e b665 23ba ac51 cf3d
000003e0: ba7f b1be a221 823e 811d e93e 91f6 033f
000003f0: 0ef3 9cbe 7221 f43d 1300 2639 d808 da3c

out.bias f4 [7]
0.008036724 0.0076142037 0.0763719 -0.01909658 0.19597371 0.13266553 0.2180856
00000000: 77ac 033c 9280 f93b df68 9c3d 6e70 9cbc
00000010: 55ad 483e 79d9 073e d551 5f3e
