trained_models/dqn_shooter_50.pt (torch, 686292 bytes, 8 tensors)

fc1.weight f4 [512, 10]
000000 c0 39 09 bd 9a 8a 7e 3e 17 6b 9f 3e 4c 5d 8f bd
       -0.03350234 0.2485756 0.3113639 -0.07000217
000010 d0 f9 b9 bd 25 67 83 3e 2c 2a 0b be 56 f6 2b 3e
       -0.09080851 0.2566463 -0.13590306 0.16793188
000020 32 ca 05 be 51 d5 01 be 8f 99 ae be d4 1e 8a 3e
       -0.13065413 -0.1267903 -0.3410153 0.26976645
000030 48 90 9d be 8e d0 00 3d f5 80 69 be 75 f5 26 3e
       -0.3077414 0.031448893 -0.228031 0.16304572
000040 64 d2 15 3e a7 f7 b6 3e 2a 0f 09 3e d5 b0 fe 3c
       0.14631039 0.3573582 0.13384691 0.03109018
000050 c2 46 73 bd c6 8f 29 be a1 7e b0 be 10 c4 25 3d
       -0.05939365 -0.16558751 -0.3447161 0.040470183
000060 a7 92 47 be 0d 0e 72 3d ce 3f 8a 3c ac 88 6a be
       -0.19489537 0.05909543 0.016876128 -0.22903699
000070 f4 0d 8c 3e 2e f8 67 bd 80 41 a7 bd 9c 6f eb 3d
       0.27354395 -0.056633167 -0.0816679 0.11495897
000080 40 08 68 bc 4c d9 8e be e0 56 a4 3d 6b 12 6e be
       -0.014162123 -0.2790016 0.080243826 -0.23249213
000090 f8 eb 10 3e 80 ab 2e 3d 48 56 58 bd da f2 22 3e
       0.14152515 0.042644024 -0.05281666 0.15912953
0000a0 26 d1 2b be 0c fd 3f bd c0 23 ad be 50 42 57 3e
       -0.16779003 -0.046872184 -0.33816338 0.2102139
0000b0 6a 96 e3 ba 5c 22 ab 3e 3d 3e d7 3d 82 72 43 3e
       -0.0017363552 0.33424652 0.10509918 0.1908665
0000c0 0e f2 1a 3e e1 c8 78 be 98 b4 2e 3d 01 9a 9a be
       0.15131399 -0.24295379 0.042652696 -0.3019562
0000d0 79 8d 43 be 27 fb 8c be 28 d8 6a be 48 43 a2 bd
       -0.19096936 -0.27535364 -0.2293402 -0.07922989
0000e0 84 72 84 be ab 76 72 be ea 83 44 be fe 7a 49 3e
       -0.25868618 -0.2367808 -0.19190946 0.19675824
0000f0 70 e0 34 3d 80 ab 50 3b 77 4d 94 be 54 21 22 be
       0.044159353 0.0031840503 -0.2896535 -0.15833026
000100 5b db a0 3e 37 43 95 3e 92 a3 5e 3e a0 66 53 be
       0.31417355 0.29152843 0.21742085 -0.20644617
000110 40 8a af 3c b2 1b 64 be ac 6d ff 3d b1 7b 97 3e
       0.021428227 -0.2227619 0.1247209 0.29586557
000120 a8 c1 62 3d ca b2 0e be 80 97 b4 3c f7 c3 83 be
       0.055360466 -0.1393539 0.022044897 -0.25735447
000130 10 3e 67 bd e0 cf da 3d 50 e2 39 bd 3e df 7e be
       -0.05645567 0.1068418 -0.045381844 -0.24889848
000140 a1 d9 73 be 0c bb ef bc 7d cb 85 3e ef 34 f4 3d
       -0.23813488 -0.029263996 0.26131812 0.11924159
000150 e4 53 fc bc 1d 2c 21 3f fc 32 5e 3e 04 31 2e 3e
       -0.03080172 0.62957937 0.21699136 0.17010885
000160 02 22 2e 3e 52 1f 5b be 68 9c 52 3e 39 d4 68 3d
       0.1700516 -0.21398667 0.20567477 0.056843016
000170 7d e7 45 be fb a2 ad 3d d1 1b 63 3d 8f 5f 1a 3e
       -0.19326587 0.08478352 0.05544645 0.15075515
000180 db fa 98 bd 0d 06 8a be b5 6b 0b 3e ed e3 b4 bd
       -0.07469722 -0.2695774 0.13615306 -0.08832536
000190 8f 24 95 be 7a 74 4a be 3e 2a 17 be 14 8c 14 be
       -0.29129454 -0.19770995 -0.14762208 -0.1450656
0001a0 dc 6a 08 3e 9d 4e a0 3e 38 d5 24 3e a4 cc 28 3e
       0.13322014 0.31309977 0.16096961 0.16484314
0001b0 a3 23 38 be 08 a1 16 3e e8 ca cf bd f8 e9 32 3d
       -0.17982344 0.14709866 -0.10146123 0.04368016
0001c0 8f 0b 58 3d f7 87 9e 3d bd 4b 54 be c0 04 ca 39
       0.052745398 0.07740777 -0.20732017 0.0003853198
0001d0 43 26 eb 3d 44 f0 cd 3d 7f f4 62 3d 07 e6 76 3d
       0.11481907 0.10055593 0.05540895 0.060277965
0001e0 b8 7a 9e bd 58 77 31 3d 81 22 15 be 1a f6 da bd
       -0.077382505 0.043326706 -0.14563943 -0.106914714
0001f0 c0 02 9c bc 8e 1d 8b bd f4 64 f8 bd 38 3e 40 be
       -0.01904428 -0.067927465 -0.1212863 -0.18773735
000200 3a f5 91 be 58 26 24 3e ab cc 92 3e ce 7a 8b be
       -0.28507406 0.16030252 0.28671774 -0.2724213
000210 58 f8 2f 3e fd b2 9a be 80 05 9a bc 8a da 92 bd
       0.1718458 -0.30214682 -0.01880145 -0.07170589
000220 4f d0 42 be e0 3a 36 3c 84 56 a3 3d d2 33 75 3e
       -0.19024776 0.011122435 0.07975486 0.23945549
000230 bf 37 70 3e f2 a9 f8 bd 69 53 ee 3d 3b b9 2b 3e
       0.23458765 -0.121417895 0.11637003 0.16769879
000240 05 2c 34 be 14 26 11 3f 03 d3 81 3e 6f fe 9f 3d
       -0.17594917 0.5669873 0.25356302 0.07812201
000250 bc 3d 36 3c b5 e6 7d 3d f4 74 bb 3d a0 0f 0e 3e
       0.011123117 0.061987597 0.091531664 0.13873148
000260 78 c8 27 3d 9d e5 43 be 71 81 94 3e f2 70 6b 3e
       0.040962666 -0.1913056 0.29005006 0.22992304
000270 c0 8c d0 3c e6 7e 0c 3e f0 e9 02 3d 80 72 6b 3d
       0.02545774 0.13720283 0.03196138 0.057482243
000280 38 82 a6 3c 25 f1 5d 3e 17 49 bc bd 1c b6 5d 3e
       0.020325765 0.2167402 -0.09193628 0.216515
000290 cd 23 6e be d7 4e f4 3e 1a eb 6b 3e a7 b9 34 be
       -0.23255844 0.477164 0.23038903 -0.17648946
0002a0 19 c6 cb 3d 81 6e d9 bd 95 9d 80 3e a1 5d 12 be
       0.099498935 -0.1061678 0.25120226 -0.14293529
0002b0 5f 63 64 be 9e 68 79 be 5f b2 24 be d3 77 96 3e
       -0.22303532 -0.24356315 -0.16083668 0.29388294
0002c0 70 69 f1 bd 68 ee 83 3d 94 e6 37 be 13 c6 a1 be
       -0.11787689 0.06441957 -0.17959052 -0.3159643
0002d0 5e e0 52 be 5a 9f bf 3d 8c 74 8e be 5d d0 46 3d
       -0.20593402 0.09356566 -0.27823293 0.048538554
0002e0 d4 a3 dc bd 6b 41 76 3e 03 e6 11 be 97 9a 56 3d
       -0.10773435 0.24048392 -0.14247899 0.052393522
0002f0 0f cd 6e be 40 b6 b8 3d f9 93 63 3c 8e 6b 6d 3e
       -0.23320411 0.090191364 0.01389026 0.2318556
000300 89 c7 e1 3d d5 2b 93 3e 4c 02 82 3e 06 7b 21 3e
       0.110243864 0.2874438 0.25392377 0.15769586
000310 04 f1 b2 3e 79 75 0c bd a9 c8 41 3e df 32 40 be
       0.34949505 -0.03429172 0.18924202 -0.18769406
000320 4f 61 a4 3e ef 25 f8 3d 49 0a ec bd af ce 5f bd
       0.3210549 0.1211661 -0.11525399 -0.05464047
000330 5c e3 89 be dc d9 96 3d f3 07 3f bc df 5f 43 bd
       -0.26931274 0.07365772 -0.01165961 -0.04769885
000340 a7 0f 15 be 3b a8 13 3e 9d 87 88 be b0 96 16 bd
       -0.14556752 0.14419644 -0.26665965 -0.0367648
000350 aa 2e 53 be 9c a6 83 bd fc 8b 93 be 97 19 81 be
       -0.2062327 -0.064282626 -0.28817737 -0.25214836
000360 91 d3 83 be 41 c1 86 3e a0 2b 44 bd a6 37 99 be
       -0.2574735 0.26319316 -0.047893167 -0.2992527
000370 b9 ac 6d be e8 ba 9d 3d 54 42 bd 3d 60 27 a4 bc
       -0.2321042 0.07701665 0.09241167 -0.020038307
000380 a6 1d 9c be e6 8e 7e 3e b0 4d 10 bd b6 5c 70 3e
       -0.3049137 0.24859199 -0.03523034 0.23472866
000390 01 f1 84 3e 4a b1 70 be b4 4c 8a 3e f2 ca 3f 3e
       0.2596512 -0.2350513 0.27011645 0.18729761
0003a0 ff 4f 74 3e 99 82 36 ba 81 80 0e be 0a 51 83 bf
       0.23858641 -0.00069622096 -0.13916208 -1.0259106
0003b0 16 f7 2a bf 15 98 67 be 1c e6 7e be db 6f 56 3e
       -0.66783273 -0.22616608 -0.24892467 0.20941107
0003c0 26 52 ad be 5c 8b db 3d 5a 00 c5 3b a0 76 79 3e
       -0.33851737 0.1071994 0.006012005 0.24361658
0003d0 44 91 27 3d cd 11 7b 3d ed c6 36 3e 16 4d a1 be
       0.04091002 0.061296273 0.17849322 -0.31504124
0003e0 51 84 4d be 2a cc b3 be a7 ee 92 3c aa 13 3b 3e
       -0.20070006 -0.35116702 0.017936064 0.1826922
0003f0 f0 98 78 3e 5a 0d 29 3e a7 48 cd bd 7b fb cd be
       0.24277091 0.16509 -0.10023623 -0.40230927

fc1.bias f4 [512]
000000 a5 1c 85 be 97 d9 15 bc e1 b2 43 be d1 c3 8f 3e
       -0.25998417 -0.009146116 -0.19111206 0.28079084
000010 6b c3 ae bd f4 4a 99 3d ce c1 b7 bd e0 f6 e5 3c
       -0.08533367 0.07484999 -0.08972512 0.02807182
000020 d0 6c 9a 3e 7e 37 62 bd 78 db 76 bd a8 48 6c be
       0.30161142 -0.055228703 -0.060267895 -0.23074591
000030 8e 73 22 3e a4 2a f7 3d ea 26 84 be 40 b5 80 be
       0.15864393 0.1206868 -0.2581094 -0.25138283
000040 b0 cc 9c be d4 2a 02 3e 5e 17 ac be 50 1f 63 3e
       -0.30624914 0.1271165 -0.33611578 0.22179914
000050 6f 4b 65 3e 38 5b 1d be e5 57 08 be 21 e2 50 3e
       0.22392057 -0.15366828 -0.13314779 0.20398761
000060 06 31 4b be c8 9e 30 3e 66 06 4d be 48 27 8f 3e
       -0.1984292 0.1724807 -0.20021972 0.27959657
000070 c3 7f 3d be 2d 19 8f 3e 50 00 c0 3c e1 a6 0f be
       -0.18505768 0.27948895 0.023437649 -0.14028503
000080 80 ac 20 bd 98 71 5b be b8 50 b0 bd 6b 0e 41 be
       -0.03922701 -0.21430051 -0.08609146 -0.18853156
000090 46 70 76 3e c7 b8 21 3e 47 ed 61 3e 94 03 f5 3d
       0.24066266 0.15793143 0.2206317 0.11963573
0000a0 fa 7f 86 bd 46 ce 85 bd 40 6a b7 bd 34 fc 69 be
       -0.06567378 -0.06533484 -0.089558125 -0.22850114
0000b0 3e 09 77 3e 73 f8 2a 3e ac 65 54 be 6a ad 2d 3e
       0.2412462 0.16696338 -0.2074191 0.16960683
0000c0 62 e1 76 3e 72 fb 4d bc ec dc 1d 3e 05 68 8a be
       0.24109414 -0.012572156 0.15416306 -0.27032486
0000d0 3e 3f fc 3d 28 c7 2d 3d 64 36 1d 3e c0 58 0d be
       0.1231675 0.04242626 0.1535278 -0.13803387
0000e0 00 a1 7d bc a9 45 91 3d 60 d5 6c bd a7 8b 71 bd
       -0.01548028 0.07093365 -0.057820678 -0.058971073
0000f0 26 32 48 3e 1a 52 2d 3e aa ee d6 bd 4f d9 ef bd
       0.1955038 0.1692585 -0.1049474 -0.1171137
000100 c7 51 6e 3e 7a 97 7b 3e 2a 6c 71 3e 62 c3 bc 3d
       0.23273383 0.24569502 0.23576418 0.09216954
000110 32 a1 85 be d2 ec 7f 3e b3 9c 97 be 60 bb 50 3d
       -0.26099545 0.24992684 -0.2961174 0.050959945
000120 40 62 e3 3c 40 90 1d be 0b 09 21 bd 4f e9 a8 bd
       0.02775681 -0.15387058 -0.039315265 -0.08247625
000130 8f 76 5f be 5f c2 85 be d4 ea ed 3d e8 f3 1e 3d
       -0.2182257 -0.26124856 0.116170555 0.038806826
000140 f8 7c 10 3d 9f 9d a7 be 94 72 f6 bd 20 a6 32 bd
       0.03527543 -0.32737443 -0.12033573 -0.04361546
000150 5e 5a 32 3e f9 68 0c be ea 81 83 be b4 75 3d bc
       0.17417285 -0.13711919 -0.25685054 -0.011563707
000160 1f ad 0f be c0 fb 4e bd c2 7a b5 bd c0 8e 31 3c
       -0.14030884 -0.050533056 -0.08861305 0.010837257
000170 73 af 4c 3e be 08 dc bd 58 76 92 3e c7 31 05 be
       0.19988804 -0.10743855 0.28605914 -0.1300727
000180 f4 86 12 bd 72 ac 6c 3e a3 98 52 be e0 d0 8e be
       -0.035773233 0.23112658 -0.20566039 -0.27893734
000190 26 eb 4b 3e 4e 7f 8b 3d 60 4a 4d bd 83 b1 4a 3e
       0.19913921 0.06811391 -0.050119758 0.19794278
0001a0 da ba 01 3e f6 a0 8a 3e bf b6 8d 3e eb 39 10 3e
       0.12668934 0.27075928 0.27678487 0.14084594
0001b0 e7 22 ec 3d 08 ee 0c bd 24 58 28 be f8 64 75 bd
       0.115300946 -0.03440669 -0.16439873 -0.059910744
0001c0 23 65 7a be 02 4c 49 3c b5 e6 93 be 72 4c 7c be
       -0.24452643 0.012286188 -0.28886953 -0.24638537
0001d0 54 d5 55 3e 0b 50 44 3e 8b ab 84 3e 52 9e 67 3e
       0.2088216 0.19171159 0.25912127 0.22618988
0001e0 d1 4e 4e bc 7d 37 39 be 90 9b 9a be a4 32 3b 3e
       -0.0125920335 -0.18087573 -0.3019681 0.18281037
0001f0 f4 69 89 be 30 52 99 3d aa 17 5e 3e 5c a5 1d 3d
       -0.26838648 0.07486379 0.21688715 0.038487777
000200 47 ac 57 be d5 8a 70 b9 a2 85 4d 3e 08 d8 a5 bd
       -0.21061812 -0.00022939903 0.20070508 -0.08097845
000210 68 05 e9 bd 84 e0 8f bd 23 97 b4 3d 98 d8 a2 be
       -0.11377984 -0.07025245 0.088178895 -0.31805873
000220 1a 6a 3a 3e 43 06 64 bd 86 52 a3 be 19 ee 85 bd
       0.18204537 -0.055670034 -0.31898898 -0.06539554
000230 7c e6 17 bd dd f3 85 3d 23 36 3d 3e cd 30 99 3e
       -0.03708504 0.06540654 0.18477683 0.29920045
000240 cd 7e 79 be 20 c1 0f 3e cb da 1b 3e af a1 1b be
       -0.24364777 0.14038515 0.15220182 -0.15198396
000250 15 c7 75 3e c2 6b 2a be 08 92 f4 bd 4f 7f 13 be
       0.24001725 -0.16642669 -0.11941916 -0.14404033
000260 8c 87 75 be 9a 3b 8f be 43 68 de bd de dc 67 3e
       -0.23977488 -0.2797516 -0.1085973 0.22642848
000270 b0 56 af 3c 94 21 a5 3d c6 1b 30 3e 1f 3b 92 3e
       0.02140364 0.08063045 0.17198095 0.2856073
000280 80 d3 95 be ba 9d f8 3d 20 fa 5a bc 80 9f 40 be
       -0.29262924 0.12139459 -0.0133652985 -0.18810844
000290 2e e5 8f be ce 19 72 3c 88 ca 32 bd 1c 88 94 3e
       -0.28104538 0.01477666 -0.04365018 0.29010093
0002a0 4f af 2c be 84 af 80 be c5 a4 37 3e 51 f9 6a 3e
       -0.1686375 -0.25133908 0.17933948 0.22946669
0002b0 cd 15 68 be 0c 3e d9 bd cf 93 e9 3c e0 ce 43 3d
       -0.22664566 -0.106075376 0.028512863 0.047804713
0002c0 f0 fe 84 3d 44 f4 a3 be 60 6f 7b 3d c8 2d 65 3e
       0.06493938 -0.32022297 0.061385512 0.22380745
0002d0 f0 d2 94 bc b1 f1 93 3e 78 3e be 3d be 85 41 3e
       -0.01816699 0.28895333 0.09289259 0.18898675
0002e0 13 37 90 3e 38 22 8e 3d 20 52 31 bc 80 2a 8f bc
       0.28167018 0.069401205 -0.010822803 -0.01747632
0002f0 e4 65 98 be 19 5e a6 be ef 80 8a 3e e7 e5 1f bd
       -0.29765236 -0.32493666 0.27051494 -0.03903761
000300 1c 5e 2c 3e ba 85 4b 3e 87 0d 27 be bc 8a a0 bd
       0.16832775 0.19875231 -0.16313754 -0.078389615
000310 b7 a0 a2 3d a0 40 be 3c 6b ba 68 be 0b a6 2e be
       0.0794081 0.023224175 -0.22727363 -0.17055528
000320 44 66 96 3e 6a 3b 45 be 80 45 c1 bc e6 37 25 3e
       0.29374897 -0.19260946 -0.02359271 0.16134605
000330 0b 33 72 3e e6 31 73 3e bc 9b 13 be 84 44 e2 3d
       0.23652284 0.23749503 -0.14414877 0.110482246
000340 8c 6f 17 be 44 39 19 3e 1a d7 11 3e 43 57 6f be
       -0.14788646 0.14963251 0.14242211 -0.23373131
000350 99 8d cb bd a8 65 9e bd 95 95 9d 3d 78 2b 80 bd
       -0.09939117 -0.07734233 0.07694546 -0.06258291
000360 84 e7 3a 3d 5d 6d 0b be 66 d3 07 3e e0 77 a7 3c
       0.045630947 -0.13615938 0.13264236 0.020442903
000370 d0 21 cf 3c 96 1e 92 be 3c cc 01 3d 60 f7 db 3d
       0.025284678 -0.2853896 0.031688914 0.107405424
000380 b5 3f 4f bc a2 0c 36 3d be c3 4f be bb f6 5a be
       -0.012649466 0.04444564 -0.20289513 -0.21383183
000390 92 ef 41 3e 62 25 0a 3c 88 ab 4e be ca e9 44 3e
       0.18939045 0.008431764 -0.20182621 0.19229808
0003a0 58 f4 78 3d d8 7e 1a bd 3c 4d 03 3e 8e 0b 25 3e
       0.0607799 -0.037718624 0.12822431 0.16117689
0003b0 76 9b cf bc 24 0b 3c 3d 55 50 8c be ab 7c 73 be
       -0.025342684 0.045909062 -0.27405038 -0.23778026
0003c0 a6 dc 36 be 5a fc dc bd 6a 32 68 3e fd c3 bb 3d
       -0.17857608 -0.1079032 0.22675481 0.09168241
0003d0 00 cc 16 be c0 f1 99 be e0 0e 9c bd 65 0c a7 3d
       -0.14726257 -0.30067253 -0.07620025 0.08156661
0003e0 6b e1 91 be 74 1d a2 3d 18 cb ee bd e0 b7 42 bc
       -0.28492293 0.07915774 -0.11659831 -0.0118846595
0003f0 7e 62 27 3e 70 27 4b bd 5f 2e 87 3e ee 52 34 be
       0.16346166 -0.049598157 0.26402566 -0.1760976

fc2.weight f4 [256, 512]
000000 4e 87 f5 3c 1b 13 28 bd cf 99 30 3d 1c e7 5f 3c
       0.029971745 -0.041033845 0.043115433 0.013665941
000010 68 2d 4d 3b 94 87 bf bc be f0 e3 3c 4b 60 21 bd
       0.0031307582 -0.023380078 0.027824756 -0.039398473
000020 f4 87 22 3d c8 62 1f bd b8 cb 0a 3c f9 6d b0 3b
       0.039680436 -0.038912565 0.008471422 0.0053842035
000030 8e 44 99 3c 26 b3 0d bd 86 2b 25 bd 76 05 c0 3c
       0.018709447 -0.034594677 -0.04032471 0.023440104
000040 84 29 2e bd d9 70 0f 3d ef 53 a6 3c 10 17 1f 3d
       -0.04252006 0.03501973 0.020303695 0.038840353
000050 16 d2 97 3c 74 88 24 3c dc 93 af bc f5 01 17 3c
       0.018532794 0.010042299 -0.02143281 0.009216775
000060 20 36 14 bd 67 8b 89 3c e1 79 4e bc a9 b7 fd bc
       -0.03618443 0.016790105 -0.0126023 -0.030971365
000070 77 e8 27 3d 12 9d c1 3c 5a 7c e8 3c 80 71 9b bb
       0.04099318 0.023634467 0.028379608 -0.004743755
000080 10 c8 41 3c 17 91 a3 bc fa 0b ff bc 0c a4 1e bd
       0.011827484 -0.019966645 -0.03113364 -0.038730666
000090 d8 a5 b1 bb 6d 6f 10 bd 94 79 01 bc 40 2b 87 bb
       -0.0054213814 -0.035262514 -0.007902522 -0.004125029
0000a0 a5 90 8a bc 8d 16 db bb a0 72 85 bc 0e 78 52 3c
       -0.016914675 -0.006686038 -0.016290009 0.012846006
0000b0 c8 3c d0 bc e6 47 28 bc 1c f6 35 3c 0b db 5a bb
       -0.025419608 -0.010271048 0.01110604 -0.003339472
0000c0 1d 97 eb bc a2 3a d7 bc d6 9d eb 3c 9a c9 22 3d
       -0.02875858 -0.026273075 0.028761785 0.039743043
0000d0 a7 78 32 bb 60 dc 10 bc ed 87 94 bc 04 67 23 3d
       -0.002723256 -0.008841604 -0.01813122 0.039893165
0000e0 d3 e6 1e bd 56 33 14 bd bd 08 1e bd 70 c6 9d bc
       -0.03879435 -0.03618177 -0.038582552 -0.019259661
0000f0 2d ed 2d 3d 70 34 d3 3b 97 0a 00 3d 2b 7d 2f bc
       0.042462517 0.00644546 0.0312601 -0.010710995
000100 e1 2a 8a 3c 9e 63 9d bc f6 45 c6 3c d5 c5 90 3b
       0.01686615 -0.01921254 0.024203282 0.0044181147
000110 58 48 9f 3b 8f 87 19 3d b5 16 d9 3c f0 a8 37 bc
       0.004860919 0.037482794 0.026500085 -0.011209711
000120 40 2a 73 3b 92 ee 89 bc a4 c6 cd bc 38 40 23 bd
       0.003710404 -0.016837392 -0.025119133 -0.039856166
000130 54 eb bf bc 72 91 9c bb 92 f1 99 bc 0b 26 24 3d
       -0.023427643 -0.0047780806 -0.018791948 0.040075343
000140 ec 2f 79 3c dd 50 2a bd c1 4e 02 3d f2 ed bf bc
       0.015209179 -0.041581023 0.031813387 -0.02342889
000150 21 79 1b bd 10 4d 05 3c c6 37 f0 3c e4 b3 15 bc
       -0.037957314 0.008136049 0.02932347 -0.009137128
000160 a5 9b 18 bd 5e ab 81 3c 00 1b 2c bb 00 53 77 bc
       -0.03725781 0.015828785 -0.002626121 -0.015095472
000170 2a 16 3a b9 f2 2d ce 3b 3a 69 f4 3b 26 1a c4 bc
       -0.00017746599 0.006292098 0.007458833 -0.02393825
000180 87 d4 75 bc 63 23 b5 bc ae 31 de bc 8c f1 45 3c
       -0.015004284 -0.0221116 -0.027123298 0.012081515
000190 46 27 e7 3c ce 2d 26 3d 63 dc 0d 3d 93 e3 94 bc
       0.02821697 0.040571027 0.034634005 -0.018174922
0001a0 7d 52 07 3d 98 c3 ca 3b 83 50 82 bc 56 cb b3 bb
       0.03303765 0.0061878674 -0.015907532 -0.005486886
0001b0 cc d5 2f bd 56 5a b8 3c be b1 ea 3c 36 16 fa bc
       -0.042928502 0.022504013 0.028649207 -0.03052817
0001c0 98 e5 93 bb 1b 09 4a 3c bc a7 6d bc 8a 9a 22 bc
       -0.0045134537 0.0123312725 -0.014505323 -0.00992454
0001d0 23 a4 ae 3b b5 d3 cb bc 40 21 f8 3c 98 80 b5 bc
       0.005329625 -0.024881223 0.030289292 -0.022156045
0001e0 cb 83 df 3c c5 9a 1e 3d fd fe 34 bd 2e f3 12 bd
       0.027284523 0.03872182 -0.04418849 -0.035876445
0001f0 76 ab ba 3c 3a fd f7 3c b9 d1 1e bd 46 aa 00 bd
       0.022786837 0.030272115 -0.038774226 -0.031412385
000200 7d e4 27 bd 20 c8 25 3d 5f fc 23 3d a2 5f ac 3c
       -0.040989388 0.040474057 0.0400356 0.021041695
000210 23 ce 07 bd b1 1f 36 bc c5 73 b2 3c ba 67 fc bc
       -0.03315557 -0.011115954 0.021783719 -0.03081118
000220 cc 87 a2 bc 1f d4 0b 3d 11 62 ae bc 32 da 95 3b
       -0.019840144 0.03413784 -0.021286996 0.00457313
000230 9a ca 01 3d 76 19 ed 3c 07 0c 09 3c d3 c9 25 bd
       0.031687357 0.028942805 0.008364684 -0.040475678
000240 a1 dc 2f 3d 28 ae 02 bd 9b 9f c0 3b ad a4 2f 3d
       0.042935017 -0.03190437 0.0058784015 0.042881656
000250 53 04 c0 bb 14 71 b8 3c 7f 62 21 bd dd 7e f3 bc
       -0.0058598905 0.022514857 -0.039400574 -0.029723579
000260 ea c6 5c bc ca fe bf 3c 39 22 02 3d e6 79 d3 3c
       -0.013475159 0.023436923 0.03177092 0.025814962
000270 27 6c 01 3d 93 64 df bc bf e7 b6 3c 90 0d 13 3c
       0.031597283 -0.027269637 0.022327302 0.0089754015
000280 06 11 2a 3d 3a b7 c6 bc 0a 8b de 3c f2 47 ad 3c
       0.04152014 -0.024257291 0.027165908 0.02115247
000290 52 c6 a5 3c a0 af 65 3b 12 71 a7 3c 12 c9 06 3d
       0.020236168 0.0035047308 0.020439658 0.0329066
0002a0 6f 9f 1e 3d 40 f6 51 3b 2f 02 99 bc 65 53 e7 bc
       0.038726266 0.0032037646 -0.018677799 -0.028238008
0002b0 5c bc 33 3c d1 9f 8b bc a1 bc 08 bc d2 69 09 bd
       0.010970201 -0.01704398 -0.008345754 -0.033548184
0002c0 ea 68 8f 3c 81 94 a2 bc 6e 88 80 bc 02 27 a6 bb
       0.017506082 -0.019846203 -0.015690055 -0.005070568
0002d0 e9 d0 01 3d e1 a4 ac bc 16 da da 3c 01 0d 0d bd
       0.031693373 -0.021074714 0.02671532 -0.03443623
0002e0 3c 4b 03 bc 9a 5a 32 bd 96 d7 2a bd f3 dc 03 3d
       -0.008013543 -0.043543436 -0.041709505 0.032193135
0002f0 d0 b7 be bc 37 20 de bc fc ee 31 bd bc 83 2a 3d
       -0.023281008 -0.02711497 -0.043440804 0.041629538
000300 ec 87 27 bc 6a 6f eb 3c 00 5b 6e 39 56 d1 b5 bc
       -0.010225277 0.02873965 0.00022731349 -0.022194546
000310 48 df f5 3b c7 8e 2a bd 8a d4 a4 3c 79 7c ef bc
       0.007503424 -0.04164007 0.020120878 -0.029234158
000320 14 df 1d bc 63 18 15 bd ea 26 f7 3c c0 84 0a ba
       -0.0096357055 -0.03640021 0.030169923 -0.00052840635
000330 20 81 88 3c bf b5 1f 3d cd 10 90 bc fe 07 e7 3c
       0.016663134 0.038991686 -0.017586136 0.028202053
000340 20 4f 14 bd a6 cf c7 3c f4 b6 8a 3b 16 3f c5 3c
       -0.036208272 0.024391007 0.0042332355 0.024077933
000350 06 04 98 ba 37 3a 1d bd 5f cb e4 39 ac 56 1e 3d
       -0.0011597879 -0.038385596 0.00043639072 0.038656875
000360 e1 51 c9 3c 8e ef c7 3c 95 dd aa bc 00 ed 2d bb
       0.024575176 0.02440622 -0.020857612 -0.0026538968
000370 8a 3f d1 3c 2c 36 8b 3c e3 ad b1 bc 8b 76 98 bc
       0.025542993 0.016993605 -0.021689361 -0.018611213
000380 a4 15 81 3c 3e 78 a2 bc aa 4e 02 bd 4e 95 32 bd
       0.01575739 -0.019832727 -0.0318133 -0.04359942
000390 be d4 cb 3c 2e 8e 55 bb b3 71 03 bc 13 63 29 3d
       0.024881717 -0.0032585966 -0.0080227135 0.04135425
0003a0 9b 56 83 bc 8c 75 8b 3c 40 93 55 ba d8 16 2c 3c
       -0.016032508 0.017023824 -0.0008147247 0.010503493
0003b0 59 01 e5 b9 99 5f b7 3c 64 e7 9a 3c 14 85 e0 3c
       -0.00043679288 0.022384452 0.018909164 0.027407207
0003c0 11 8b 35 bd ff 85 05 3d 73 9a 34 bd e0 5a e8 3c
       -0.044322077 0.03259849 -0.044092607 0.028363645
0003d0 fc 3e 4d bc 31 9c 19 3d f4 a7 a1 bc 8b 10 5f 3c
       -0.012527224 0.03750247 -0.019733407 0.013614784
0003e0 5f dd 9d ba 1d a8 bd 3c c0 84 a9 3a f8 63 5b 3c
       -0.0012044123 0.023151452 0.0012933239 0.013390534
0003f0 7e 4c b4 3c 80 1a 5b 3c 9d 72 a3 bc 11 5a 01 bc
       0.02200913 0.013373017 -0.019952113 -0.007895009

fc2.bias f4 [256]
000000 99 16 2e bd 6d 56 1c bd e0 14 5b 3c 36 d8 19 3d
       -0.04250202 -0.03816836 0.013371676 0.03755971
000010 aa c0 e5 3c dc ed fd bc 21 a8 2b bd 55 52 a7 bc
       0.028045971 -0.03099721 -0.041908387 -0.020425001
000020 bf 8e 2e bd 00 50 03 3b 2a 70 a7 3c a5 85 8c 3c
       -0.042616602 0.0020036697 0.020439226 0.01715357
000030 03 e5 01 bd b1 08 87 3c e9 e9 2d 3d 66 cf d9 3c
       -0.031712543 0.016483637 0.042459402 0.026588153
000040 dc e7 36 3c 4e 2d 38 bd 8e 84 15 3d 51 44 47 bc
       0.011163678 -0.04496508 0.036503367 -0.012162284
000050 1d 2a c5 bc 30 e2 95 bc a8 60 72 3c 9e 10 0b bd
       -0.024067933 -0.018296331 0.014793552 -0.033951394
000060 f2 09 e7 3c 8f c7 cb bc 50 bc 7b bb 90 ed de bb
       0.028202984 -0.02487543 -0.0038411804 -0.006803222
000070 67 85 1a bd 13 36 c0 bc ef 70 34 3c bd f3 2c 3c
       -0.03772488 -0.023463285 0.011013254 0.010556159
000080 75 66 4d 3c ca ff 1e bd 34 41 cd bc 50 6f 08 bc
       0.012536635 -0.03881816 -0.025055505 -0.00832732
000090 95 4c cf bc d7 a2 96 3b 34 54 06 bd 23 c0 0b 3d
       -0.025305072 0.0045970487 -0.032795146 0.034118783
0000a0 d7 0c 6b 3b 46 d9 97 3b 74 a8 e4 bc 07 e2 10 bd
       0.0035865807 0.0046340553 -0.027912356 -0.035371806
0000b0 09 16 13 3b a7 78 27 bd 80 01 fc 39 51 4c fd 3b
       0.0022443554 -0.040886547 0.00048066303 0.007730045
0000c0 a4 43 1c 3c df 30 38 bb 72 2d de 3c 7f 83 2b bd
       0.009537611 -0.0028105301 0.02712128 -0.04187345
0000d0 e8 d3 da 3b 55 2d 26 bd 30 ac 9f 3c 18 09 fb bc
       0.006678093 -0.040570576 0.019491285 -0.030643985
0000e0 d6 ef 34 bd 42 65 61 38 50 33 8f 3c c7 21 14 3d
       -0.044174038 5.3738484e-05 0.017480522 0.036165025
0000f0 8f ad 12 3c 70 03 25 bc 56 38 f4 bc 20 0e 2f 3b
       0.008952512 -0.01007162 -0.02981202 0.00267113
000100 d7 3c bc bc 74 d8 de bc 31 d1 1f bd 04 97 29 bd
       -0.02297823 -0.027202822 -0.03901786 -0.041403785
000110 cd 19 0f bd 08 af ae bb c6 30 dc 3c c9 7c 0c bd
       -0.034936715 -0.005330924 0.026878726 -0.034298692
000120 b6 e5 c8 3c c5 92 8c 3c 72 28 09 bd 82 e1 1b 3d
       0.024523597 0.017159829 -0.033485837 0.038056858
000130 4a 1f d4 bb a3 93 ec bc b5 18 a8 bc c0 4c 8e bc
       -0.0064734565 -0.028878992 -0.020519594 -0.017370582
000140 48 f7 b4 bb b5 71 b4 bc c0 33 5a 3c d1 d9 ee 3c
       -0.0055226423 -0.022026876 0.013318002 0.029156597
000150 48 6f 3b bd 14 21 dd 3c 28 5c 19 bd 5d 57 f7 3b
       -0.045760423 0.026993312 -0.037441403 0.0075482563
000160 6b 94 eb 3c 89 40 b6 3c 39 65 30 3d 94 c4 b5 bc
       0.028757295 0.02224757 0.043065283 -0.022188462
000170 44 db 18 bc 2b 08 99 bb f3 6d 0c 3d 28 b5 0d 3c
       -0.009329621 -0.004670163 0.034284543 0.008649148
000180 4a c8 e4 3c be 69 eb 3a 7f a1 e7 3b f5 04 b8 bc
       0.027927537 0.0017960591 0.0070688124 -0.022463301
000190 07 f9 15 bd 4b e1 c9 3b 16 04 c4 bc 2e 88 96 3c
       -0.036614444 0.00616089 -0.02392773 0.018375482
0001a0 00 9e 28 3a 80 e9 bb bb 56 82 b4 bb 26 a8 a0 bc
       0.0006432235 -0.0057346225 -0.0055087013 -0.01961143
0001b0 20 a2 d5 bb be e2 0c bd c1 cb 07 bc a6 ca 12 3d
       -0.006519571 -0.034395926 -0.008288325 0.03583779
0001c0 4f f7 2c 3d 8e eb 8d 3c 78 8c 02 3c ab 81 0e 3d
       0.04222804 0.017324235 0.007968061 0.03479163
0001d0 50 34 e2 3c 5f d1 02 3d 10 3b 12 bd d4 c2 29 3c
       0.027612835 0.031937953 -0.035700858 0.010361392
0001e0 00 51 a1 39 18 07 aa 3b f9 be 82 3a b4 41 ad bc
       0.00030768663 0.005188834 0.0009975127 -0.021149494
0001f0 96 9c 04 3d 98 b5 2d bc e4 17 39 3c bb f3 b1 bc
       0.032375894 -0.010602377 0.0112972 -0.021722665
000200 14 2c 59 bc f2 da ba bc 32 84 12 3c 40 6e 8a 3a
       -0.013255138 -0.02280948 0.008942651 0.0010561422
000210 ba d2 f1 3c db a4 1f 3d d3 1e 56 3b 85 90 0c bd
       0.029519428 0.038975578 0.0032672181 -0.034317512
000220 7c b4 86 3c 4a 69 aa 3c 2d 78 86 bc a1 19 23 bd
       0.016443484 0.020802159 -0.016414726 -0.039819364
000230 55 19 32 bd 52 18 ca bc 26 46 2a bd b2 8f 15 3d
       -0.04348119 -0.0246698 -0.041570805 0.03651399
000240 a4 94 37 bd a6 d6 0b bc 9d c2 19 bc 81 8a 29 bd
       -0.04481949 -0.008535063 -0.009384778 -0.041391853
000250 c2 1e d6 bc 64 06 28 3d 97 72 ff bb 80 d1 75 3c
       -0.026137713 0.04102172 -0.0077956426 0.015003562
000260 58 4f 24 3c 06 0d 1b 3d e0 00 fd 3a 53 d0 a3 bc
       0.010028683 0.037854217 0.0019302629 -0.019996798
000270 7c b1 c0 bb 6b a7 ad 3c a4 0f 05 3d 8a d2 80 3c
       -0.005880533 0.021197995 0.03248562 0.015725393
000280 dc e0 c0 bc 7d 56 1f 3d d8 14 fa bc eb 98 a8 3c
       -0.023544721 0.03890084 -0.030527517 0.02058073
000290 30 38 a1 bc 0e 19 42 3b 26 ec a8 3c 9a 95 d3 bc
       -0.019680113 0.0029616985 0.020620417 -0.025828172
0002a0 3d a8 2a bd 30 47 ae ba 4a ef c9 3c b4 ba 11 bd
       -0.04166435 -0.0013296362 0.024650235 -0.035578445
0002b0 22 7f a3 3c 62 da 23 bd 69 90 26 bd c8 ad 7a bc
       0.019958083 -0.040003188 -0.040665064 -0.015300222
0002c0 b2 7a f4 3c 85 20 10 3d 8c f9 84 3c 32 25 c6 3c
       0.029843662 0.035187263 0.016232274 0.024187658
0002d0 e2 bf 97 3c 78 41 a2 bc 28 1e 39 bd bd 94 e3 3c
       0.018524114 -0.019806609 -0.045194775 0.027780885
0002e0 3e 45 14 bd eb 06 12 3c 94 3a 05 bd 4b 16 ea 3c
       -0.036198847 0.008912782 -0.032526568 0.028575083
0002f0 04 df ae 3a 20 9c 32 bd 4f 93 0a 3d c8 06 52 3c
       0.001334161 -0.043605924 0.03383189 0.012819
000300 7c 4e 77 bc e9 a4 16 3d fb 71 1b bd 2f 69 b1 bc
       -0.015094396 0.036778364 -0.037950497 -0.0216566
000310 90 22 f2 3c 22 51 db 3c ff 63 dc bc ea 18 ca 3b
       0.029557496 0.026772086 -0.02690315 0.006167521
000320 28 d5 1e bc 2b 05 30 bb 5c e9 0f 3d 58 ea 37 bd
       -0.009694375 -0.002685855 0.03513466 -0.044901222
000330 f6 f5 9a bc fc 5f 07 3c f0 87 3b bc a6 2b f2 3c
       -0.018916111 0.008262631 -0.011445984 0.029561829
000340 73 39 5d bc 4a ef f4 3c 84 43 c2 3a 4b dd 19 3d
       -0.0135024665 0.029899258 0.0014821147 0.037564557
000350 5e 29 d8 3c d3 38 17 bd 03 3c 10 bd 22 00 02 bd
       0.026386913 -0.036919426 -0.03521348 -0.031738408
000360 26 0c c6 3c 2d ca 25 bd fb 1b 05 bc 23 99 2e bd
       0.024175715 -0.040476013 -0.008124347 -0.04262651
000370 f4 39 0f bc b2 91 f4 bc 0e 65 67 bc 53 de 15 3d
       -0.008741844 -0.02985463 -0.014123214 0.036588978
000380 d0 3c 0e bb 35 88 a3 3c c6 7f 17 bc a2 ce 09 bd
       -0.0021703728 0.01996241 -0.009246772 -0.033644326
000390 61 c6 51 bc 8a cd df 3c 12 f6 24 bd 6c 3d b0 3c
       -0.012803645 0.027319688 -0.040273733 0.021513663
0003a0 89 ef 05 bd 5c 9a 43 bc 74 f7 ef bb d0 23 ef bb
       -0.03269914 -0.011938658 -0.0073232 -0.0072979704
0003b0 82 cf dc 3c dc 79 11 bc e5 53 3d bd 74 fa 5a 3c
       0.026954416 -0.008879151 -0.046222586 0.013365377
0003c0 94 84 b9 3c 98 b7 be bc ea 27 e9 3c b8 bf bd bb
       0.022646226 -0.023280904 0.028461415 -0.005790677
0003d0 ef 8b 8f 3c 8e fc 05 3c 10 23 4d 3b af 35 db bc
       0.01752278 0.0081778895 0.0031301416 -0.026758997
0003e0 fa 98 f7 3c ae 28 ff bc f6 a9 05 bd 9d 98 f8 3b
       0.030224312 -0.031147327 -0.03263279 0.0075865523
0003f0 f0 a6 f4 bc fd 27 03 3d 70 8a e3 bc 0a 71 ea 3c
       -0.029864758 0.032020558 -0.027775973 0.028618354

fc3.weight f4 [128, 256]
000000 5a 08 c7 3c 3e 54 8b bb a0 91 a3 bc 10 61 8b 3c
       0.024295975 -0.004251986 -0.0199669 0.017014056
000010 00 14 00 ba 68 6d 8c 3c 68 d5 6a bc 15 5c a4 3b
       -0.0004885793 0.017142013 -0.014333107 0.00501586
000020 1a c6 4d bd 26 21 b3 bb 70 46 bd bc 43 40 02 bd
       -0.050237752 -0.005466598 -0.023104876 -0.031799566
000030 44 85 79 3d 00 f2 42 3d 20 eb 70 3b 43 82 3c 3d
       0.060918108 0.04759407 0.003676124 0.046022665
000040 1c 06 f7 bc 01 ba 14 bd d7 5b 4e 3d c9 6f 1e 3d
       -0.03015428 -0.0363102 0.050380554 0.038680825
000050 3b f9 39 bd f7 6a 5b bd 80 a0 20 bd f4 e8 b6 bc
       -0.0454037 -0.053568806 -0.039215565 -0.022327878
000060 26 3a 53 bd d6 ff ad 3c 90 f1 6e 3c 0c fe cd bc
       -0.051569127 0.021240156 0.01458396 -0.025145553
000070 36 8d e6 3c 08 d0 70 bd cb e2 50 3c 4f df 3f b9
       0.028143506 -0.058792144 0.012749384 -0.00018298368
000080 59 83 db bb 74 fd 28 3d 57 ad 40 3d 00 42 e0 bb
       -0.0066990075 0.041257337 0.04704031 -0.0068438053
000090 43 c7 7e 3d 36 1b 5a bc f4 03 a5 3c 80 e5 11 bd
       0.06220175 -0.013312152 0.020143487 -0.03561926
0000a0 60 75 d0 bc 64 81 58 bd 9f 7f bf bc 66 ce 74 bd
       -0.025446594 -0.05285777 -0.023376284 -0.05976715
0000b0 19 a7 f2 bc f0 67 25 bd 08 a5 13 bd 40 f0 66 3c
       -0.029620694 -0.040382326 -0.036046058 0.014095366
0000c0 60 09 7b 3c 9b e4 34 3d 70 00 86 bb 64 32 4b bd
       0.015322059 0.044163328 -0.0040894076 -0.049608603
0000d0 74 1e 05 3d 8a 44 60 3d 0c 01 61 3d 80 2f b0 bc
       0.032499745 0.054752864 0.05493264 -0.021507025
0000e0 38 6f 5f bc e8 ad 2a bd 04 43 13 bd b8 78 8d bc
       -0.013637356 -0.041669756 -0.035952583 -0.017269477
0000f0 0d c5 32 bc 04 e9 6f 3c 84 1b 30 bd 24 c6 cd 3c
       -0.010911238 0.014642958 -0.04299499 0.025118895
000100 46 bc a0 bc e0 2c 95 3c 88 b7 77 bc 9c fc 40 3d
       -0.019621026 0.018209875 -0.015119441 0.047115907
000110 25 41 2a 3c 40 94 a2 ba 74 4a 76 bd 21 ac c0 3c
       0.010391508 -0.0012403801 -0.060129598 0.023519577
000120 88 1a 7e 3c ca 28 5d 3d 94 35 af bc bf 34 ef bc
       0.015509255 0.053993978 -0.021387853 -0.029199956
000130 df 33 a3 3b d0 07 8e 3c f4 68 02 3d 1b 50 1d bd
       0.0049805488 0.01733771 0.031838372 -0.038406473
000140 64 be be 3c 9c 9d e8 bc 50 e2 24 bc 8a e1 42 bd
       0.023284145 -0.028395467 -0.010063723 -0.047578372
000150 37 29 2f bd c8 03 7a bc 1a 4e 03 3d 7a 8a 39 3b
       -0.042763915 -0.015259691 0.032056905 0.0028311298
000160 08 9a 2e 3d bf f5 e3 3c 52 c2 77 3d ce b7 bc bc
       0.042627364 0.027827142 0.060488053 -0.023036864
000170 4c 83 c1 3c 1b 6e fb 3c 66 c0 0f bd 1a 10 eb bc
       0.023622178 0.03069215 -0.035095595 -0.028694201
000180 21 51 a1 3b 04 80 5d bd 99 3b c1 3b a0 2c 07 3d
       0.0049230014 -0.054077163 0.005896997 0.033001542
000190 9a e2 06 bc c8 ba 0b 3c 87 8e 51 3d fa 16 08 3d
       -0.008232737 0.008528419 0.051161315 0.033225037
0001a0 cc ce 2f 3d d0 bb a7 bc 29 8a 56 3d 4c f0 b7 3c
       0.042921826 -0.020475298 0.052377854 0.02245345
0001b0 00 2a 21 bb 66 6e 6a bd 87 fb 62 3d b1 b9 09 3d
       -0.0024591684 -0.05723419 0.055415656 0.033624355
0001c0 78 a3 a2 3c c2 c4 32 bd 58 93 99 bc 57 51 f0 3c
       0.019853339 -0.043644674 -0.018747017 0.02933566
0001d0 52 9c 10 bd 84 40 a0 3c 8d 65 94 bc e2 f8 27 bd
       -0.03530533 0.019562013 -0.01811483 -0.041008838
0001e0 90 af f8 3b da 47 7e 3d c7 4e 44 3d 1e 82 10 bd
       0.007589288 0.06208024 0.04792669 -0.03528034
0001f0 e3 e3 1a 3d 78 8b dd 3c 9c fd 54 bd 80 0f 51 3a
       0.037814986 0.027044043 -0.051999673 0.0007975027
000200 ab 92 ac 3b fa 85 12 3d 10 8a 1f bd 42 bf 66 3d
       0.0052665076 0.0357723 -0.038950026 0.05633474
000210 e7 4f 8d 3c e4 4b a3 3c 48 d4 aa 3c f8 61 80 bc
       0.017250014 0.019933648 0.020853177 -0.015671715
000220 e0 04 f0 3c c6 99 28 3d a6 c3 b1 ba 94 62 86 3c
       0.0292992 0.041162275 -0.0013562336 0.016404428
000230 b3 82 b8 bb 81 c8 0b bc 1c 63 3f bd fe 0e c1 b9
       -0.005630815 -0.008531691 -0.046725377 -0.00036823
000240 c1 94 4c bd 27 9e 34 bd 60 c1 a7 3c fb 9a 2c 3b
       -0.04994655 -0.04409614 0.02047795 0.0026337493
000250 70 0a 6b bd de 50 25 bd 5d 01 62 3d c8 e0 26 3d
       -0.057383 -0.040360324 0.05517708 0.04074171
000260 2e fb 65 3d 84 81 31 3d 00 70 29 bd fc 0d de 3c
       0.056147747 0.043336406 -0.041366577 0.027106278
000270 78 1c 14 bd 8f 57 06 3d 55 e8 8e bb 20 3d 40 bc
       -0.036159962 0.032798346 -0.004361192 -0.011733323
000280 61 bf 3b 3d 92 6e 03 bd 92 dd 87 bc a6 80 fc 3a
       0.04583681 -0.03208787 -0.016585145 0.0019264414
000290 80 13 fa 3b b3 7f b0 ba e0 28 68 bb b8 b7 46 3d
       0.007631719 -0.0013465792 -0.0035424754 0.04851505
0002a0 7a 7d 7a 3d 42 90 86 3b f0 66 55 3c 84 a8 95 bc
       0.06115482 0.0041065523 0.0130250305 -0.018268831
0002b0 30 dc 54 bd 1d 1a ce 3c bf bd 57 3d 2a a7 19 3d
       -0.0519678 0.025158936 0.05267119 0.037512936
0002c0 78 ec 45 bc 64 b4 0b bd 6e 6c 7a 3d 18 12 0e 3c
       -0.012080304 -0.03410758 0.061138563 0.008671306
0002d0 9e fc 52 3d a4 8b 82 3c 5e 37 37 bd e9 a4 ea bc
       0.051510446 0.015935726 -0.044730537 -0.028643088
0002e0 d2 42 e6 3c ff 46 44 bd 58 19 d4 bc 0f 3c f4 bc
       0.028108034 -0.04791927 -0.025890991 -0.029813794
0002f0 a3 7e bb bc 64 87 58 3c c2 60 4f bd 5e 75 4b 3d
       -0.022887534 0.013215873 -0.050629385 0.049672477
000300 03 63 3b 3d 22 36 34 bd 6d c7 10 bd 40 d0 84 3c
       0.04574872 -0.043996938 -0.035346437 0.016212583
000310 5b 2b 23 3d 50 13 7b bd 24 be 15 bb 41 2b 62 3d
       0.03983627 -0.061297715 -0.0022848928 0.05521703
000320 91 7b 60 3d f8 82 dd 3c 4e da 87 bc 32 d0 48 3c
       0.054805342 0.02703999 -0.016583588 0.012256669
000330 1c 04 f2 bc 70 40 d7 bc 80 1f 2e 3c f0 fe 9a bc
       -0.029542975 -0.026275843 0.010627627 -0.018920392
000340 bf cc d3 bc 88 38 a3 3b 63 d2 85 bc 0c ae 0f 3d
       -0.025854466 0.0049811043 -0.016335672 0.035078093
000350 8a 2c 4c 3c 41 0a a0 bc cc 95 64 3d 5c a5 82 3c
       0.012461791 -0.01953614 0.05580692 0.01594799
000360 18 31 7a bd b4 8b 93 3b fe 95 4d 3d 4c dd d4 bc
       -0.061081976 0.004502738 0.05019187 -0.025984429
000370 78 24 5f bc fa ac 0e bd 10 46 a2 bb cd ac 1c 3d
       -0.013619535 -0.034832932 -0.0049521998 0.038250733
000380 30 5e 28 3c f8 2b 51 3c 00 2a ab bb c8 01 5c bd
       0.010276362 0.012766831 -0.0052235126 -0.053712636
000390 01 14 0c bc 88 27 e9 bc a4 7c b6 3c cf 43 0a 3d
       -0.008549691 -0.028461233 0.02227623 0.033756074
0003a0 87 52 19 3d b0 85 48 bc 18 31 a9 bc 60 72 81 3c
       0.03743222 -0.012238905 -0.020653293 0.015801609
0003b0 10 e0 c5 bc 96 90 1b bd ea bd ee 3c 8e 55 d7 bc
       -0.024154693 -0.037979685 0.029143292 -0.026285913
0003c0 3f 29 65 bd 48 1d ec bc 46 46 39 bd 07 79 46 3d
       -0.05594754 -0.028822556 -0.045233034 0.048455264
0003d0 aa 5d a7 3c c9 9c 22 3d 80 23 ea 3c f0 25 40 bd
       0.020430405 0.039700303 0.02858138 -0.04691118
0003e0 50 38 7d bd 85 a8 0d 3c a8 1a ca bc 71 de 31 3d
       -0.061821282 0.008646135 -0.024670914 0.043425027
0003f0 72 5a 6c 3d be 93 54 bd a5 00 97 bc 78 5d 0f bc
       0.057703443 -0.05189871 -0.018432925 -0.008750312

fc3.bias f4 [128]
000000 2a c5 2f 3d 13 e6 da 3c 80 a8 39 bc c8 ec d5 bc
       0.04291264 0.026721036 -0.011331677 -0.026113883
000010 e8 ff 8b bd b6 41 30 bc 14 53 83 bc c3 b6 9d 3a
       -0.068359196 -0.010757854 -0.016030826 0.0012032617
000020 63 d4 98 3b 66 f5 31 bc 5e 99 1a 3c 70 1f 45 bd
       0.0046639903 -0.01086173 0.00943598 -0.048125684
000030 02 44 55 bd 6b a9 1e 3d 84 f9 8d bc e8 e4 a4 bc
       -0.05206681 0.03873579 -0.017330892 -0.020128682
000040 26 26 c0 bc e8 81 96 3d 06 b7 15 bd 3e 99 5d bd
       -0.02345569 0.073489964 -0.036551498 -0.05410122
000050 7c 67 32 3c 0b 50 df 3c 25 d2 0d bd ad 00 27 bc
       0.01088893 0.027259847 -0.034624238 -0.010193032
000060 26 14 2d 3d 13 54 c0 bc 9d 2f c8 bc 00 42 6f 3d
       0.042255543 -0.02347759 -0.024436766 0.058412552
000070 6b 33 76 3c e6 cd 0e 3d 03 ee 20 bd fa c0 24 3d
       0.015026907 0.03486433 -0.039289486 0.0402231
000080 16 b4 27 bd 1b 12 05 bd 38 d8 0b 3d 66 4f 65 3d
       -0.040943228 -0.03248797 0.03414175 0.055983923
000090 ec 23 d0 bc 35 61 4b 3c ba af 44 3d a0 0a 4e bd
       -0.025407754 0.012413313 0.04801915 -0.0503031
0000a0 c8 f7 e1 bc 15 22 b6 3c 1b 87 98 3d d8 24 d7 bc
       -0.027583972 0.022233048 0.07447644 -0.026262686
0000b0 ba 93 cd bc 82 7d 14 bb fb 05 a1 3c 63 c9 c8 bb
       -0.025094856 -0.0022657816 0.019656172 -0.006127523
0000c0 5b f6 4a 3d 3e 6e b8 3c 9e 85 99 bd 70 df 4e 3d
       0.04955135 0.022513505 -0.074961886 0.050506055
0000d0 da 78 c5 bc 7b d6 a1 bc 04 3b 64 bd 40 08 b3 bb
       -0.024105478 -0.019755593 -0.055720344 -0.00546363
0000e0 51 9c e5 3c d8 6b 2c b9 a2 87 20 3c 40 90 4f bb
       0.028028639 -0.00016443373 0.009797962 -0.0031671673
0000f0 55 40 23 bd 48 6a 99 bd c0 a5 12 bb 93 02 17 bd
       -0.039856274 -0.07490975 -0.0022376627 -0.03686769
000100 f4 a5 3d 3d 6f 5e aa bc bc d6 b3 bc 72 a2 14 bd
       0.046300843 -0.020796983 -0.02195298 -0.036287732
000110 18 f6 6c 3c e7 5f 89 3b 9e 38 f6 3c 25 1d c6 bc
       0.01446297 0.0041923407 0.030056294 -0.02418382
000120 a9 d7 24 3d fc 47 22 3d 44 cf 3b 3c 87 f4 0c 3c
       0.040244732 0.03961943 0.01146299 0.008603222
000130 26 e8 77 3d 98 19 6e 3c 11 55 6c 3b 7a 59 53 bd
       0.06052413 0.014532469 0.0036061446 -0.051599003
000140 e6 52 76 bd 38 ba 96 3d bd cd b3 bc ca be ab bd
       -0.06013765 0.07359737 -0.02194869 -0.083859995
000150 c3 8e 5d 3d ba e1 53 bd 80 61 14 3a fc 8c b9 bc
       0.054091226 -0.05172894 0.00056602806 -0.022650234
000160 1d 8f 78 bd f4 76 15 bb 1b f9 92 3d 9f b3 52 3c
       -0.06068336 -0.0022806497 0.07176419 0.012860208
000170 99 71 40 bd 75 de 46 bb d8 91 4e bd a7 fb 55 3c
       -0.046983335 -0.0030344997 -0.050432056 0.013060487
000180 58 5e 30 bd 9a 64 60 3c f7 2d 19 3d e8 16 53 3c
       -0.043058723 0.01369586 0.03739735 0.012883879
000190 ae c7 7f bd c0 84 b9 bc ec b4 ae 3c 19 2b 18 bc
       -0.06244629 -0.022646308 0.021326505 -0.009287619
0001a0 66 7e 2a bd ca 1d 5a bd fd df 87 bd f6 30 1b 3d
       -0.04162445 -0.053251065 -0.06634519 0.03788849
0001b0 36 5a 48 bd 6c e0 66 bd c7 fe c6 3c cc e1 9e 3c
       -0.048914157 -0.05636637 0.02429141 0.019394778
0001c0 b8 f6 5f bd 7e e0 4c bd d5 84 52 bc 68 6e 64 3c
       -0.05467865 -0.05001878 -0.012849052 0.0139423385
0001d0 50 28 66 3d 72 46 13 bd 74 41 39 bd 76 27 80 3c
       0.05619079 -0.035955854 -0.045228437 0.015643816
0001e0 88 2e 63 bd 9f cb 65 3d 38 37 65 bd 54 2a 43 bd
       -0.055464298 0.05610239 -0.055960864 -0.04764779
0001f0 1c d6 4d bd 42 e2 75 3c b8 30 a5 bd ba a6 e0 3c
       -0.05025302 0.015007557 -0.08065933 0.027423251

out.weight f4 [7, 128]
000000 ae 9b aa bc 3d 82 38 bd 2c 4f e0 bc cd d1 aa 3d
       -0.020826187 -0.04504608 -0.027381502 0.083407976
000010 e1 f2 6a 3d bd f5 1c 3d 37 c1 93 3d f1 4c 9e bc
       0.057360534 0.03832029 0.07214587 -0.019323798
000020 86 22 47 bc f2 c3 79 bc a5 e4 7c 3d 1c 35 84 3c
       -0.012154227 -0.015244471 0.06174149 0.016138606
000030 0f fa bf 3c d7 3f 84 3d 78 8f cf 3b ff 28 f8 bc
       0.023434667 0.06457489 0.0063342415 -0.030292986
000040 df ec 4d bc e2 48 83 3d ef 75 aa bd b1 e3 30 3b
       -0.0125686815 0.06410386 -0.08323275 0.0026991183
000050 d8 bf 3c bd fa 12 45 3d 14 a3 b3 3b fb 7f 6e 3b
       -0.046081394 0.0481138 0.005482087 0.00363922
000060 0e c8 29 3d 6b 68 90 3d 2d 2d 89 bd 15 35 89 3d
       0.041450553 0.07051166 -0.0669807 0.06699578
000070 d6 1f 12 bd 5a f2 98 bc 87 0f 07 3d c0 c5 5f 3b
       -0.035674892 -0.01867025 0.032973792 0.0034144968
000080 68 b2 6a 3c 1a 0d 70 bd 71 f6 3f 3d 99 f0 8b 3c
       0.014324762 -0.058606245 0.046865884 0.0170825
000090 17 fc 8d bc bc 0c b0 3b 82 b1 80 3d e4 b3 38 3d
       -0.01733212 0.005372612 0.06283857 0.045093432
0000a0 7b d6 12 3c e2 e0 6e bd 23 23 4a 3d 1f 11 53 bd
       0.008962269 -0.058319934 0.049349915 -0.05153
0000b0 07 ed 41 3d 09 17 aa 3c c4 fb 1d bd 47 8b 9a 3c
       0.047345188 0.020762937 -0.03857018 0.01886524
0000c0 32 10 ae 3c c6 16 67 3d 3c 17 0a bd 16 cf 95 bd
       0.021247957 0.056418203 -0.033713564 -0.07314889
0000d0 45 9a 0d bc 4a 59 30 bd 5b 9b 8c 3d 4e 33 84 bd
       -0.008642738 -0.043053903 0.06865569 -0.06455098
0000e0 6f cb a4 3d b9 92 26 3d 5f fd 22 3d 55 ab 84 bd
       0.080466144 0.04066727 0.039792415 -0.064779915
0000f0 68 60 67 3c 10 0d f8 bc 68 58 38 bd fd f0 ee ba
       0.014122106 -0.030279666 -0.045006186 -0.0018229779
000100 8b d4 11 3d 8e 34 63 3d f8 ee 43 bc 60 7f aa bc
       0.035603087 0.055470042 -0.01195883 -0.02081269
000110 2e 3d 7e bd 74 fe ad 39 e0 a4 a1 3d c6 93 5c bd
       -0.062070064 0.00033186714 0.078927755 -0.053851865
000120 f1 13 3c 3d 08 c1 0d 3d 39 02 26 3d 00 a4 69 3d
       0.045917455 0.034607917 0.040529463 0.05704117
000130 e3 e0 04 3c 48 bc 1b bd ed 60 6e bd 25 db c7 bc
       0.008110258 -0.038021356 -0.058197904 -0.024396488
000140 cc 8b a7 3c 72 23 e5 3c ce 06 03 bd 0f 62 86 bc
       0.020452403 0.027971003 -0.03198891 -0.01640418
000150 de b9 77 3c c6 7a b8 3c 1a dd aa bd e5 a5 85 3d
       0.015119998 0.02251948 -0.08342953 0.065257825
000160 11 9e 71 bc ea f5 60 3d 5c 8d 97 3d 91 63 c3 3c
       -0.014747159 0.054922022 0.07400009 0.023851188
000170 01 8f 9a 3d 01 50 61 3d 76 62 8c 3d 70 78 40 3b
       0.07546807 0.05500794 0.068547174 0.0029368661
000180 3c 1c 75 bd 0f e0 1c bc 92 2e 6d 3c 48 66 f4 3c
       -0.05984138 -0.009574904 0.014476435 0.029833928
000190 9e 93 1f 3d 64 af 4e 3c 44 e6 bc bc e7 11 86 3d
       0.038959138 0.012615059 -0.023059018 0.06546383
0001a0 a4 df ce bc 3e ac 1f bd 8b 3d 66 3d 0c 6b 6c 3d
       -0.025253125 -0.038982622 0.056211036 0.057719275
0001b0 e2 fd d2 b9 9e 20 a3 bd 39 50 4a 3d 04 f8 c4 bc
       -0.0004024348 -0.079652056 0.049392913 -0.024044044
0001c0 3a 39 30 3d 21 b1 23 3c 71 31 22 bd a2 d9 43 bc
       0.043023326 0.009990961 -0.039597932 -0.011953743
0001d0 35 fc fc bc d4 92 b0 bd e0 00 36 3d 3b ea c3 3c
       -0.03088198 -0.08621755 0.04443443 0.0239154
0001e0 9a 24 98 bc 44 d2 fd bc c0 76 8d bd 1c a7 9f bc
       -0.01857214 -0.030984052 -0.069074154 -0.019488864
0001f0 a5 7a 7c bd d1 40 6f 3d 40 28 31 3d 11 52 70 3d
       -0.0616404 0.058411423 0.043251276 0.058672015
000200 fb b1 06 bc ba 0d 80 bb a0 50 b4 bd 04 cf 0b bc
       -0.008221145 -0.0039078863 -0.088044405 -0.008533243
000210 fd 12 24 bd 75 fa 5d 3d 90 89 f7 3c 5a dc 6f ba
       -0.04005717 0.054193933 0.030216962 -0.00091499614
000220 26 53 9d ba 0e 74 c3 bc 4a 67 2a 3d 6a a1 93 bd
       -0.001200293 -0.02385905 0.04160241 -0.07208522
000230 ad 48 11 bd d3 84 29 bd 2d 20 6c 3c 6e 7c 28 3c
       -0.0354697 -0.041386437 0.014411968 0.010283573
000240 f1 ea 4a bd 81 51 71 3d 40 53 f2 ba fc 18 84 bc
       -0.049540464 0.05891562 -0.0018487945 -0.016125195
000250 0c c3 97 bc 9b ed 6b bd ab 8c 51 3b e9 78 de 3c
       -0.018525623 -0.057599645 0.0031974714 0.027157264
000260 7b fa a7 3d eb 9d de bc 79 be 8a bb 99 f1 df 3c
       0.08202072 -0.02717491 -0.004234132 0.027336882
000270 ef 1f a4 3d e7 51 71 3c ad 4b fd bc 50 98 b1 3b
       0.08013903 0.014729 -0.030919874 0.0054197684
000280 8a 5c 18 bd f1 9d a8 bc dd c9 aa bc 26 ad 7c 3d
       -0.037197627 -0.020583125 -0.020848209 0.061688565
000290 e9 0b 38 bd 2f 69 db 3a 51 cc 67 bd 00 1c 4e 3d
       -0.044933233 0.0016739721 -0.056591336 0.05031967
0002a0 6f f1 fb bc be 2e 57 3d 31 65 b3 3d 66 51 5b 3d
       -0.030754773 0.05253481 0.08759535 0.053544424
0002b0 7d 80 1d bd b7 fd d4 3b 4d 78 5e bc 15 d2 a2 bb
       -0.038452614 0.0064999717 -0.013578487 -0.0049688914
0002c0 6c b9 8e bd 53 92 7c 3c dc 36 02 3d da c3 9b bd
       -0.0696896 0.015415746 0.0317906 -0.07605715
0002d0 ff a3 bf bc 2a a1 85 bd a8 c7 78 bc 44 e2 88 bc
       -0.02339363 -0.0652488 -0.0151843205 -0.016709454
0002e0 77 99 92 3d 11 d7 8f 3d 39 ba 35 3b 92 1a 0b 3d
       0.07158177 0.070234425 0.0027729406 0.033960886
0002f0 d0 34 2c 3c 91 af 77 bc f1 87 91 bd 74 7c 20 3d
       0.010510638 -0.015117542 -0.07106007 0.039181188
000300 ca 1d 16 3c 2e ca f1 3c 90 ce 8b 3c 83 42 35 3d
       0.009162376 0.029515352 0.01706627 0.044252884
000310 80 78 b8 bc 6a fa ef 3b a0 48 32 3d 02 53 a8 bb
       -0.022518396 0.007323553 0.04352629 -0.0051368484
000320 62 8c 0d 3d 91 b8 8f 3d fb f5 a4 3b 73 7e b8 bc
       0.034557708 0.07017625 0.005034206 -0.022521233
000330 d3 cb a5 bc d6 15 6d bd ea f5 04 bc 02 d9 a9 3d
       -0.020238793 -0.057882152 -0.008115271 0.08293344
000340 4c a5 34 bd 70 43 22 3c de eb bb bc ab 09 e1 bb
       -0.044102952 0.009903774 -0.022939619 -0.0068676076
000350 d4 1f 1f 3d 14 f8 2d 3c e0 52 c9 3b a9 e6 97 3d
       0.038848713 0.010618228 0.0061439127 0.07417042
000360 6f 86 24 3d 6c df 78 bc f0 aa 81 3d 87 d9 a6 3d
       0.04016727 -0.015189987 0.06331432 0.08146959
000370 50 8c f6 bc b1 20 94 3d e9 3b e8 3c d4 ac 02 bd
       -0.030096203 0.07232798 0.02834888 -0.031903103
000380 e1 f3 44 3c 04 bf d9 3c e1 4a f3 3c 54 10 51 bc
       0.012021036 0.026580341 0.029698791 -0.012760241
000390 1c d3 9a 3c a4 6d 12 3d 4b 29 1d bd b1 7e 02 bd
       0.018899493 0.035749093 -0.03836946 -0.031859104
0003a0 e0 5f 2f bc a0 93 d7 bb d6 b7 35 3b 7c 5e 9f 3d
       -0.010704011 -0.0065788776 0.0027727983 0.07781693
0003b0 ee d3 96 3c 32 a0 fa bc 01 92 95 3d 54 41 44 bd
       0.018411603 -0.030593965 0.07303239 -0.047913864
0003c0 c5 9c 98 bd 50 e6 38 bd d9 77 25 bc fc e8 02 3c
       -0.074517764 -0.045141518 -0.010099375 0.007990118
0003d0 06 f5 a3 bd b2 1c 64 3d 2f 21 dd 3a 8d f5 87 3c
       -0.08005719 0.05569143 0.0016870851 0.01659658
0003e0 51 37 11 3c 66 ba 84 3c 2e 2a 0d 3d 03 66 19 3d
       0.008863286 0.016202163 0.034464054 0.0374508
0003f0 8e 83 05 bd 8c 46 ab bd ba 17 a6 3c 09 30 e7 3c
       -0.032596163 -0.08363065 0.020274986 0.028221147

out.bias f4 [7]
000000 00 e1 d2 3b f6 e2 01 3d 18 d8 df 3d 17 4e bc bc
       0.0064355135 0.031710587 0.109298885 -0.022986455
000010 2f 3e 84 bd e4 81 19 bd e6 4b a5 3d
       -0.06457173 -0.03747739 0.08071117
