trained_models/dqn_shooter_800.pt (torch, 686304 bytes, 8 tensors)

fc1.weight f4 [512, 10]
-0.11681188 -0.006301288 0.03289067 0.036262665 -0.05346521 -0.27699193 -2.4203565 -0.12309294
-0.348681 0.1133189 0.082226165 0.017943386 -0.28990865 -0.20967273 0.08208396 0.8495404
-0.007036646 -0.044439908 -0.43547013 -0.19394282 -0.30823684 0.026337951 -0.2537162 -0.2155299
-0.06915048 -0.22292902 0.28129008 -0.12084864 0.06658518 -0.0025521815 -0.19645573 -0.14862126
0.051511843 0.075217955 0.101019494 -0.257965 2.353306 1.3026046 -0.3758747 -0.1470082
0.19962676 -0.14319716 -0.24055627 -0.4119542 -0.20044704 0.4828749 0.19439586 0.38783067
-0.08685977 -0.3897112 0.023853226 0.27345282 0.050799694 0.04764431 -0.17999558 0.3318602
-1.2028458 -2.3821824 -0.16428828 0.00032694018 0.11705962 -0.17847243 -0.3151146 -0.2633841
-0.112422384 1.0248787 0.12895708 0.033661358 0.045347374 0.1002263 -0.26233158 0.06886659
0.63702 0.12368706 -0.118385114 -0.80716956 -0.78277504 0.537138 -0.3247762 -0.2832541
0.089657806 0.07873798 -0.024400275 -0.18720044 0.024573972 0.8292847 0.4551182 0.27425045
0.036714092 -0.138148 -0.13036834 0.23829362 0.17079955 -0.09707187 -0.08818793 0.037192672
0.011510551 0.13490218 0.27597657 0.036205083 0.22795175 -0.16416104 0.27941775 -0.033721406
0.22371507 1.105692 -0.590811 0.06465102 -0.5753096 -0.14830643 -0.31351167 0.22134392
-0.44358572 0.0943791 0.19377536 0.014462013 -0.27318808 3.68589 0.5424122 0.063653864
-0.0698228 -0.122980535 -0.28431934 -0.13645257 -0.23994893 -0.16168427 0.19438192 -0.044377387
0.25641748 -0.18276215 -0.054724585 0.11683671 -0.5297736 0.041723743 -0.2709038 1.0735432
-0.3442435 -1.9364246 0.068998516 0.057115376 -0.06952844 0.4237398 0.19853619 0.044396743
-0.3360378 -0.50803053 2.2820284 -2.1095107 0.3033877 -0.08758997 -0.015236229 0.2094523
0.03075111 -0.04621446 0.05381891 0.1486904 -0.09086497 0.10424125 0.27947566 -0.15114984
0.1487815 -0.09121507 -0.7232768 -0.27685088 -0.14567925 0.80362105 -0.4568417 -0.1310297
0.10682423 0.05468024 -0.008467048 0.041291684 -0.06120068 -0.12929408 -0.13554731 0.08344388
0.18031174 0.17413992 0.30987194 -0.0633913 -0.28531447 0.021749139 -0.19845778 -0.16230872
0.124047905 -0.112729445 0.0009792149 -0.05288458 0.2074978 -0.26961398 -0.18301256 0.2558603
0.12649813 -0.1675272 0.3061227 -0.3032577 -0.024307966 -0.15522172 -0.04156658 0.21173248
0.09324209 -0.19009608 -0.45190522 0.11506419 -0.07295309 0.5858925 -1.49764 -2.0044885
0.011297501 -0.40063807 -0.060707133 -0.23104157 -0.9058852 0.14166273 -0.16813695 -0.060273536
1.7507445 -1.6543425 -0.02815808 0.051378794 -0.13373516 -0.102512345 -0.09030864 -0.21850452
0.06546906 0.010970026 0.25515893 -0.0046144724 -0.07953687 -0.20054768 -0.19559225 -0.097629905
0.30272713 -0.19626322 -0.2575649 0.0648492 -0.25931093 -0.11837137 0.13466007 -0.090399936
-0.00031483432 -0.09050611 0.10254317 0.08893809 -0.034254473 -0.7148362 -2.2320504 -3.4702103
0.07654412 -0.17342661 0.0076918574 -0.017196871 -0.9601504 0.028361259 0.16348232 1.0449723
00000000: 113b efbd 097b cebb 5eb8 063d 2988 143d
00000010: 56fe 5abd e3d1 8dbe 1fe7 1ac0 2718 fcbd
00000020: 5186 b2be bd13 e83d 3166 a83d 02fe 923c
00000030: e86e 94be 73b4 56be a31b a83d 7b7b 593f
00000040: aa93 e6bb 9f06 36bd f1f5 debe f298 46be
00000050: 38d1 9dbe b0c2 d73c 17e7 81be dfb3 5cbe
00000060: c49e 8dbd 8147 64be 4105 903e 7e7f f7bd
00000070: d05d 883d 8042 27bb b12b 49be 2c30 18be
00000080: 15fe 523d df0b 9a3d 4fe3 ce3d fd13 84be
00000090: 919c 1640 bfbb a63f a672 c0be 5189 16be
000000a0: f56a 4c3e 47a2 12be 6254 76be a9eb d2be
000000b0: fd41 4dbe 613b f73e b50f 473e be91 c63e
000000c0: 89e3 b1bd 3a88 c7be d767 c33c 0202 8c3e
000000d0: 5713 503d ae26 433d c350 38be 95e9 a93e
000000e0: daf6 99bf ad75 18c0 303b 28be 2b69 ab39
000000f0: f4bc ef3d 7ac1 36be b356 a1be 48da 86be
00000100: b53d e6bd 3a2f 833f 530d 043e 7ee0 093d
00000110: 2bbe 393d 7243 cd3d 5350 86be ed09 8d3d
00000120: be13 233f a44f fd3d e573 f2bd aaa2 4ebf
00000130: f263 48bf e081 093f 1149 a6be ae06 91be
00000140: 839e b73d 6141 a13d 16e3 c7bc 79b1 3fbe
00000150: 5b4f c93c 014c 543f 4105 e93e 8e6a 8c3e
00000160: 8461 163d ab76 0dbe 477f 05be 3e03 743e
00000170: 14e6 2e3e 9ecd c6bd e09b b4bd 5857 183d
00000180: c096 3c3c cc23 0a3e cd4c 8d3e c84b 143d
00000190: 2f6c 693e d519 28be d80f 8f3e 751f 0abd
000001a0: 9015 653e 5187 8d3f 643f 17bf c167 843d
000001b0: 7d47 13bf a4dd 17be 9a84 a0be fba7 623e
000001c0: ab1d e3be d449 c13d 0c6d 463e 14f2 6c3c
000001d0: 4fdf 8bbe 9fe5 6b40 87db 0a3f f55c 823d
000001e0: 42ff 8ebd 38dd fbbd 4e92 91be 39ba 0bbe
000001f0: 2cb5 75be 9090 25be 0e0c 473e 10c5 35bd
00000200: 2749 833e 0026 3bbe e326 60bd 1648 ef3d
00000210: 3e9f 07bf 84e6 2a3d e7b3 8abe dd69 893f
00000220: af40 b0be c3dc f7bf 184f 8d3d d0f1 693d
00000230: ed64 8ebd 6cf4 d83e 124d 4b3e 5cd9 353d
00000240: 260d acbe 4a0e 02bf c10c 1240 3902 07c0
00000250: a255 9b3e 5f62 b3bd 60a1 79bc aa7a 563e
00000260: c0e9 fb3c 604b 3dbd 3871 5c3d 4c42 183e
00000270: 6a17 babd 707c d53d 6f17 8f3e 06c7 1abe
00000280: 2d5a 183e f7ce babd ab28 39bf 66bf 8dbe
00000290: f12c 15be 1cba 4d3f 28e7 e9be a62c 06be
000002a0: a9c6 da3d 63f8 5f3d 60b9 0abc 7821 293d
000002b0: 90ad 7abd ab65 04be eacc 0abe a0e4 aa3d
000002c0: a4a3 383e bc51 323e 89a7 9e3e 4cd3 81bd
000002d0: bd14 92be 402b b23c 8438 4bbe 4234 26be
000002e0: d40c fe3d b2de e6bd 0059 803a 809d 58bd
000002f0: 4e7a 543e d80a 8abe a567 3bbe 1f00 833e
00000300: ba88 013e 408c 2bbe 1dbc 9c3e 9844 9bbe
00000310: 8021 c7bc 71f2 1ebe b841 2abd 66d0 583e
00000320: b5f5 be3d 8ca8 42be 1f60 e7be c6a6 eb3d
00000330: 6e68 95bd 0dfd 153f abb2 bfbf 8a49 00c0
00000340: 2719 393c 6f20 cdbe 0ba8 78bd 2996 6cbe
00000350: 18e8 67bf 0910 113e 182c 2cbe 62e1 76bd
00000360: 6518 e03f 7fc1 d3bf c6ab e6bc 9272 523d
00000370: dff1 08be fef1 d1bd bcf3 b8bd a6bf 5fbe
00000380: a414 863d a0bb 333c 31a4 823e 0035 97bb
00000390: 3ae4 a2bd 5f5c 4dbe 5649 48be 30f2 c7bd
000003a0: 0dff 9a3e 3af9 48be 8cdf 83be a8cf 843d
000003b0: 67c4 84be b06c f2bd 54e4 093e 9a23 b9bd
000003c0: 5910 a5b9 445b b9bd 2702 d23d 2c25 b63d
000003d0: 6b4e 0cbd 81ff 36bf ead9 0ec0 ed17 5ec0
000003e0: 2ac3 9c3d bf96 31be fa0b fc3b 74e0 8cbc
000003f0: 6bcc 75bf df55 e83c e967 273e a7c1 853f

fc1.bias f4 [512]
-0.3414329 -0.1776514 0.14657462 -0.19840023 -0.27843818 -0.2755255 -0.17617981 -0.1721189
0.1916231 0.14496952 -0.18153001 -0.20337391 -0.3069716 -0.38340372 0.108540006 0.25868925
0.19266964 -0.03392142 -0.15594365 0.1770055 -0.19706818 -0.21529132 -0.23638439 -0.23287728
-0.22906187 -0.2981691 -0.03901899 -0.12736265 -0.16900937 -0.43620622 -0.033853672 -0.24221113
0.069501124 -0.23659319 -0.032734554 0.12980941 -0.03441322 0.101246394 -0.11585443 0.12048032
-0.29128075 0.03876166 -0.24135399 -0.13692251 0.12557372 0.09265065 -0.30006593 0.20822683
-0.05175194 0.124119535 -0.028000504 0.17972285 -0.2667815 0.04664491 -0.3904119 0.13848136
-0.1849473 0.0023058006 0.16995847 -0.23031574 0.082961366 0.22329693 -0.318566 0.010656933
0.15358852 -0.054146916 -0.06836206 0.11969209 0.112829864 0.0024587214 -0.3724592 0.22740495
-0.09516428 -0.30877888 0.23218651 0.05783333 0.08529352 -0.11315332 0.11839308 0.18526119
-0.08140982 0.06291962 -0.21747653 -0.2510456 0.10296375 -0.30465493 0.18683627 -0.011462539
-0.20933414 -0.30262932 -0.3173705 -0.09225318 0.23516312 0.24924658 0.14431338 -0.034511328
-0.099333555 -0.353007 0.36643067 -0.06630012 -0.027426736 -0.3619603 -0.04228723 -0.10498466
0.17655516 -0.048064694 -0.08384406 -0.31913313 0.2019485 -0.2263084 0.07113882 -0.087062225
-0.17086098 -0.057697892 -0.36609125 -0.16077384 0.1476455 -0.223389 -0.024898162 0.12856576
0.13935998 0.075910226 -0.03977114 0.0159916 -0.3113291 -0.10495804 0.08583791 -0.049949422
0.22291788 -0.31093135 0.1456392 -0.16783194 -0.0803141 -0.2636025 0.3144016 -0.25884026
0.10384339 0.24323049 0.09044367 -0.25351685 0.14383736 0.046201766 0.018635333 0.27827868
-0.02270956 -0.25188744 -0.31877762 0.013026953 0.17926235 -0.18882017 0.22529843 -0.31776804
0.24605998 -0.020422429 -0.0014924948 -0.1446658 0.19178703 0.07525194 -0.09558409 0.06154707
-0.10052267 0.15769094 0.20523314 -0.059933513 0.03223197 0.061976615 -0.07051386 0.13098814
-0.24489571 -0.14714801 -0.2648656 -0.11151313 -0.17913336 0.020246005 -0.138197 0.039966747
-0.023680372 -0.21451053 0.07828936 -0.11234869 0.26102903 0.037481427 0.17552601 0.25763777
-0.155971 -0.36599824 -0.36847767 -0.046476915 -0.25344342 -0.35289723 0.16499269 -0.032881796
0.01953927 -0.3056247 -0.41914776 -0.18957083 -0.14643417 0.14376283 0.08586693 -0.18171105
-0.3365098 0.029564083 0.06678313 0.16603163 0.11503387 -0.056241218 -0.3215002 -0.085635304
-0.23087908 0.04222533 0.26157776 0.26224658 -0.10897454 0.20445165 0.025623893 -0.1589862
-0.23541564 -0.22748731 -0.28253034 0.17918643 -0.18526901 -0.030410968 -0.024322564 0.0924204
-0.0348134 -0.08426701 -0.027953025 -0.1561101 -0.07857096 0.057753045 -0.07824769 0.13260101
-0.2946118 -0.116050124 -0.0016794802 -0.094232395 -0.063802436 -0.28044578 0.12197146 -0.18380511
-0.28648555 -0.026247628 -0.2465306 0.26372617 -0.079363234 0.16109528 -0.2399494 -0.14087248
-0.31519896 -0.094411336 0.14723408 -0.31348187 -0.13534103 0.2790909 0.16045445 -0.09174132
00000000: 4bd0 aebe 40ea 35be a817 163e 6e29 4bbe
00000010: 738f 8ebe ae11 8dbe 7b68 34be f03f 30be
00000020: d938 443e e472 143e 01e3 39be 4041 50be
00000030: 622b 9dbe 7e4d c4be 394a de3d eb72 843e
00000040: 314b 453e 30f1 0abd b1af 1fbe ee40 353e
00000050: 3ecc 49be 5475 5cbe c00e 72be 6277 6ebe
00000060: 328f 6abe 9fa9 98be 60d2 1fbd 5b6b 02be
00000070: cb10 2dbe 6c56 dfbe 26aa 0abd 3206 78be
00000080: 9b56 8e3d 7c45 72be ab14 06bd c2ec 043e
00000090: e0f4 0cbd 455a cf3d 1645 edbd 63be f63d
000000a0: c022 95be 8cc4 1e3d 8025 77be 6a35 0cbe
000000b0: 6696 003e a0bf bd3d 3ea2 99be 6a39 553e
000000c0: d8f9 53bd 6232 fe3d 5061 e5bc 4409 383e
000000d0: 9697 88be bc0e 3f3d 12e4 c7be 0fce 0d3e
000000e0: d362 3dbe ea1c 173b 9809 2e3e e4d7 6bbe
000000f0: a6e7 a93d f3a7 643e 151b a3be 6b9a 2e3c
00000100: 4f46 1d3e 28c9 5dbd 6801 8cbd 2021 f53d
00000110: 5813 e73d 8022 213b f9b2 bebe d8dc 683e
00000120: 7de5 c2bd 4418 9ebe 4dc2 6d3e a4e2 6c3d
00000130: 5eae ae3d eebc e7bd 1278 f23d 1cb5 3d3e
00000140: 31ba a6bd 00dc 803d 2bb2 5ebe 0d89 80be
00000150: a9de d23d bbfb 9bbe 0252 3f3e 60cd 3bbc
00000160: b05b 56be 3bf2 9abe 637e a2be 3cef bcbd
00000170: 9ace 703e 7f3a 7f3e e3c6 133e c05b 0dbd
00000180: 646f cbbd 55bd b4be cd9c bb3e 5bc8 87bd
00000190: 09ae e0bc dc52 b9be 6035 2dbd 3302 d7bd
000001a0: e0ca 343e 7cdf 44bd 6fb6 abbd 6b65 a3be
000001b0: 96cb 4e3e 64bd 67be 3bb1 913d ae4d b2bd
000001c0: 2ef6 2ebe a054 6cbd 5070 bbbe e6a1 24be
000001d0: 6230 173e 16c0 64be 3bf7 cbbc bea6 033e
000001e0: 62b4 0e3e d276 9b3d 10e7 22bd d100 833c
000001f0: 8766 9fbe 3ef4 d6bd c9cb af3d c497 4cbd
00000200: 9644 643e 6532 9fbe 7122 153e 23dc 2bbe
00000210: b87b a4bd e8f6 86be 3ff9 a03e b686 84be
00000220: d8ab d43d 6a11 793e 883a b93d f6cc 81be
00000230: 1a4a 133e 103e 3d3d 20a9 983c 8b7a 8e3e
00000240: 6609 babc 64f7 80be d236 a3be 006f 553c
00000250: 8d90 373e 135a 41be a2b4 663e 7eb2 a2be
00000260: 26f7 7b3e f04c a7bc d19f c3ba 4523 14be
00000270: d263 443e b01d 9a3d 97c1 c3bd c818 7c3d
00000280: d4de cdbd bc79 213e a328 523e d87c 75bd
00000290: ac05 043d 31db 7d3d 9269 90bd c121 063e
000002a0: f1c5 7abe f8ad 16be 779c 87be ff60 e4bd
000002b0: bc6e 37be f3da a53c 8483 0dbe 2cb4 233d
000002c0: 57fd c1bc a6a8 5bbe 2c56 a03d 1217 e6bd
000002d0: 99a5 853e 2086 193d 17bd 333e 19e9 833e
000002e0: ddb6 1fbe 1f64 bbbe 1ba9 bcbe 945e 3ebd
000002f0: 56c3 81be f2ae b4be d8f3 283e 10af 06bd
00000300: d210 a03c d77a 9cbe 899a d6be db1e 42be
00000310: d7f2 15be 9036 133e 00db af3d 7612 3abe
00000320: 034b acbe 6030 f23c 98c5 883d 3204 2a3e
00000330: e196 eb3d 315d 66bd ad9b a4be 9061 afbd
00000340: 916b 6cbe 78f4 2c3d 85ed 853e 2f45 863e
00000350: 0b2e dfbd c65b 513e 33e9 d13c 47cd 22be
00000360: cc10 71be 6ff2 68be d1a7 90be a67c 373e
00000370: 29b7 3dbe 6c20 f9bc 1d40 c7bc e846 bd3d
00000380: 7f98 0ebd 2f94 acbd befd e4bc 53db 1fbe
00000390: d0e9 a0bd 758e 6c3d 5340 a0bd 8fc8 073e
000003a0: 5cd7 96be b0ab edbd 0122 dcba eafc c0bd
000003b0: daaa 82bd 9796 8fbe 2ccc f93d 6837 3cbe
000003c0: 3cae 92be 4405 d7bc 8572 7cbe 1e07 873e
000003d0: 3189 a2bd 29f6 243e 4cb5 75be e040 10be
000003e0: c261 a1be bb5a c1bd 88c4 163e b280 a0be
000003f0: d796 0abe 01e5 8e3e 2c4e 243e e0e2 bbbd

fc2.weight f4 [256, 512]
0.0023652927 -0.013737138 0.02209996 0.028937822 0.02969395 -0.030632263 -0.021140406 -0.027104603
-0.04074027 0.013299655 0.033746667 0.030858861 -0.034098156 0.036832247 -0.03369442 -0.028798852
-0.023584485 0.033446055 -0.00783436 0.011534832 0.014250606 0.019085605 0.0348203 0.02830464
0.023878213 0.03279152 -0.013426064 -0.026486864 0.035980646 0.003517628 0.03586872 -0.0199505
-0.0055218264 -0.039889254 -0.017850589 -0.015888356 0.009678919 0.026277205 -0.00054436794 0.030850008
-0.027598524 -0.041148793 0.019905392 0.011315906 -0.032173075 -0.011947237 0.021160483 0.033946823
-0.011713266 -0.027516942 -0.0347932 -0.026008917 0.035898704 -0.030185282 0.033648416 0.018977396
0.008297227 -0.018646637 -0.004536625 -0.021821165 -0.030957699 0.037156735 -0.04948963 0.006853399
0.014474314 -0.007536959 -0.04802092 0.01686348 0.027798 0.02431995 -0.026441135 -0.027837506
-0.0015333199 0.036434513 0.033853795 -0.039898824 -0.04369003 -0.030220322 -0.041700114 -0.03685254
-0.040238656 -0.024390267 -0.011694344 0.04202679 -0.0020059277 0.019554343 0.015883494 -0.025573453
-0.025709487 0.0073988596 -0.005403463 0.03289393 0.005287919 -0.040731046 0.01944853 0.0013143495
0.014100112 0.006148885 0.03796234 0.02698713 0.022346944 0.028613012 0.026816208 0.0041180295
-0.03360183 0.027393322 -0.0295458 0.025694301 0.009980019 0.03579211 0.01574406 0.019309986
0.042523235 0.039016385 -0.045717623 -0.03277997 0.036325436 0.010881089 0.00046295562 0.019093245
-0.0050625466 0.009285718 0.005047977 -0.0129622575 -0.046564966 0.029003251 0.011221718 -0.012744376
-0.0009725578 -0.007891193 0.018218365 0.036959242 0.041256327 -0.0040564593 -0.008758042 0.0018244572
0.0350496 -0.0044253506 -0.0138499485 0.04150605 -0.042545266 0.0391036 0.040360857 0.036186557
0.03598139 -0.023012996 0.014194568 -0.0059999526 0.011291789 0.020275071 -0.03894779 -0.01556969
0.006739013 0.028145652 -0.014553641 0.040118422 0.02788376 -0.023148699 -0.04087574 -0.018543238
-0.02120929 0.0022766297 -0.011774827 -0.042965405 0.022206662 0.026761547 -0.044476464 0.032008547
0.032837097 0.025732333 -0.0096804425 0.0035205346 -0.00082399324 0.014309193 0.027362641 -0.019040165
-0.030407736 0.017701082 0.0110441595 0.020530406 0.033625428 0.0019623898 0.03787734 0.007880058
-0.0106299035 0.00013984367 0.020893792 -0.03141617 -0.01676284 0.019465515 0.037467845 -0.012126274
0.03446542 -0.0268347 0.00055234483 -0.032097355 0.027625423 0.037958357 0.0077602975 -0.0329079
0.01172654 0.031976078 0.03287695 0.0036382067 -0.045270354 0.03082396 0.029689724 -0.027279874
-0.027667698 -0.025716884 -0.010373592 -0.040043157 0.021697786 0.036381308 -0.034758713 -0.022913834
0.010035224 -0.04112424 0.023540791 0.012735106 -0.009541571 -0.03887861 -0.04246774 0.015171862
0.010085469 0.020640243 0.013315496 -0.03235356 -0.035145473 -0.0014137588 -0.039370216 0.02860976
-0.007542778 -0.021632653 0.007194842 0.03662703 0.030991692 -0.030869927 -0.026734225 -0.003464155
-0.02269398 -0.023200016 -0.013204225 0.03787462 0.030779472 0.023709035 0.012403801 -0.040729586
-0.046330497 0.025093507 -0.0035323836 -0.019701011 0.035972644 -0.034993023 -0.014455628 0.011156082
00000000: 0703 1b3b bc11 61bc fa0a b53c 030f ed3c
00000010: ba40 f33c 83f0 fabc a52e adbc 790a debc
00000020: 45df 26bd cce6 593c f239 0a3d b9cb fc3c
00000030: 82aa 0bbd 69dd 163d 2903 0abd 92eb ebbc
00000040: 4034 c1bc bbfe 083d b05b 00bc 98fc 3c3c
00000050: 607b 693c 6a59 9c3c bb9f 0e3d 22df e73c
00000060: 3e9c c33c 6750 063d fef8 5bbc fbfa d8bc
00000070: 7160 133d 0188 663b 14eb 123d 3b6f a3bc
00000080: 70f0 b4bb ea62 23bd 663b 92bc 4c28 82bc
00000090: 5494 1e3c 4b43 d73c eab3 0eba 28b9 fc3c
000000a0: 4d16 e2bc a38b 28bd a210 a33c 5a66 393c
000000b0: eac7 03bd 58be 43bc c058 ad3c d30b 0b3d
000000c0: 00e9 3fbc 366b e1bc 5183 0ebd a710 d5bc
000000d0: 850a 133d 2047 f7bc ecd2 093d 7c76 9b3c
000000e0: 18f1 073c d5c0 98bc f8a7 94bb 4dc2 b2bc
000000f0: 009b fdbc a931 183d a3b5 4abd 7a92 e03b
00000100: ac25 6d3c 98f8 f6bb 96b1 44bd 4825 8a3c
00000110: a2b8 e33c a23a c73c 149b d8bc 7b0b e4bc
00000120: aef9 c8ba 5b3c 153d 47aa 0a3d f36c 23bd
00000130: 51f4 32bd 9c90 f7bc bdcd 2abd b0f2 16bd
00000140: 4ad1 24bd 19ce c7bc a299 3fbc 4924 2c3d
00000150: e275 03bb 6e30 a03c 1a1e 823c 6b7f d1bc
00000160: b49c d2bc 2272 f23b 880f b1bb c9bb 063d
00000170: 4846 ad3b 99d5 26bd 8652 9f3c 4046 ac3a
00000180: 2804 673c 967c c93b 667e 1b3d 1d14 dd3c
00000190: f010 b73c d665 ea3c aaad db3c 89f0 863b
000001a0: 13a2 09bd f667 e03c 090a f2bc db7c d23c
000001b0: 3c83 233c bf9a 123d b0f9 803c fa2f 9e3c
000001c0: d82c 2e3d a5cf 1f3d 6742 3bbd 4a44 06bd
000001d0: fbc9 143d 9846 323c dab8 f239 7069 9c3c
000001e0: b8e3 a5bb 2023 183c 8069 a53b a65f 54bc
000001f0: e8ba 3ebd 3a98 ed3c 4cdb 373c cacd 50bc
00000200: 40f3 7eba 104a 01bc ae3e 953c 9362 173d
00000210: 65fc 283d 0cec 84bb e47d 0fbc a022 ef3a
00000220: 2b90 0f3d 8802 91bb e5ea 62bc 3f02 2a3d
00000230: f243 2ebd 192b 203d 6d51 253d 5b38 143d
00000240: 3961 133d c085 bcbc 5590 683c 409b c4bb
00000250: 3201 393c e817 a63c b887 1fbd 0318 7fbc
00000260: f0d2 dc3b b691 e63c 6572 6ebc 3753 243d
00000270: 7c6c e43c 57a2 bdbc 526d 27bd fde7 97bc
00000280: 1bbf adbc 8233 153b 34eb 40bc 7efc 2fbd
00000290: bfea b53c 083b db3c f42c 36bd 651b 033d
000002a0: 3180 063d 9dcc d23c b89a 1ebc c5b8 663b
000002b0: 4001 58ba 1b71 6a3c 9e27 e03c 1ffa 9bbc
000002c0: a519 f9bc dc01 913c 90f2 343c 622f a83c
000002d0: d1ba 093d 709b 003b 4525 1b3d 5c1b 013c
000002e0: 0c29 2ebc 00a3 1239 7529 ab3c 3eae 00bd
000002f0: 3952 89bc 2576 9f3c e277 193d 48ad 46bc
00000300: 9d2b 0d3d 72d4 dbbc 3ccb 103a 8478 03bd
00000310: b64e e23c 397a 1b3d 184a fe3b 6fca 06bd
00000320: ac20 403c 59f9 023d fba9 063d fb6e 6e3b
00000330: 686d 39bd 8882 fc3c dd37 f33c 0b7a dfbc
00000340: 5ea7 e2bc 37ac d2bc 00f6 29bc 4b04 24bd
00000350: 8ebf b13c 9104 153d 275f 0ebd cbb5 bbbc
00000360: c86a 243c e471 28bd 9ed8 c03c e8a6 503c
00000370: 4054 1cbc 2d3f 1fbd a7f2 2dbd 6793 783c
00000380: 863d 253c ba15 a93c 3d29 5a3c 2b85 04bd
00000390: b3f4 0fbd e04d b9ba aa42 21bd 045f ea3c
000003a0: 6829 f7bb f636 b1bc b6c2 eb3b 3906 163d
000003b0: 4ae2 fd3c eee2 fcbc bc01 dbbc e006 63bb
000003c0: bae8 b9bc f60d bebc 8956 58bc 6b22 1b3d
000003d0: 3b25 fc3c 7339 c23c 5039 4b3c 11d4 26bd
000003e0: 0cc5 3dbd e690 cd3c 907f 67bb 0464 a1bc
000003f0: 0d58 133d d854 0fbd 4cd7 6cbc 00c8 363c

fc2.bias f4 [256]
-0.030530633 0.024088949 -0.024936905 -0.024128253 -0.044524927 -0.0011725053 -0.007816718 0.030019466
-0.026917282 -0.029534666 -0.02556442 0.030741997 0.02589295 -0.032644063 -0.019781502 -0.0030659426
0.020609075 0.020308547 -0.01281634 0.006872799 0.0026718709 -0.0145376595 -0.039558694 0.026586516
0.014339799 -0.0126194535 0.006415614 -0.026357448 0.017003978 -0.033206582 0.047442134 -0.018494759
-0.014020068 0.0051987343 -0.014040368 0.011018787 -0.01566806 -0.042835724 -0.018926434 0.039861925
0.0334972 0.025701648 0.035702903 0.043521184 -0.031598367 0.014749299 -0.04312758 0.019644462
0.03880089 -0.045239244 0.030991402 -0.03713515 0.030831063 0.0079975035 0.023811841 0.009849593
-0.027824476 -0.02335295 -0.06709701 0.016490277 -0.003000449 0.016409643 0.02596824 -0.0070487102
0.019247327 0.02193379 -0.030557642 -0.041765016 0.025049794 -0.026295766 0.004169811 0.030658053
-0.011467426 0.023787308 0.0044549853 -0.0019799666 0.002214142 0.040091004 0.033838585 -0.047658283
0.0029383264 -0.007130284 -0.01789809 -0.025260726 0.0055857324 0.10622867 0.039799422 -0.02975611
-0.0051133633 0.010075341 0.008758226 0.027232708 0.017881244 0.028597597 0.03329036 -0.028437158
0.048213687 -0.0021334356 -0.04289796 -0.026416918 0.021951357 -0.005328462 -0.0058803316 0.028623387
-0.049146265 -0.031914435 0.018771136 -0.0001181428 0.039455216 0.0035260508 -0.04341935 0.03614104
0.019382175 -0.048835237 -0.016269436 -0.009821061 0.027664898 0.02311848 -0.017208787 -0.013224669
-0.017435111 -0.024372093 -0.032359205 0.014617377 0.03790373 -0.041320108 -0.028077157 0.016712932
-0.008107927 -0.01799966 -0.0046514384 0.0038751177 -0.035774082 -0.04202762 -0.022329615 0.032783225
0.034760054 -0.046225894 -0.0048955083 -0.010601603 0.027784685 0.02072521 -0.022915758 0.033020515
0.03124838 -0.021913972 -0.037375998 -0.029398615 -0.0025437959 -0.043663397 -0.0072674206 0.0039799623
-0.021667028 -0.04132523 -0.018974127 -0.0146874515 0.011600494 0.020410037 -0.034609407 -0.035795894
-0.03301086 0.018697312 0.0056035966 -0.025837936 -0.0023173264 0.037258968 0.0013355366 0.03674445
0.04355303 0.034281842 -0.008825066 -0.010850511 0.017466359 0.019226283 0.005765049 0.021879962
-0.028263098 -0.008025462 0.034433324 0.010031992 0.020628873 0.030388562 -0.018790554 0.021971896
0.015379189 0.010906066 0.016095866 0.016223256 -0.014540433 -0.0053549 -0.004771647 0.024978103
-0.023793751 0.008301407 -0.0047661955 -0.01791075 -0.028391255 -0.0021839216 0.028594421 -0.053925864
0.0064274636 0.010932051 0.033222225 -0.016504077 0.028847788 0.01063879 0.0036171547 -0.0002655761
-0.07274032 -0.01580773 -0.02804565 -0.018556265 0.04115827 0.021792917 0.012917366 -0.03847418
0.015953124 0.057854146 -0.02336571 0.017349344 0.008361425 0.0034574964 0.015823122 -0.039021496
-0.008936142 -0.013376945 -0.024568774 -0.05020962 -0.0031489653 -0.03775175 -0.009793118 0.01281833
-0.024672072 -0.0013099869 0.032555647 0.0031335058 -0.004461961 -0.041893404 0.025300039 -0.008652453
-0.014145627 0.03777797 -0.013297811 0.009175912 -0.017551865 -0.016716389 0.034506332 0.009250035
-0.045264333 0.024996927 0.03811766 0.028288666 0.02428145 -0.043346483 -0.03263557 0.013394228
00000000: 611b fabc 3056 c53c 7b48 ccbc 9da8 c5bc
00000010: c55f 36bd c0ae 99ba b111 00bc 62eb f53c
00000020: a281 dcbc aff2 f1bc 796c d1bc a4d6 fb3c
00000030: 741d d43c c8b5 05bd d10c a2bc fbed 48bb
00000040: 5dd4 a83c 1c5e a63c a0fb 51bc 3735 e13b
00000050: 8e1a 2f3b 5d2f 6ebc 4c08 22bd f7cb d93c
00000060: 7af1 6a3c d3c1 4ebc 123a d23b 93eb d7bc
00000070: ed4b 8b3c a003 08bd af52 423d 5282 97bc
00000080: 6db4 65bc 255a aa3b 9209 66bc 2488 343c
00000090: 4e5a 80bc 8374 2fbd 9c0b 9bbc 4246 233d
000000a0: 5c34 093d 438c d23c 353d 123d 4543 323d
000000b0: 4a6d 01bd 0ba7 713c 8ca6 30bd 6ced a03c
000000c0: afed 1e3d c94c 39bd aee1 fd3c 071b 18bd
000000d0: 6d91 fc3c f607 033c 0d11 c33c 3060 213c
000000e0: 28f0 e3bc b04e bfbc 286a 89bd 9e16 873c
000000f0: 2ea3 44bb 846d 863c 59bb d43c def8 e6bb
00000100: 92ac 9d3c 7eae b33c 0554 fabc cb11 2bbd
00000110: 3a35 cd3c 386a d7bc e9a2 883b 9926 fb3c
00000120: dfe1 3bbc 9add c23c 20fb 913b 54c2 01bb
00000130: 231b 113b 7736 243d 549a 0a3d 5535 43bd
00000140: f090 403b 28a5 e9bb 049f 92bc 95ef cebc
00000150: 8508 b73b 6b8e d93d b804 233d 16c3 f3bc
00000160: 008e a7bb 0b13 253c aa7e 0f3c 2117 df3c
00000170: b07b 923c 8245 ea3c 795b 083d 0bf5 e8bc
00000180: b77b 453d 1cd1 0bbb c5b5 2fbd 4b68 d8bc
00000190: 55d3 b33c 619a aebb ccaf c0bb 987b ea3c
000001a0: 984d 49bd b6b8 02bd edc5 993c 6fc3 f7b8
000001b0: cb9b 213d 5115 673b 7dd8 31bd a108 143d
000001c0: 5ec7 9e3c 7507 48bd 7b47 85bc 84e8 20bc
000001d0: 7fa1 e23c f762 bd3c 71f9 8cbc 48ac 58bc
000001e0: 14d4 8ebc fca7 c7bc 168b 04bd b97d 6f3c
000001f0: f140 1b3d 463f 29bd 1102 e6bc 8fe9 883c
00000200: 1cd7 04bc 0674 93bc 186b 98bb b0f5 7d3b
00000210: d887 12bd 2725 2cbd 99ec b6bc b447 063d
00000220: 8f60 0e3d 5d57 3dbd 806a a0bb 59b2 2dbc
00000230: b59c e33c eac7 a93c d4b9 bbbc 8540 073d
00000240: 9afc ff3c ee84 b3bc 9317 19bd 5dd5 f0bc
00000250: d0b5 26bb 64d8 32bd 8b23 eebb 586a 823b
00000260: 0d7f b1bc a544 29bd a16f 9bbc a3a3 70bc
00000270: 0010 3e3c f332 a73c 98c2 0dbd b79e 12bd
00000280: 6536 07bd 1b2b 993c 609e b73b 14aa d3bc
00000290: 49de 17bb dc9c 183d 2c0d af3a 5981 163d
000002a0: a964 323d 1e6b 0c3d 0297 10bc 57c6 31bc
000002b0: 9c15 8f3c 7080 9d3c bce8 bc3b 9b3d b33c
000002c0: 0388 e7bc 3a7d 03bc f509 0d3d 395d 243c
000002d0: e2fd a83c 6ff1 f83c a6ee 99bc 68fe b33c
000002e0: fef8 7b3c 5baf 323c 7adb 833c a2e6 843c
000002f0: ff3a 6ebc 2878 afbb 7a5b 9cbb e19e cc3c
00000300: 1deb c2bc a002 083c bf2d 9cbb 91b9 92bc
00000310: c794 e8bc 2020 0fbb d93e ea3c 5ee1 5cbd
00000320: 799d d23b 581c 333c 0714 083d 8f33 87bc
00000330: 3252 ec3c 524e 2e3c c90d 6d3b 053d 8bb9
00000340: e0f8 94bd 367f 81bc febf e5bc 4f03 98bc
00000350: 9395 283d 0f87 b23c 5ca3 533c 1a97 1dbd
00000360: 20b0 823c 78f8 6c3d 7269 bfbc 3620 8e3c
00000370: 5cfe 083c 2a97 623b 7e9f 813c 01d5 1fbd
00000380: e568 12bc f92a 5bbc 7444 c9bc 9aa8 4dbd
00000390: df5e 4ebb 94a1 1abd 5073 20bc f903 523c
000003a0: 161d cabc deb3 abba 1259 053d 815b 4d3b
000003b0: a435 92bb 6b98 2bbd 0742 cf3c 05c3 0dbc
000003c0: 0fc3 67bc 13bd 1a3d 10df 59bc 9056 163c
000003d0: eec8 8fbc cff0 88bc 8356 0d3d 758d 173c
000003e0: 1867 39bd 5bc6 cc3c 4321 1c3d a2bd e73c
000003f0: e4e9 c63c 158c 31bd e0ac 05bd 7773 5b3c

fc3.weight f4 [128, 256]
-0.009389722 0.0056933686 0.029906802 0.017578915 -0.0069326162 -0.049023062 -0.05597186 0.02038864
0.01185137 0.053106904 -0.057019148 0.004499361 -0.04862667 -0.033762544 -0.032837063 0.04363435
-0.03886465 0.04959011 0.028030813 0.044675983 0.006571956 -0.01630415 -0.06119041 -0.025660634
-0.033663422 0.023068875 0.009259037 0.044686444 0.025897779 0.044298127 -0.039712187 0.038239688
-0.022760905 0.005355321 -0.066657625 0.03073484 0.049530197 -0.049715757 0.010941334 -0.019018874
0.04295902 0.03145264 0.041058965 0.0011105239 -0.008606449 0.03607764 0.002654694 0.012378842
-0.0429279 -0.048901293 0.048150025 0.0425087 0.055704758 -0.028262377 -0.0007175803 0.028507859
-0.05950883 0.045821507 -0.042429056 0.052584857 -0.006879896 0.03168825 -0.03811243 -0.0031864643
-0.045385532 -0.045709543 -0.04379545 -0.02405554 -0.031340748 -0.049405716 0.01392214 0.010975964
-0.018012293 0.057357125 -0.030666776 -0.038286492 -0.04497758 -0.032340966 -0.015772697 -0.05042486
0.02488809 0.029154643 0.0055847513 -0.043899767 -0.026088335 -0.004363606 -0.03633149 0.041580975
-0.049675256 0.06082803 0.013734318 0.017631136 -0.028569764 -0.061339512 0.04445439 -0.00809025
-0.0270596 -0.024477439 -0.034198344 -0.036101624 0.03347949 -0.014323428 -0.06008494 0.023181953
-0.063483015 -0.022521924 0.015271327 0.0061068996 0.042815603 0.0011116862 0.062205084 0.041412294
-0.009565424 -0.031088846 -0.0005091727 -0.053044245 -0.007521552 -0.008616839 0.006320335 -0.045858197
-0.024139777 0.022154294 0.033134744 0.055342734 0.012975954 0.05705153 0.009176485 0.023066193
0.027661093 0.023408659 -0.054578334 0.03349574 -0.0076774284 -0.05917398 0.06210672 0.042432904
0.030125864 -0.04101537 0.008409282 -0.028765514 -0.051283054 -0.039152186 0.020548522 0.008702536
0.060872614 0.008239947 -0.057762526 -0.010345277 0.010790572 0.02510354 0.05317369 -0.033104956
-0.019580916 -0.06628196 -0.03443808 0.032561854 -0.05071055 0.0022038668 0.014882824 0.04714977
-0.048961826 0.03509596 0.0023690984 -0.02913148 -0.02701857 -0.027804092 -0.0016165749 -0.023665145
0.02465748 0.03990858 -0.023340672 -0.016569227 -0.065769516 -0.064234056 -0.027355006 -0.011376649
0.0033052117 -0.061972998 0.024935879 -0.060687475 0.027746774 -0.040831313 0.028687067 -0.016551927
0.05112929 -0.0108213425 -0.0060339347 0.061661184 -0.050244015 -0.052527554 0.036323637 0.025942259
0.022914998 -0.034465864 -0.026786484 0.035267815 0.052783415 -0.057275392 -0.034625627 -0.0046060546
-0.021804834 -0.0615353 0.052515276 -0.059388973 -0.04054357 0.060251504 0.03432291 -0.014734754
-0.02496554 0.007926084 -0.015876457 0.025596062 0.051552333 -0.041593127 -0.050691977 0.018870376
-0.054957952 0.04577702 0.041336823 -0.019975185 0.042493924 -0.054411106 0.015558717 0.042862788
0.021822633 -0.058171093 -0.0037926212 -0.027128167 0.04303757 -0.014382086 -0.03664676 -0.008950397
0.020818334 -0.031182438 -0.05760795 -0.039323192 -0.045628592 -0.058844693 0.030649513 -0.0109839365
0.02792953 0.022605516 0.012249025 -0.0075566336 0.02028849 -0.052425973 0.05121537 -0.0039873123
0.058393434 0.009018041 0.04918944 0.04283169 0.05106616 0.038591355 -0.061781935 -0.06839046
00000000: 59d7 19bc 708f ba3b 1cff f43c a801 903c
00000010: 002b e3bb 68cc 48bd c042 65bd 1406 a73c
00000020: 402c 423c a086 593d e98c 69bd 606f 933b
00000030: c22c 47bd 984a 0abd 2880 06bd efb9 323d
00000040: 8a30 1fbd 001f 4b3d e0a0 e53c 2afe 363d
00000050: 9059 d73b 4890 85bc cca2 7abd 4036 d2bc
00000060: a8e2 09bd f0fa bc3c 37b3 173c 2209 373d
00000070: 9427 d43c f471 353d 3fa9 22bd 38a1 1c3d
00000080: 1475 babc b07b af3b cb83 88bd a2c7 fb3c
00000090: 2de0 4a3d c0a2 4bbd 4843 333c 78cd 9bbc
000000a0: ccf5 2f3d 7cd4 003d 722d 283d 008f 913a
000000b0: 1002 0dbc 26c6 133d 60fa 2d3b a0d0 4a3c
000000c0: 2ad5 2fbd b94c 48bd f638 453d 9a1d 2e3d
000000d0: ac2a 643d 8086 e7bc 001c 3cba 5089 e93c
000000e0: 88bf 73bd 55af 3b3d 17ca 2dbd 3863 573d
000000f0: c070 e1bb 8acb 013d c81b 1cbd 00d4 50bb
00000100: 2ee6 39bd ee39 3bbd dc62 33bd 2010 c5bc
00000110: 285f 00bd a65d 4abd b019 643c 88d4 333c
00000120: 848e 93bc 4eef 6a3d e438 fbbc 4cd2 1cbd
00000130: 693a 38bd f677 04bd be35 81bc 4c8a 4ebd
00000140: 1ce2 cb3c b8d5 ee3c 4a00 b73b 3ed0 33bd
00000150: 34b7 d5bc 95fc 8ebb 54d0 14bd d050 2a3d
00000160: 4878 4bbd d026 793d e805 613c 2c6f 903c
00000170: 230b eabc 243f 7bbd ce15 363d f88c 04bc
00000180: 18ac ddbc e984 c8bc 9013 0cbd 4cdf 13bd
00000190: ca21 093d d0ac 6abc a01b 76bd 14e8 bd3c
000001a0: 6203 82bd e67f b8bc 9734 7a3c 631c c83b
000001b0: 6a5f 2f3d 00b6 913a c2ca 7e3d f09f 293d
000001c0: 4cb8 1cbc 09ae febc 007a 05ba ec44 59bd
000001d0: 5a77 f6bb a42d 0dbc d01a cf3b ced5 3bbd
000001e0: c8c0 c5bc ec7c b53c 4cb8 073d 10af 623d
000001f0: 1999 543c ddae 693d f858 163c 50f5 bc3c
00000200: 8499 e23c 84c3 bf3c 888d 5fbd d432 093d
00000210: f092 fbbb 6a60 72bd 9e63 7e3d 20ce 2d3d
00000220: 84ca f63c bcff 27bd 16c7 093c a8a5 ebbc
00000230: 2e0e 52bd 0b5e 20bd 6055 a83c 1595 0e3c
00000240: 9055 793d d800 073c 6698 6cbd 3d7f 29bc
00000250: f0ca 303c f0a5 cd3c a8cc 593d 1099 07bd
00000260: 2868 a0bc d6be 87bd f20e 0dbd 945f 053d
00000270: deb5 4fbd c06e 103b 17d7 733c 1e20 413d
00000280: 328c 48bd c8c0 0f3d e042 1b3b 24a5 eebc
00000290: 0c56 ddbc 68c5 e3bc 41e3 d3ba 68dd c1bc
000002a0: 7cfe c93c 2e77 233d f034 bfbc 30bc 87bc
000002b0: 2bb2 86bd 258d 83bd 9b17 e0bc 2065 3abc
000002c0: 409c 583b 66d7 7dbd 5446 cc3c 6e93 78bd
000002d0: 344d e33c bc3e 27bd 2401 eb3c e897 87bc
000002e0: f26c 513d 004c 31bc 50b8 c5bb 7090 7c3d
000002f0: abcc 4dbd 2227 57bd 18c8 143d dc84 d43c
00000300: 3cb8 bb3c 142c 0dbd 546f dbbc fc74 103d
00000310: 6c33 583d 9a99 6abd 9ad3 0dbd 63ee 96bb
00000320: 0da0 b2bc 700c 7cbd 421a 573d da41 73bd
00000330: 0411 26bd 48ca 763d 2e96 0c3d 0a6a 71bc
00000340: 8884 ccbc 68dc 013c 580f 82bc d5ae d13c
00000350: 8a28 533d 8e5d 2abd 64a2 4fbd 0c96 9a3c
00000360: 971b 61bd af80 3b3d cd50 293d 00a3 a3bc
00000370: 1c0e 2e3d 2ede 5ebd fde9 7e3c e490 2f3d
00000380: 61c5 b23c d044 6ebd a08d 78bb e43b debc
00000390: 2a48 303d d7a2 6bbc ea1a 16bd b0a4 12bc
000003a0: 368b aa3c 5072 ffbc 50f6 6bbd 5b11 21bd
000003b0: 0ce5 3abd 2207 71bd b014 fb3c f8f5 33bc
000003c0: 78cc e43c 342f b93c 22b0 483c a39d f7bb
000003d0: 0c34 a63c 9ebc 56bd 35c7 513d 00a8 82bb
000003e0: f42d 6f3d 68c0 133c de7a 493d 4870 2f3d
000003f0: c02a 513d f811 1e3d 0e0f 7dbd 4c10 8cbd

fc3.bias f4 [128]
0.03333463 -0.058546517 0.018683724 0.0004866836 -0.02628649 0.03444355 0.033340238 -0.07314064
0.0113995485 -0.035063226 -0.000802192 0.019489259 -0.052504033 0.043710332 -0.08141503 0.03389436
-0.06772853 0.09154438 0.03525086 -0.049017955 0.04513554 0.041864447 -0.035739254 -0.039859097
0.05494054 0.033939272 -0.00860658 -0.07746565 -0.045757957 -0.022849685 -0.0026493312 -0.020097803
-0.04006628 0.0003447946 0.0052748327 0.034277216 0.044575866 0.02974133 -0.037811093 -0.03327823
-0.05179841 -0.058575418 0.03187334 -0.03384452 -0.03958856 -0.07739991 -0.0018393494 0.0033531978
0.029554382 -0.0023361817 -0.026018055 -0.13262348 -0.01789873 0.10475776 0.05330137 0.016252188
-0.05789426 -0.0048988997 -0.035965133 -0.08758813 0.02134711 -0.06706968 0.05086697 -0.04534867
0.0788761 -0.054992333 0.036759384 -0.07124545 -0.05451968 -0.03642298 -0.035198912 -0.035974327
-0.040793065 0.07407291 0.09886317 -0.0034028867 0.13454719 -0.015756631 -0.06550438 0.057309955
0.01712656 -0.050260354 -0.07978554 -0.02414976 -0.016501373 0.019006819 -0.03097794 -0.07207316
0.044886664 -0.01951411 -0.09786737 -0.038129516 0.035613842 -0.051658418 0.047035746 0.048291035
-0.007201031 -0.01462341 -0.04625497 0.004662244 -0.060054503 -0.056935042 -0.0139103355 0.10029061
-0.06591501 -0.04247171 0.047719534 0.03528178 0.008642829 0.12712231 -0.0076862294 -0.047851913
-0.10025086 0.0041664573 -0.060311936 -0.06425163 -0.07057894 0.064517505 0.016663015 -0.0053205313
-0.058856435 0.049338635 0.10632348 0.013907236 -0.046519652 0.030346679 -0.04882285 0.05892729
00000000: e589 083d 79ce 6fbd 9c0e 993c 9129 ff39
00000010: c456 d7bc ae14 0d3d c68f 083d c3ca 95bd
00000020: 2cc5 3a3c 759e 0fbd 324a 52ba f0a7 9f3c
00000030: 780e 57bd 9b09 333d ecbc a6bd d0d4 0a3d
00000040: 41b5 8abd 9f7b bb3d 3563 103d 0dc7 48bd
00000050: 0be0 383d 0e7a 2b3d 5363 12bd 4b43 23bd
00000060: 5509 613d e803 0b3d 9d02 0dbc 50a6 9ebd
00000070: b26c 3bbd 432f bbbc 67a0 2dbb 26a4 a4bc
00000080: 8a1c 24bd 8cc5 b439 81d8 ac3b 4466 0c3d
00000090: 2f95 363d 17a4 f33c cedf 1abd c14e 08bd
000000a0: 922a 54bd c7ec 6fbd 9f8d 023d 8da0 0abd
000000b0: 9d27 22bd d883 9ebd 5316 f1ba 53c1 5b3b
000000c0: 081c f23c a01a 19bb d123 d5bc 73ce 07be
000000d0: 5ba0 92bc 3d8b d63d 8a52 5a3d 4f23 853c
000000e0: 8822 6dbd f386 a0bb 2d50 13bd 6861 b3bd
000000f0: 22e0 ae3c d45b 89bd e259 503d 87bf 39bd
00000100: cb89 a13d a43f 61bd 0291 163d 22e9 91bd
00000110: 0750 5fbd 4330 15bd bc2c 10bd d159 13bd
00000120: a116 27bd 8ab3 973d c678 ca3d f702 5fbb
00000130: bdc6 093e 0d14 81bc 2927 86bd d8bd 6a3d
00000140: 004d 8c3c cddd 4dbd 9a66 a3bd b8d5 c5bc
00000150: e32d 87bc 30b4 9b3c 73c5 fdbc 189b 93bd
00000160: 14db 373d 0edc 9fbc b06e c8bd b22d 1cbd
00000170: d2df 113d c797 53bd 8ea8 403d d2cc 453d
00000180: a0f6 ebbb 0797 6fbc da75 3dbd bdc5 983b
00000190: b6fb 75bd b834 69bd 2de8 63bc 2a65 cd3d
000001a0: 73fe 86bd d1f6 2dbd 8f75 433d a183 103d
000001b0: a79a 0d3c 5a2c 023e c4dc fbbb 5e00 44bd
000001c0: 5350 cdbd c786 883b a609 77bd 5c96 83bd
000001d0: b18b 90bd c121 843d e080 883c da57 aebb
000001e0: 7213 71bd 4f17 4a3d 20c0 d93d 2ddb 633c
000001f0: 648b 3ebd 9999 f83c 78fa 47bd be5d 713d

out.weight f4 [7, 128]
0.043327216 0.0508187 -0.076458424 -0.023712806 0.025198355 -0.0040066466 0.62930053 -0.26891944
0.023377433 0.3937597 0.049189292 -0.06518836 -0.19866234 -0.2415838 -0.044804316 -0.06988847
-0.36435902 0.06641818 0.15997902 -0.10216121 0.02100981 0.08724535 0.026636131 0.0044696494
0.3352979 0.11279154 -0.24910964 0.009332015 -0.08876422 0.15328707 -0.17541414 0.77989376
-0.008157276 -0.021467974 0.043927565 -0.0049288813 0.2423246 0.040232487 -0.044261064 -0.03773526
-0.022775134 0.00028005158 0.09533035 0.026403284 0.047193374 -0.16227531 0.09371239 0.058622997
-0.032752994 -0.03972999 -0.023810143 -0.029235952 -0.0058274046 0.07251828 0.064147316 -0.00095166935
-0.038510483 0.007999885 0.06325235 0.2115603 0.096415296 0.09418889 -0.0104051605 -0.056580987
0.5192118 0.0006479452 0.009390235 -0.06782628 -0.023827033 -0.009987264 0.06610688 -0.16420043
-0.05395095 0.5453281 0.110007845 -0.3455999 0.061295588 -0.027009547 -0.06813835 0.14263783
0.049228813 -0.23159169 0.44322407 -0.055837575 -0.120200545 0.07360601 -0.30246803 -0.36719033
0.021658123 -0.13001709 0.0619733 0.061973043 0.056250393 0.04636567 -0.051913504 0.12153347
-0.0244587 -0.11688495 0.005869641 -0.014121786 -0.06481268 -0.2513311 -0.49953434 0.11970717
-0.05115463 0.07036178 0.100059435 -0.19971038 0.0771576 0.26925233 0.04163498 0.034100518
-0.12579878 0.006743257 -0.051123485 -0.018147243 -0.010368125 0.12732156 -0.052141897 0.09412686
-0.20516765 0.089018665 0.3408349 0.4899508 -0.25024876 0.08549889 -0.012777421 -0.0009614527
0.07341364 -0.018478753 -0.07042157 0.047674485 0.087827764 -0.05606065 0.6696119 -0.18116355
0.07078963 0.45059666 -0.03474138 -0.051843014 -0.43700188 -0.32920346 0.022811456 -0.018547393
-0.34523803 0.11055931 0.11827404 0.04712342 0.010427855 0.15628934 0.0015951548 0.026337555
0.19106646 0.03413105 -0.30189815 -0.053693265 -0.10362702 0.13262273 -0.07599519 0.67714334
-0.026001075 -0.029495653 -0.026337856 -0.06603847 0.25722978 0.042403765 -0.048445195 -0.016919047
-0.02799086 -0.03874084 0.117001094 0.10817937 -0.056935683 -0.15677986 0.086475454 0.053997237
-0.07721373 0.07987014 -0.021657182 0.040191323 -0.06675224 0.12619513 -0.00428313 -0.0395739
0.05233936 -0.033848554 -0.006082445 0.22054107 0.046972066 -0.06763458 0.054241978 -0.055870954
0.4053239 -0.00391102 -0.067314595 0.038433 -0.009947323 -0.011304614 0.07086479 -0.17126235
-0.036976412 0.51302695 0.06451444 -0.23868385 0.08833715 -0.038194213 0.010802681 0.13614613
-0.03638434 -0.40941572 0.31388575 -0.086235434 -0.20043743 0.08328031 -0.3110286 -0.35424927
0.00026115277 -0.11895283 0.012688925 -0.008533317 -0.0026450239 0.0045026536 0.07457771 0.0994464
-0.06641002 -0.02350627 0.003190383 0.042632762 -0.038589083 -0.1338912 -0.5347537 0.061297182
0.031927336 -0.067817606 0.054864414 -0.29612657 0.12904085 0.25044408 0.036922127 0.03863273
-0.20023094 -0.06261049 0.06958946 0.04981973 0.011019379 0.12845117 -0.00062331127 0.094246
-0.30471388 0.24596423 0.42210034 0.5369482 -0.25488102 0.10246178 0.00015831021 0.026615545
00000000: e177 313d 4527 503d 3c96 9cbd 5c41 c2bc
00000010: c86c ce3c 304a 83bb d719 213f cfaf 89be
00000020: 0882 bf3c df9a c93e b67a 493d 7a81 85bd
00000030: 246e 4bbe be61 77be bb84 37bd b021 8fbd
00000040: 448d babe 4106 883d 8ad1 233e e539 d1bd
00000050: c41c ac3c b1ad b23d 0434 da3c 2376 923b
00000060: 2bac ab3e 40ff e63d 9916 7fbe 4fe5 183c
00000070: 04ca b5bd 49f7 1c3e c49f 33be 1ea7 473f
00000080: 18a6 05bc 9bdd afbc 64ed 333d 7482 a1bb
00000090: f123 783e d2ca 243d 174b 35bd 4a90 1abd
000000a0: eb92 babc e3d3 9239 8f3c c33d b34b d83c
000000b0: d74d 413d 802b 26be 48ec bf3d ab1e 703d
000000c0: 0128 06bd eabb 22bd 7d0d c3bc 3c80 efbc
000000d0: d0f3 bebb 7784 943d ab5f 833d 7379 79ba
000000e0: 2bbd 1dbd f311 033c 738a 813d 43a3 583e
000000f0: 6275 c53d 1be6 c03d 687a 2abc 77c1 67bd
00000100: 11eb 043f deda 293a 80d9 193c 81e8 8abd
00000110: e930 c3bc 9fa1 23bc 0b63 873d 2824 28be
00000120: acfb 5cbd 9f9a 0b3f cb4b e13d 78f2 b0be
00000130: 1511 7b3d 2043 ddbc 1f8c 8bbd a70f 123e
00000140: 27a4 493d 5f26 6dbe 44ee e23e f1b5 64bd
00000150: b42b f6bd bfbe 963d 17dd 9abe 5f00 bcbe
00000160: 606c b13c 3323 05be b7d7 7d3d 72d7 7d3d
00000170: d066 663d eee9 3d3d 41a3 54bd 8ae6 f83d
00000180: 9d5d c8bc 6061 efbd 1e56 c03b 105f 67bc
00000190: 83bc 84bd 78ae 80be f7c2 ffbe 0829 f53d
000001a0: 8487 51bd d619 903d f6eb cc3d e180 4cbe
000001b0: ce04 9e3d 71db 893e 7189 2a3d fcac 0b3d
000001c0: 65d1 00be 8af6 dc3b dc66 51bd 87a9 94bc
000001d0: 11df 29bc 9560 023e be92 55bd 95c5 c03d
000001e0: 7817 52be 6b4f b63d e981 ae3e d5da fa3e
000001f0: 9b20 80be 0b1a af3d 6358 51bc 000a 7cba
00000200: e459 963d c160 97bc 2f39 90bd 5246 433d
00000210: 0bdf b33d da9f 65bd af6b 2b3f f082 39be
00000220: 27fa 903d 9bb4 e63e fa4c 0ebd 5759 54bd
00000230: b6be dfbe 5b8d a8be 17df ba3c b4f0 97bc
00000240: 0ac3 b0be eb6c e23d a939 f23d 7d04 413d
00000250: 98d9 2a3c 500a 203e 8314 d13a dbc1 d73c
00000260: eda6 433e 00cd 0b3d 6592 9abe 78ed 5bbd
00000270: 673a d4bd 41ce 073e 5ea3 9bbd 4459 2d3f
00000280: 3500 d5bc dea0 f1bc 7dc2 d7bc 2d3f 87bd
00000290: 9fb3 833e 92af 2d3d 786e 46bd d099 8abc
000002a0: 174d e5bc b7ae 1ebd 459e ef3d 258d dd3d
000002b0: 6435 69bd e68a 20be 0b1a b13d 352c 5d3d
000002c0: 3b22 9ebd f592 a33d 676a b1bc a89f 243d
000002d0: 66b5 88bd 4c39 013e 8059 8cbb 3e18 22bd
000002e0: cc61 563d c8a4 0abd 3f4f c7bb 85d5 613e
000002f0: c865 403d 0084 8abd d62c 5e3d f1d8 64bd
00000300: 9d86 cf3e 0328 80bb 3cdc 89bd ec6b 1d3d
00000310: 19fa 22bc fd36 39bc 8f21 913d 665f 2fbe
00000320: 9474 17bd bc55 033f 2620 843d 8a69 74be
00000330: 1cea b43d 8971 1cbd bafd 303c e469 0b3e
00000340: bf07 15bd f09e d1be a2b5 a03e 349c b0bd
00000350: 783f 4dbe de8e aa3d 243f 9fbe 2960 b5be
00000360: 55eb 8839 8b9d f3bd 35e5 4f3c 53cf 0bbc
00000370: 2358 2dbb ff8a 933b 33bc 983d 8eaa cb3d
00000380: fa01 88bd 3990 c0bc bf15 513b b19f 2e3d
00000390: 960f 1ebd c61a 09be 9ee5 08bf c112 7b3d
000003a0: 3dc6 023d f5e3 8abd 82b9 603d e79d 97be
000003b0: 4923 043e 353a 803e a83b 173d 5a3d 1e3d
000003c0: 5709 4dbe ee39 80bd eb84 8e3d c60f 4c3d
000003d0: a08a 343c b488 033e b665 23ba 0c04 c13d
000003e0: 7503 9cbe 0cde 7b3e 891d d83e 7075 093f
000003f0: c47f 82be 7bd7 d13d 1300 2639 d808 da3c

out.bias f4 [7]
0.015663119 0.018168319 0.036438588 -0.019528206 0.19833903 0.12370422 0.19152762
00000000: f14f 803c bad5 943c a140 153d 9ef9 9fbc
00000010: 6319 4b3e a358 fd3d d11f 443e
