trained_models/dqn_shooter_75.pt (torch, 684244 bytes, 8 tensors)

fc1.weight f4 [512, 9]
0	0xbea1a68f	-0.31572387
1	0x3d971cd3	0.07378545
2	0xbeaa0e1a	-0.33213884
3	0x3e995471	0.29947236
4	0xbe169286	-0.14704332
5	0xbe73acd0	-0.23796391
6	0x3e7f5872	0.24936083
7	0xbe8c199b	-0.27363285
8	0xbe774233	-0.24146347
9	0xbe1e4686	-0.1545659
10	0xbe803f52	-0.2504831
11	0x3e0cf3e6	0.13764915
12	0xbe9c7d53	-0.30564365
13	0x3e3f9fce	0.18713304
14	0x3e72d9da	0.23715916
15	0xbd810f2c	-0.06301722
16	0x3e913ab9	0.28365114
17	0xbe81d154	-0.25355017
18	0xbda99e89	-0.08282191
19	0xbe84f488	-0.25967813
20	0x3bcdeb58	0.0062841587
21	0x3d83ae84	0.064297706
22	0xbe8da960	-0.27668285
23	0xbe70e362	-0.2352424
24	0x3e4dffb0	0.20117068
25	0x3e3afd02	0.18260577
26	0xbdd4811c	-0.10376188
27	0x3e916d4b	0.28403696
28	0x3e74e23d	0.23914428
29	0xbded254e	-0.11579381
30	0x3dfbfef4	0.12304488
31	0xbe2bb18b	-0.16766946
32	0x3d8226a7	0.063550286
33	0x3e8aeb32	0.27132565
34	0x3e8362c0	0.25661278
35	0xbee7700a	-0.45202667
36	0x3ec5ab66	0.3860733
37	0xbe04c9ef	-0.12967657
38	0xbd41ccc2	-0.047314413
39	0x3e443adb	0.19163077
40	0x3d86fa52	0.065907136
41	0x3e00fe4e	0.1259701
42	0x3e35dc10	0.17759728
43	0x3d1d9688	0.038473636
44	0x3cb7adfc	0.02242183
45	0x3cf6fa63	0.03014869
46	0x3e70219f	0.23450325
47	0x3e835aa7	0.256551
48	0x3e83332a	0.25624973
49	0xbe22630e	-0.15858099
50	0xbcfc8d86	-0.030829202
51	0xbe974226	-0.29542655
52	0xbd92b546	-0.071634814
53	0x3e951d96	0.29124135
54	0xbcd74b39	-0.026280986
55	0xbd8e13c3	-0.06937363
56	0x3cdc9079	0.026924359
57	0x3e7b9517	0.24568592
58	0x3dd721d5	0.105045
59	0xbe7d3512	-0.24727276
60	0x3e92c8a2	0.28668696
61	0x3e8964c1	0.26834682
62	0x3d199043	0.037491094
63	0xbe7044a5	-0.23463686
64	0x3de4b6ae	0.11167656
65	0xbd71e0c4	-0.059052244
66	0x3d75ad0e	0.05997949
67	0x3e843ce1	0.25827697
68	0x3d892db9	0.06698174
69	0x3e9d340c	0.3070377
70	0xbe4ab085	-0.197939
71	0x3e7adc34	0.24498063
72	0xbe711338	-0.23542488
73	0x3e38035e	0.17970034
74	0xbe37ed9e	-0.17961738
75	0xbe3db01e	-0.18524215
76	0x3e95aaf1	0.2923198
77	0xbe1c1c33	-0.15245132
78	0xbe454f5b	-0.19268553
79	0xbe4afe8b	-0.19823663
80	0xbe17872b	-0.14797656
81	0xbe823ab5	-0.25435415
82	0xbe06a0ad	-0.1314723
83	0x3b99ec61	0.004697368
84	0x3dc64a26	0.096821114
85	0xb993c919	-0.00028187854
86	0x3db1f93e	0.08690117
87	0xbe977294	-0.29579604
88	0xbe72541e	-0.236649
89	0xbeb4fef0	-0.35350752
90	0x3e3ae0d0	0.18249822
91	0x3ea8bcd8	0.32956576
92	0x3e6559a5	0.22397478
93	0x3e5efdfb	0.21776573
94	0xbe33eb15	-0.17570145
95	0xbc11875b	-0.008882369
96	0x3c6ebc1f	0.014571219
97	0x3e0f3826	0.13986263
98	0x3c69481f	0.014238386
99	0xbe771b33	-0.2413147
100	0x3c695c11	0.014243142
101	0x3d1c789e	0.038200967
102	0x3e3b3d72	0.18285158
103	0x3e933963	0.2875472
104	0xbd6caefb	-0.057784062
105	0x3c9b774e	0.018977787
106	0x3d85e625	0.06538037
107	0x3d9fed48	0.0780893
108	0xbe94e18a	-0.29078323
109	0xbe647960	-0.22311926
110	0xbe5a8ea3	-0.21343474
111	0xbe450393	-0.19239645
112	0x3c16b300	0.00919795
113	0x3b348880	0.002754718
114	0xbe8c0dd0	-0.27354288
115	0xbdb414d0	-0.08793032
116	0x3ea30c67	0.318454
117	0x3e282742	0.16421226
118	0xbe17f3ee	-0.14839146
119	0x3deb839c	0.11499712
120	0xbea6fc34	-0.3261429
121	0xbe0180e3	-0.12646823
122	0x3e2641a0	0.16235971
123	0xbe9eda8b	-0.3102611
124	0xbcc7ae00	-0.024374962
125	0xbe32ce48	-0.17461503
126	0xbe1d2769	-0.15347065
127	0xbe8eec47	-0.2791464
128	0x3e955b2c	0.2917112
129	0x3e267e37	0.16259085
130	0xbe00f7ba	-0.125945
131	0xbe55dbb2	-0.20884588
132	0xbe042c16	-0.12907442
133	0x3e2a9701	0.16659166
134	0xbe30da1b	-0.172707
135	0xbda3eefc	-0.08004567
136	0xbdb739f6	-0.08946602
137	0x3e861cc1	0.26193812
138	0xbdf819c0	-0.121142864
139	0x3e1e7732	0.15475157
140	0xbe44c023	-0.1921392
141	0x3d50e008	0.050994903
142	0x3e1d6daa	0.15373865
143	0x3e9be2a7	0.3044636
144	0xbecff4ce	-0.4061646
145	0xbe8afcbe	-0.27145952
146	0xbea1dc5f	-0.31613442
147	0x3e92950e	0.28629345
148	0xbea19b2a	-0.31563693
149	0x3def7dce	0.11693917
150	0xbe276757	-0.16348015
151	0xbde83301	-0.11337853
152	0x3cba3cbf	0.022734044
153	0xbd5ab098	-0.05339107
154	0x3de5f8dc	0.11229107
155	0xbdc18546	-0.09449248
156	0xbe7fab66	-0.24967727
157	0x3e686b0a	0.22697082
158	0x3e65398a	0.2238523
159	0xbbb6a4c0	-0.005573839
160	0x3e146fda	0.14495793
161	0xbd31d300	-0.043414116
162	0xbdab9bbc	-0.08379313
163	0xbddf3fc6	-0.10900836
164	0xbe7d2ea3	-0.24724822
165	0xbe91065c	-0.28325164
166	0xbeaa52ec	-0.3326639
167	0x3e91a96b	0.28449568
168	0xbe56f876	-0.20993218
169	0xbe5735d6	-0.2101663
170	0xbbdfa600	-0.0068252087
171	0xbe2ab96b	-0.16672294
172	0x3e07cf6e	0.13262722
173	0xbe45116b	-0.19244926
174	0xbe71d5f8	-0.23616779
175	0xbea2e3ce	-0.31814426
176	0xbe00200b	-0.12512223
177	0xbe0fca43	-0.14042
178	0x3e3cd6c6	0.18441305
179	0x3e4be09e	0.19909903
180	0xbe566e30	-0.2094047
181	0xbe3ed316	-0.1863521
182	0xbe1a536b	-0.15070884
183	0xbe87b390	-0.26504183
184	0x3b4eec80	0.003157407
185	0xbea79c18	-0.32736278
186	0x3e392bea	0.18083158
187	0xbdc253bc	-0.09488627
188	0x3e9012dd	0.28139392
189	0x3e573a31	0.21018292
190	0xbd8d76af	-0.06907403
191	0xbe92651b	-0.28592762
192	0xbd7e9087	-0.06214955
193	0x3cf3aed8	0.029746458
194	0xbe6cfe5b	-0.23143904
195	0xbca5c190	-0.0202339
196	0xbe66ab2c	-0.22526234
197	0xbea2a347	-0.31765196
198	0xbead6f95	-0.33874193
199	0x3e0cec3e	0.13761994
200	0x3da66a71	0.08125771
201	0x3e8a2f8e	0.26989406
202	0x3da40b0a	0.08009918
203	0x3e44917b	0.19196121
204	0x3e8759fe	0.26435846
205	0x3ea437a6	0.32073706
206	0x3e5809e6	0.21097526
207	0x3b44e880	0.0030045807
208	0x3e4a2542	0.19740775
209	0xbdd04a50	-0.10170424
210	0xbe0316de	-0.12801692
211	0x3e769bca	0.24082866
212	0x3e87c37b	0.26516327
213	0xbde4a3ec	-0.11164078
214	0x3ea858dd	0.32880297
215	0x3ea11b95	0.31466356
216	0xbe077873	-0.13229541
217	0x3e19dc5f	0.15025471
218	0x3e870e39	0.2637804
219	0x3e002e6e	0.12517712
220	0x3e442338	0.1915406
221	0x3e3e0bde	0.18559214
222	0xbd0c5d43	-0.03426863
223	0xbdd3a9f6	-0.10335152
224	0x3ed8a73f	0.423151
225	0x3c874638	0.016512975
226	0xbcdc4ba4	-0.026891537
227	0xbe579ab9	-0.21055116
228	0x3d56183c	0.052269205
229	0x3e8a8af9	0.27059153
230	0x3e44d3cb	0.19221418
231	0x3e492223	0.19641928
232	0x3d9a0557	0.0752055
233	0xbf00f47a	-0.5037304
234	0xbec7f60d	-0.3905491
235	0x3e569bd2	0.20957878
236	0x3e914e4a	0.28380042
237	0x3c64c714	0.01396348
238	0xbd614d1e	-0.055005185
239	0xbe0f20e3	-0.13977389
240	0xbd89fa26	-0.06737165
241	0xbea6f209	-0.32606533
242	0x3e535532	0.20637968
243	0x3ea363ce	0.31912082
244	0x3d9fada9	0.07796795
245	0x3e853dc8	0.26023698
246	0xbd8d14b5	-0.06888715
247	0xbe3b6d54	-0.18303424
248	0x3e69d39e	0.22834632
249	0x3e8854d3	0.26627216
250	0xbe065da2	-0.13121656
251	0x3e2d2f1d	0.16912504
252	0xbda96934	-0.08272019
253	0x3e514f66	0.20440444
254	0x3e3393ea	0.17536893
255	0xbe575f0e	-0.21032354

fc1.bias f4 [512]
0	0xbe211445	-0.15730388
1	0xbdf25420	-0.11832452
2	0x3dc446af	0.09583794
3	0x3dfdcdc6	0.12392764
4	0xbda30e27	-0.07961684
5	0x3dc1d305	0.09464077
6	0x3e24132b	0.16022937
7	0xbe1f908e	-0.15582487
8	0x3e1fa4a0	0.15590143
9	0xbd510e41	-0.051038984
10	0xbda7cf58	-0.081938446
11	0x3e9cdbae	0.30636352
12	0x3d083898	0.033257097
13	0x3e535c12	0.20640591
14	0xbcb4a90a	-0.02205326
15	0x3e82f1d7	0.25575134
16	0xbe99f1ba	-0.30067235
17	0x3e804e33	0.2505966
18	0xbd5afba0	-0.053462625
19	0xbe52d440	-0.2058878
20	0x3e792a22	0.24332479
21	0xbe6312eb	-0.22175185
22	0xbc6fdf5a	-0.0146406535
23	0x3e9c86fb	0.30571732
24	0x3e8eddae	0.27903503
25	0xbe5b4c58	-0.21415842
26	0xbe1a5a80	-0.15073586
27	0xbe98b72c	-0.2982725
28	0x3e6f8f22	0.23394445
29	0x3e5ae082	0.21374705
30	0x3e8a567b	0.27019104
31	0xbdd6ac96	-0.10482137
32	0x3e669f8c	0.225218
33	0xbddbb93c	-0.1072869
34	0x3e1c2764	0.15249401
35	0x3ddbb3f0	0.1072768
36	0x3ea15ab5	0.31514516
37	0xbc968e70	-0.018378466
38	0x3e91b407	0.28457662
39	0x3de230a4	0.11044434
40	0xbe086f28	-0.13323653
41	0xbe7c068e	-0.24611875
42	0xbdaf5af0	-0.08562267
43	0x3e30037a	0.17188826
44	0x3d39c968	0.04535809
45	0x3e304fda	0.17217961
46	0x3deb7e2c	0.11498675
47	0x3e6eab4f	0.23307537
48	0x3e612919	0.21988334
49	0x3e2eedff	0.17082976
50	0xbcb76580	-0.022387266
51	0x3dfd315c	0.1236293
52	0x3e23dc5e	0.16002032
53	0xbe6d2f01	-0.23162462
54	0xbea194fa	-0.31558973
55	0x3ea1bd45	0.31589714
56	0x3db8682b	0.090042435
57	0x3ea52e5f	0.3226194
58	0xbd8f6549	-0.070017405
59	0xbe876725	-0.2644588
60	0x3cee4217	0.029084248
61	0xbea01383	-0.31264886
62	0xbda2f34a	-0.0795656
63	0xbe11464e	-0.14186975
64	0xbe9263fd	-0.2859191
65	0xbc870549	-0.016482012
66	0xbe74036e	-0.23829433
67	0x3c8ad370	0.016946524
68	0x3e279f5b	0.16369383
69	0xbc931888	-0.017956033
70	0xbe3e81e4	-0.18604237
71	0xbc3780ab	-0.01120011
72	0xbddc301d	-0.107513644
73	0xbd9dba5c	-0.07701561
74	0x3e8d7f89	0.27636364
75	0xbea91997	-0.33027336
76	0xbe4dfe03	-0.20116429
77	0xbe4bfa73	-0.19919758
78	0xbe85be25	-0.2612163
79	0x3d2db3df	0.042407867
80	0x3cc0b8ab	0.023525557
81	0x3d92c489	0.07166392
82	0x3e58f8de	0.21188685
83	0x3e0a68b7	0.13516508
84	0xbc18d7e0	-0.009328812
85	0xbe6ff1d0	-0.23432088
86	0xbde638de	-0.11241315
87	0x3d45b54d	0.048268605
88	0x3e95f559	0.29288748
89	0x3e7d05d5	0.24709256
90	0xbea902d6	-0.33009976
91	0xbe91949e	-0.28433698
92	0xbcbf27f0	-0.023334473
93	0xbea6a6a7	-0.3254902
94	0x3e9ee646	0.3103506
95	0x3d618ba0	0.055064797
96	0xbd9eae12	-0.07748045
97	0x3e27e88c	0.16397303
98	0x3df74e6f	0.12075507
99	0x3dd04b12	0.101705685
100	0xbe617d78	-0.22020519
101	0xbd897453	-0.0671164
102	0xbc38d2e0	-0.011280745
103	0x3d343168	0.04399243
104	0xbe124349	-0.1428348
105	0xbe70b9a6	-0.2350832
106	0xbe3c546e	-0.18391582
107	0xbe243f27	-0.16039716
108	0xbe60a206	-0.21936807
109	0xbd4bca8e	-0.049753718
110	0x3cd82050	0.026382595
111	0x3e9cb79c	0.30608833
112	0xbe6c0e71	-0.23052384
113	0x3e1a3df9	0.15062703
114	0x3e37ada5	0.17937334
115	0xbeb322ca	-0.3498748
116	0xbe7dc69b	-0.24782793
117	0x3e9392cb	0.28822932
118	0xbe8bdd2a	-0.27317172
119	0x3ddf602a	0.10907014
120	0xbe84296c	-0.25812852
121	0x3d2e17ef	0.042503294
122	0xbdf85d50	-0.12127173
123	0x3e69de3e	0.22838685
124	0x3e6fa8e6	0.23404273
125	0xbd800bae	-0.06252228
126	0xbc8de1fa	-0.017319668
127	0x3e6e501b	0.23272745
128	0xbd4c11a5	-0.049821515
129	0x3e45f896	0.1933311
130	0x3e748516	0.23878893
131	0x3e5321ca	0.20618358
132	0xbde66ea0	-0.11251569
133	0x3e791f14	0.24328262
134	0x3e880a8b	0.26570544
135	0xbde2b606	-0.110698745
136	0xbc26187e	-0.010137675
137	0xbe98a21b	-0.29811177
138	0x3e927d58	0.28611255
139	0xbda09c2a	-0.07842286
140	0xbd4f6c68	-0.050640494
141	0x3e1a9182	0.1509457
142	0xbd70d5f4	-0.05879779
143	0x3c89cfc2	0.0168227
144	0xbea24f46	-0.31701106
145	0x3da84e34	0.08218041
146	0x3e52d562	0.20589212
147	0xbe8aa8d3	-0.27081928
148	0xbd98942b	-0.07450136
149	0xbdd00676	-0.10157482
150	0xbc6207bd	-0.01379579
151	0x3e05b72d	0.13058157
152	0xbd675202	-0.056474693
153	0x3d173c38	0.036922663
154	0xbe7beea6	-0.24602756
155	0xbe026f5b	-0.12737791
156	0xbea5128c	-0.32240713
157	0x3e61f56b	0.22066276
158	0x3e5f4c2a	0.21806398
159	0xbdf013f0	-0.11722553
160	0xbdaa6f6f	-0.083220355
161	0xbd8afb60	-0.06786227
162	0xbdff2c21	-0.12459589
163	0xbe6b338b	-0.22968881
164	0x3dc02f33	0.093840025
165	0xbe81f684	-0.2538339
166	0x3d92c751	0.07166923
167	0xbe470506	-0.1943551
168	0x3dfbaca1	0.12288786
169	0xbcbc9010	-0.023017913
170	0x3c5e6091	0.013572828
171	0x3d19b488	0.037525684
172	0x3d78aa00	0.060709
173	0xbea66bf3	-0.32504234
174	0xbe645b5b	-0.22300474
175	0xbe725f8c	-0.2366926
176	0xbe54d449	-0.20784105
177	0x3e9b2e6a	0.3030885
178	0x3ea7bc63	0.32760915
179	0xbea264fa	-0.31717664
180	0xbe90525a	-0.2818783
181	0xbea7fe33	-0.32811126
182	0xbd215dfb	-0.039396267
183	0x3e45f04e	0.1932995
184	0x3e46086c	0.1933915
185	0xbdbee9ac	-0.09321913
186	0xbe231d3d	-0.15929122
187	0xbcb77ee6	-0.022399377
188	0xbc2e6920	-0.010645181
189	0xbea7d4f6	-0.32779664
190	0xbe0eb8d3	-0.13937692
191	0x3d7d01e0	0.061769366
192	0x3c6f5a02	0.014608862
193	0x3d0fc61c	0.03510104
194	0xbe543652	-0.20723847
195	0xbea6d2df	-0.32582757
196	0xbe70a28e	-0.2349951
197	0xbd80cf21	-0.06289507
198	0xbe47a50d	-0.19496556
199	0x3c990670	0.018679827
200	0x3db67825	0.089096345
201	0xbe6d8be3	-0.23197894
202	0x3e64df7c	0.22350878
203	0xbe608e8f	-0.21929382
204	0xbe711f4e	-0.23547098
205	0xbe027583	-0.1274014
206	0xbdb6ec91	-0.0893184
207	0xbea1f23f	-0.31630132
208	0x3d3889ac	0.04505317
209	0x3e09323b	0.13398068
210	0xbea25818	-0.31707835
211	0x3d9eea3c	0.077595204
212	0xbe773157	-0.24139915
213	0xbe9426dd	-0.289359
214	0xbe9800af	-0.29688022
215	0xbea0aaa0	-0.31380177
216	0xbe5b5651	-0.21419646
217	0xbe01c513	-0.12672834
218	0x3e8661d5	0.26246515
219	0x3e685234	0.22687608
220	0x3d3e13e3	0.046405684
221	0x3e0c3b96	0.13694605
222	0xbe86767b	-0.26262268
223	0xbd6fc68f	-0.05853897
224	0x3e8e6819	0.27813795
225	0xbe65a606	-0.22426614
226	0x3e55bc90	0.20872712
227	0xbe6e27d8	-0.23257387
228	0x3ea90fb1	0.33019784
229	0x3e34124a	0.17585102
230	0x3e5816fa	0.21102515
231	0xbdf6bab2	-0.12047328
232	0x3e343b9a	0.17600861
233	0xbce2db10	-0.027692348
234	0xbe45e403	-0.19325261
235	0x3e8905a9	0.2676213
236	0x3e5b12cd	0.2139389
237	0x3e89f358	0.2694347
238	0xbe121c73	-0.14268665
239	0x3ba17143	0.004926832
240	0x3e405a62	0.18784478
241	0xbe385a65	-0.18003233
242	0xbe937c26	-0.28805655
243	0xbe7097b8	-0.23495376
244	0xbe4aff83	-0.19824032
245	0xbe9b9857	-0.30389664
246	0x3e51ff83	0.20507626
247	0xbbe29cbb	-0.0069156564
248	0xbeae4688	-0.34038186
249	0x3d177768	0.03697911
250	0x3e8994af	0.2687125
251	0xbe8ca2db	-0.27468
252	0x3e00c113	0.12573652
253	0xbe17bed3	-0.14818887
254	0xbd9f6d60	-0.077845335
255	0xbe167b51	-0.14695479

fc2.weight f4 [256, 512]
0	0xbc6a778f	-0.014310732
1	0x3be7daa0	0.0070756227
2	0xbd41977a	-0.0472636
3	0xbd0e3c15	-0.034725267
4	0xbd3f5eae	-0.046721153
5	0x3c7c95a3	0.015416536
6	0xbcc7ea07	-0.024403585
7	0xbcdbc36d	-0.026826585
8	0x3cbdf482	0.02318788
9	0xbc6d352a	-0.014478007
10	0xbcd46b47	-0.02593006
11	0x3cee8b68	0.029119208
12	0x3b308720	0.002693601
13	0xbc3e5188	-0.011616118
14	0xbcb1b8f7	-0.021694643
15	0x3ad7bf40	0.0016460195
16	0xbc2ad2b0	-0.010426208
17	0xbcc8d821	-0.02451712
18	0x3c942d2c	0.018087946
19	0xbc775696	-0.015096327
20	0x3cb90bca	0.02258863
21	0xbd332c62	-0.0437435
22	0x3c08557f	0.008321165
23	0xbd0a45e8	-0.033758074
24	0x3cc469e2	0.02397627
25	0xbcbbaced	-0.022909606
26	0xbd0fa074	-0.03506513
27	0xbd1c7581	-0.038197998
28	0xbd3061d9	-0.043062065
29	0xbc7fc5d2	-0.015611129
30	0xbc8e9530	-0.017405123
31	0x3d1f42af	0.038881954
32	0x3c08dbb8	0.008353166
33	0xbbb210a0	-0.0054341108
34	0xbc4175da	-0.011807883
35	0x3d056651	0.03256828
36	0xbbd600b0	-0.0065308437
37	0x3d14625b	0.03622661
38	0xbc3134ba	-0.010815794
39	0xbc35b1f8	-0.011089794
40	0xbc9bbc89	-0.019010799
41	0xbd04bfbc	-0.032409415
42	0xbbc71db0	-0.006076537
43	0xbc8d397c	-0.017239325
44	0xbd23569c	-0.03987752
45	0xbca76599	-0.020434188
46	0xbd2428aa	-0.040077843
47	0x3cfd78fb	0.030941477
48	0x3b8939a4	0.0041877795
49	0x3bdd5241	0.00675419
50	0xbcc73693	-0.024318015
51	0xbb026661	-0.0019897448
52	0x3d12e383	0.035861503
53	0x3ba892b7	0.005144443
54	0xbc888636	-0.01666556
55	0x3cdde656	0.027087372
56	0xbcd08911	-0.025455983
57	0x3cbbf80a	0.022945423
58	0x3c43de05	0.011954789
59	0xbc862bce	-0.01637831
60	0xbaa6eb36	-0.0012734893
61	0xbd1fdd24	-0.039029256
62	0xbcbf3183	-0.023339039
63	0x3d0ad0b7	0.033890452
64	0xbc62b4f6	-0.01383709
65	0x3abb3074	0.0014281408
66	0x3c117270	0.008877382
67	0xbcc4e0b4	-0.024032928
68	0xbce5783e	-0.028011438
69	0xbccee319	-0.025254773
70	0xbb6eaded	-0.0036419586
71	0xbca2855b	-0.01983898
72	0x3cf7a465	0.030229757
73	0x3d0b46c3	0.03400303
74	0xbd26afce	-0.040695004
75	0xbc6729ca	-0.014109084
76	0xbd19a562	-0.037511237
77	0xbd01d94c	-0.03170137
78	0x3d1fdb1d	0.039027322
79	0xbb5fbce7	-0.0034139694
80	0xbcab9de2	-0.020949308
81	0x3cddf50a	0.027094383
82	0xbc9b7eb5	-0.018981317
83	0x3c43223e	0.011910019
84	0x3d22ca3d	0.03974365
85	0x3beade30	0.0071676
86	0x3d105cd8	0.035244793
87	0x3cc5322b	0.024071774
88	0xbc4797f4	-0.012182225
89	0x3cbfa836	0.023395639
90	0x3cc2e79a	0.023792077
91	0xbc529225	-0.012852226
92	0xbd07ba41	-0.03313661
93	0xbc4b4c8c	-0.012408387
94	0xbcf820b8	-0.030289039
95	0x3b7fff60	0.0039062127
96	0x3cb3cf58	0.021949455
97	0xbd32bb91	-0.04363591
98	0x3c6a2e98	0.014293335
99	0xbd2acbb3	-0.04169817
100	0x3c2f944c	0.010716509
101	0x3bb551f6	0.005533452
102	0xbb8853e8	-0.004160393
103	0xbc035364	-0.008015487
104	0xbd049ac7	-0.03237417
105	0xbcadaf8a	-0.021201868
106	0xbb61bb00	-0.0034443736
107	0xbd56f4b7	-0.052479472
108	0x38ed1400	0.00011304766
109	0xbd02570a	-0.03182129
110	0x3cb5c492	0.022188459
111	0xbc134870	-0.008989438
112	0xbbfc387e	-0.007697164
113	0xbd28c18c	-0.041200206
114	0x3c9acfaf	0.01889786
115	0x3cdc679b	0.026904872
116	0xbbb29098	-0.005449366
117	0xbd1e9dd8	-0.03872475
118	0x3c6d5d0c	0.014487516
119	0xbcffa93d	-0.031208629
120	0xbd201913	-0.039086413
121	0xbc8dd967	-0.01731558
122	0x3cd0b450	0.025476605
123	0xbd341c84	-0.043972507
124	0xbba28a38	-0.0049603246
125	0xbd3f0c46	-0.046642564
126	0xbd1896a5	-0.03725304
127	0x3d16659a	0.03671799
128	0x3cac516e	0.021034922
129	0xbca1836d	-0.019715989
130	0xbcee29c6	-0.029072654
131	0xbcc34172	-0.023834918
132	0xbad9cf20	-0.0016617514
133	0xbc1bb78b	-0.009504209
134	0xbc92bcc2	-0.017912272
135	0x3c150ffc	0.009098049
136	0xbd09b9a5	-0.03362431
137	0xbd218088	-0.039429218
138	0x3bf85da8	0.007579524
139	0xbb1a6590	-0.002355907
140	0xbc38a940	-0.011270821
141	0x3c94cbbe	0.018163558
142	0x3d206650	0.039160073
143	0x3ba45c65	0.005015897
144	0xbd1fb963	-0.038995158
145	0xbce65556	-0.028116863
146	0x3c6b9c50	0.0143805295
147	0xbd155cc8	-0.036465436
148	0x39d1c51d	0.00040010447
149	0x3c0ff074	0.008785356
150	0xbcf84749	-0.030307429
151	0xbc0c9336	-0.00858002
152	0x3c31d0ed	0.010853034
153	0xbae0c140	-0.0017147437
154	0xbb6cb740	-0.0036119968
155	0xbc9bfe43	-0.01904214
156	0xbd2ca89c	-0.042152986
157	0x3bafebd8	0.005368691
158	0xbd34435e	-0.04400956
159	0x3c4a3eb0	0.012344047
160	0xbbaf7a76	-0.0053551747
161	0x3d2564d1	0.04037935
162	0x3cb78fa7	0.022407366
163	0xbb960f51	-0.0045794626
164	0x3cd5a652	0.026080284
165	0xbbcc30eb	-0.0062314174
166	0xbd1f91a4	-0.038957253
167	0x3cbe50df	0.023231922
168	0xbb30fcf4	-0.002700624
169	0x3c919d0c	0.017775081
170	0x3bb32355	0.0054668584
171	0xbd17dd69	-0.037076388
172	0x3bcebd70	0.006309204
173	0xbd253bfb	-0.040340405
174	0xbc9249bc	-0.017857425
175	0x3cfdfe14	0.031004943
176	0x3cffec7c	0.031240694
177	0x3c8dd1c0	0.01731193
178	0x3d1dd31b	0.038531404
179	0x3c66a04b	0.014076303
180	0xbc7d76fb	-0.015470262
181	0xbcd2c992	-0.025730882
182	0xbbcb1262	-0.0061972598
183	0x3ca0db37	0.01963578
184	0x3d1f8a26	0.038950108
185	0xbd3c283d	-0.04593681
186	0xbd0da1c2	-0.034578092
187	0xbce0ded7	-0.027450008
188	0xbc7a8ea1	-0.015292794
189	0xbd37ebd0	-0.044902623
190	0x3d037e5f	0.03210294
191	0xbb497cd5	-0.0030744572
192	0x3d054454	0.032535866
193	0x3cfbc9b7	0.030735834
194	0x3d0561a5	0.032563824
195	0x3c8c61a2	0.017136399
196	0x3cb8bb1a	0.022550154
197	0x3cf660ed	0.030075515
198	0x3b3cac8e	0.0028789374
199	0x3c221cb8	0.009894542
200	0x3d21b880	0.039482594
201	0xbcc4ce93	-0.024024284
202	0x3ce908aa	0.028446514
203	0x3d1115f3	0.035421323
204	0x3cced012	0.0252457
205	0x3ccd646e	0.025072303
206	0x3c7044f4	0.014664877
207	0x3cb782ce	0.02240124
208	0xbcdb16bd	-0.02674424
209	0x3d1359bf	0.03597426
210	0x3b356450	0.00276782
211	0x3ceb4ae2	0.02872223
212	0x3cfeb495	0.031091968
213	0xbcc7af93	-0.024375712
214	0xbcda50bc	-0.026649825
215	0xbd2922f6	-0.041293107
216	0x3c2ad306	0.0104262885
217	0x3a7cc340	0.00096421316
218	0xbbe751b0	-0.0070592985
219	0xbb67ce80	-0.0035370886
220	0xbceebe90	-0.029143602
221	0x3c7885de	0.015168635
222	0xbc71af8e	-0.014751328
223	0xbc9525b8	-0.018206462
224	0x3bf47897	0.0074606645
225	0x3d01f555	0.031728107
226	0x3d0ee255	0.034883816
227	0x3b4e3150	0.0031462498
228	0x3ce84636	0.028353792
229	0xbd015b06	-0.031580947
230	0xbcc65f04	-0.024215229
231	0x3c85581d	0.016277367
232	0xbc3aa454	-0.011391718
233	0xbc69afd2	-0.01426311
234	0xbcc38ee8	-0.023871854
235	0x3ca53d42	0.020170812
236	0x3be21d37	0.0069004553
237	0xbd1a1236	-0.037615024
238	0x3c23f850	0.010007933
239	0x3a3b0573	0.0007134296
240	0xbc94f132	-0.018181417
241	0x3ced16c2	0.028941516
242	0xbcedbcb4	-0.029020645
243	0xbd00bdfa	-0.031431176
244	0xbca74cfb	-0.02042245
245	0xbb2296f9	-0.0024809225
246	0xbd37574f	-0.044761
247	0xbc307c98	-0.010771893
248	0xbc6de18d	-0.0145191075
249	0xbc82735c	-0.015924148
250	0x3d2a2451	0.04153854
251	0xbb327c90	-0.002723489
252	0x3cb24911	0.021763356
253	0x3cc6ebaa	0.024282295
254	0x3d258daf	0.040418323
255	0xbcfeedc5	-0.031119237

fc2.bias f4 [256]
0	0xbc499b40	-0.012305081
1	0x3b91ffe0	0.0044555515
2	0xbc6bc146	-0.014389342
3	0xbd166254	-0.036714867
4	0x3cc6a39c	0.024247937
5	0xbd0e071a	-0.03467474
6	0xbc2f6430	-0.010705039
7	0x3ce12308	0.027482525
8	0xba82cb40	-0.0009978786
9	0xbd0cba38	-0.03435728
10	0xbd188ad1	-0.03724176
11	0x3cf92908	0.030415073
12	0x3c38d5ba	0.011281425
13	0xbd3f604f	-0.046722706
14	0xbd1b9d0e	-0.037991576
15	0xbccdd125	-0.025124142
16	0xbbb2de7f	-0.0054586525
17	0xbcad39a8	-0.021145657
18	0x3d291fab	0.041289967
19	0x3d1712ec	0.03688328
20	0x3d09b233	0.03361721
21	0xbbfd9d7d	-0.0077397213
22	0x3ce27854	0.027645268
23	0xbafb2e6f	-0.0019163619
24	0x3cbad06a	0.022804458
25	0xbd224b0e	-0.03962236
26	0xbcbff5de	-0.023432668
27	0xbc470e5f	-0.012149422
28	0x3c5fe115	0.013664504
29	0x3d2108e2	0.039315112
30	0xbd127895	-0.035759527
31	0xbb359eb0	-0.0027712993
32	0xbc3e04ac	-0.011597794
33	0xbd31378a	-0.043265857
34	0xbd0c63ee	-0.034274988
35	0x3c085d40	0.008323014
36	0x3acad6c0	0.0015475377
37	0xbc4d8048	-0.012542792
38	0x3c87c21b	0.016572049
39	0x3d421391	0.04738194
40	0x3c53305c	0.012889948
41	0x3d0026b6	0.031286918
42	0x3cd5d70a	0.026103515
43	0xbc3acaa8	-0.011400856
44	0x3ce08f8e	0.027412202
45	0xbd451e2f	-0.04812449
46	0xbbe8c5f5	-0.0071036764
47	0x3cc12d5b	0.023581197
48	0xbb0750ad	-0.0020647452
49	0xbd3c3533	-0.045949172
50	0xb65f65a0	-3.3288743e-06
51	0xbd022c33	-0.031780433
52	0xbd07704e	-0.033066086
53	0xbc850171	-0.016236039
54	0x3c9f9572	0.01948044
55	0x3cd60e78	0.026129946
56	0x3d0f2078	0.034943074
57	0xbc165553	-0.009175616
58	0x3c80386e	0.015651908
59	0xbbcc4070	-0.0062332675
60	0xbd201d71	-0.039090578
61	0xbc05afee	-0.008159621
62	0xbc982167	-0.018570615
63	0xbc0db01d	-0.008647946
64	0x3ac9cec0	0.0015396699
65	0xbbbad238	-0.0057013296
66	0xbca33f59	-0.019927667
67	0xbc1d0f1e	-0.009586124
68	0x3c98b36e	0.018640246
69	0x38095517	3.274259e-05
70	0xbca56eae	-0.020194378
71	0x3be30356	0.006927888
72	0xb928b3ba	-0.00016088682
73	0x3ca47cbe	0.020079013
74	0x3b386ad3	0.0028139844
75	0x3cc62f34	0.02419243
76	0x3d12a175	0.03579851
77	0xbd401ec6	-0.046904348
78	0xbc88e477	-0.016710503
79	0x3c0a4636	0.008439591
80	0xbae33fb9	-0.0017337716
81	0x3ca14f06	0.019691002
82	0xbc26b35c	-0.010174599
83	0x3bd59314	0.006517777
84	0x3c23673e	0.009973345
85	0xbc1cc98c	-0.009569537
86	0x3c7c8a18	0.0154137835
87	0xba80f460	-0.0009838454
88	0x3cbdd33a	0.02317201
89	0x3cac2cf6	0.021017533
90	0xbc180954	-0.009279568
91	0xbd294e2a	-0.04133431
92	0x3cee4e03	0.029089933
93	0xbcfa6ae9	-0.030568557
94	0xbc949768	-0.018138602
95	0x3d3e9176	0.04652544
96	0xba971982	-0.0011527988
97	0x3b58d5f0	0.00330865
98	0x3c3efe0c	0.011657249
99	0xbc9f1f59	-0.019424127
100	0x3ca4cd94	0.020117559
101	0xbc850545	-0.016237864
102	0x3ca03004	0.019554146
103	0x3d50446f	0.050846513
104	0xbc93a599	-0.018023299
105	0x3ba5cf69	0.0050601256
106	0x3cd41452	0.025888596
107	0x3cb96e27	0.022635533
108	0x3b0b08d0	0.002121497
109	0x3d114f38	0.03547594
110	0x3d13e262	0.036104567
111	0xbd052f93	-0.032516073
112	0x3d1dfc7f	0.038570877
113	0x3d198a61	0.037485484
114	0xbcc7305f	-0.024315057
115	0xbc5f5820	-0.0136318505
116	0xbc29494b	-0.010332416
117	0xbc52987b	-0.012853737
118	0xbcf395fc	-0.029734604
119	0xbccaa03a	-0.024734605
120	0xbc17d7f0	-0.009267792
121	0xbcc247d3	-0.02371589
122	0xbc7ef1fa	-0.015560621
123	0xbb157b30	-0.0022809021
124	0x3b316e67	0.0027073862
125	0xbc3c8e8a	-0.011508593
126	0xbcdee9ac	-0.027211033
127	0xbd00af47	-0.031417158
128	0xbd088da0	-0.03333819
129	0x3c10cc5a	0.008837784
130	0x3bb27ad0	0.0054467693
131	0xbca65f4d	-0.020309115
132	0x3cb76378	0.022386298
133	0x3cc7a666	0.024371337
134	0x3c25ba99	0.010115289
135	0x3c1aa586	0.009438878
136	0xbcd7daa9	-0.026349382
137	0x3b2f633e	0.0026762034
138	0x3d037e69	0.032102976
139	0x3b341650	0.002747912
140	0x3d032618	0.03201875
141	0xba7ba6a8	-0.0009599724
142	0x3ce4241b	0.027849248
143	0xbd017cf9	-0.031613324
144	0x3c7e79b3	0.015531945
145	0x3bb20b4f	0.005433477
146	0x3d1e4c11	0.03864676
147	0x3c965ce2	0.018354837
148	0x3c78d95c	0.015188541
149	0x3c447e74	0.011993039
150	0xbd25972b	-0.040427368
151	0xbd14e2ef	-0.036349233
152	0x3c8a9d62	0.01692075
153	0x3ca6b976	0.020352107
154	0x3d1edfa1	0.038787488
155	0x3d217ec8	0.03942755
156	0xbb717549	-0.003684359
157	0x3d08ad36	0.03336831
158	0xbcc8d140	-0.02451384
159	0xbca866a2	-0.020556752
160	0x3bc62f61	0.0060481285
161	0x3cffb0ba	0.0312122
162	0xbd41380a	-0.047172584
163	0xbd10e954	-0.03537877
164	0x3c5bc50e	0.013413681
165	0xbd268aee	-0.040659837
166	0xbd0696d3	-0.03285868
167	0xbcabd69b	-0.020976355
168	0x3cd55c9d	0.026045138
169	0x3c261a64	0.010138128
170	0x3cdb0792	0.026737008
171	0xbc630458	-0.013856016
172	0x3a2bdac0	0.00065557286
173	0xbd32585c	-0.043541297
174	0xbc98d31c	-0.018655352
175	0xbc51e704	-0.012811426
176	0x394cf937	0.00019547796
177	0xbd1757ab	-0.03694884
178	0xbcb5441d	-0.022127206
179	0x3ab93400	0.0014129877
180	0xbd0a1d01	-0.033719067
181	0xbc0b1710	-0.008489385
182	0xba9cc7e0	-0.0011961423
183	0xbcefc741	-0.029269816
184	0xbd2e4b2c	-0.04255216
185	0xbd1bb2d8	-0.038012356
186	0xbc5c9ccc	-0.013465118
187	0xbca8a33e	-0.020585652
188	0x3cebb481	0.028772594
189	0x3c8c4728	0.017123774
190	0xbb834020	-0.004005447
191	0x3c9a09dd	0.018803531
192	0xbd281ffe	-0.041046135
193	0xbd03ab44	-0.032145754
194	0xbc3d3986	-0.011549359
195	0xbaf2d667	-0.0018527032
196	0xb9a63400	-0.0003170073
197	0xbcfa034e	-0.030519154
198	0xbcaea6dc	-0.0213198
199	0x3cb6e3a2	0.02232534
200	0xbd099de7	-0.033597853
201	0x3d10dd72	0.035367437
202	0x3ce9d1f9	0.028542506
203	0xbcb4ce1b	-0.022070935
204	0xbd2031a8	-0.039109856
205	0x3d07f621	0.03319371
206	0xbd06eca7	-0.032940533
207	0xbcc9b6fb	-0.024623385
208	0x3cc5be7a	0.024138678
209	0xbcc9aab7	-0.024617536
210	0x3d284c43	0.041088354
211	0xbc2a5630	-0.010396525
212	0x3d209c7f	0.039211746
213	0x3d2caaad	0.042154957
214	0x3cb08add	0.02155059
215	0xbc1ff964	-0.009764049
216	0xbc62dcfa	-0.01384663
217	0xbcdfe7cf	-0.027332215
218	0xbbd6742d	-0.006544611
219	0xbbd2bd5f	-0.006431266
220	0x3c93f6da	0.018062044
221	0xbccb2d03	-0.024801737
222	0xbc6084b7	-0.013703517
223	0xbc0ca1f2	-0.008583533
224	0x3cdee662	0.027209464
225	0xbc32a484	-0.010903481
226	0x3cc123fe	0.023576733
227	0xbd3819fe	-0.044946663
228	0x3cd345da	0.025790144
229	0x3ccb95ed	0.024851764
230	0xbb0a0334	-0.0021059038
231	0xbbe63c48	-0.007026229
232	0xbd2934c1	-0.041310076
233	0xbd0f2bda	-0.03495393
234	0xbd2310bc	-0.03981088
235	0x3cc397f3	0.023876166
236	0xbbc2ba31	-0.005942606
237	0x3d29b4f8	0.04143235
238	0x3d273c41	0.040828947
239	0xbceebf21	-0.029143872
240	0xba47ffd0	-0.00076293666
241	0xbd2faabc	-0.042887434
242	0x3c922c00	0.017843246
243	0xbd2580de	-0.0404061
244	0xbad214ac	-0.0016027889
245	0xbd2e8f17	-0.04261693
246	0x3d22357b	0.039601784
247	0xbd39b8ef	-0.045342382
248	0x3cb9346f	0.02260801
249	0x3aa1d680	0.0012347251
250	0x3cbe743e	0.023248788
251	0xbc8ce78d	-0.017200256
252	0xbcd34526	-0.025789808
253	0x3cca7172	0.024712298
254	0xbd2bba43	-0.04192568
255	0x3c968379	0.018373238

fc3.weight f4 [128, 256]
0	0xbc41b698	-0.011823319
1	0x3d678414	0.056522444
2	0xbd24ea3e	-0.040262453
3	0xbd05c95e	-0.03266274
4	0xbd69357e	-0.05693578
5	0x3cccab34	0.02498398
6	0xbcdddc0c	-0.027082466
7	0xbc0fcd28	-0.00877694
8	0xbb9ce9b0	-0.0047886
9	0x3ccc3fb0	0.024932712
10	0x3d2813c4	0.041034475
11	0x3b07e000	0.002073288
12	0x3cc9a9c4	0.024617083
13	0x3d6d7508	0.057972938
14	0xbcebb5b8	-0.028773174
15	0x3c78cba0	0.015185267
16	0x3cdba58c	0.026812337
17	0xbd102550	-0.035191834
18	0x3ba80300	0.0051273108
19	0xbc5f0fc0	-0.013614595
20	0xbd189742	-0.037253626
21	0xbd518480	-0.051151752
22	0xbcb94acc	-0.022618674
23	0xbd003588	-0.03130105
24	0xbd410258	-0.047121376
25	0xbd26f0cc	-0.040756986
26	0xbc4edde8	-0.012626149
27	0xbd196588	-0.037450343
28	0x3cc9655c	0.024584465
29	0x3d5ee1c0	0.05441451
30	0x3d6e2174	0.058137372
31	0xbd7bbe8c	-0.061461017
32	0xbd61f314	-0.055163458
33	0x3ce6fd9c	0.028197102
34	0x3cdd2618	0.026995704
35	0x3d0f6dc2	0.035016783
36	0xbd1cdbde	-0.03829562
37	0xb9a5f100	-0.0003165081
38	0xbbcd1460	-0.0062585324
39	0x3c8c5a78	0.017132983
40	0x3d256424	0.040378705
41	0x3d22ecae	0.039776497
42	0xbbe7bce0	-0.007072076
43	0x3a565700	0.0008176416
44	0x3d0f7a72	0.035028882
45	0x3d5107e4	0.051032916
46	0xbd0753d0	-0.033038914
47	0x3ccbeb84	0.024892576
48	0x3d7811a0	0.060563684
49	0xbd635ce4	-0.05550851
50	0x3d1b7e7a	0.037962414
51	0x3d3e861e	0.046514623
52	0xbce19dc4	-0.027541049
53	0xbd324434	-0.043522075
54	0xbcff6e84	-0.031180628
55	0x3c977478	0.018488154
56	0xbbc2bf80	-0.0059432387
57	0xbd40caf0	-0.047068536
58	0xbd4f5a3a	-0.050623156
59	0xb8bda800	-9.043515e-05
60	0xbcf88428	-0.030336455
61	0xbd7d9438	-0.06190893
62	0x3d6a6fec	0.057235643
63	0xbcd052b0	-0.025430053
64	0x3d3f783a	0.046745516
65	0xbc93d960	-0.018047988
66	0xbc233e00	-0.009963512
67	0xbd7a2eaa	-0.06107966
68	0xbcc916a8	-0.024546936
69	0xbd0e7526	-0.03477969
70	0x3c1f61a8	0.009727873
71	0x3d7dc20a	0.06195263
72	0xbd5ab4a6	-0.053394936
73	0xbcf2b068	-0.029625133
74	0x3c23a028	0.009986915
75	0x3d19eb2e	0.0375778
76	0x3d2e460c	0.04254727
77	0x3cb815f4	0.022471406
78	0x3c76e9f8	0.015070431
79	0xbd3df9a0	-0.04638064
80	0xbd311a94	-0.043238238
81	0x3d61e9a2	0.05515445
82	0xbb320e60	-0.0027169213
83	0xbd080e26	-0.033216618
84	0x3bb77070	0.0055981204
85	0x3b85de20	0.0040853173
86	0x3d1e0b70	0.038585126
87	0x3d302862	0.043007262
88	0xbd571472	-0.052509733
89	0x3d30ba5e	0.043146484
90	0x3c9d4cec	0.019201718
91	0xbd1d3e54	-0.03838952
92	0x3d5b4918	0.053536505
93	0x3d013220	0.031541944
94	0x3d1d3c56	0.03838762
95	0x3ceb8930	0.02875194
96	0xbc55ca78	-0.013048761
97	0xbc93c8c4	-0.018040068
98	0x3c701eb0	0.014655754
99	0xbc539028	-0.0129127875
100	0xbbb67140	-0.0055676997
101	0xbcaa76f0	-0.020808667
102	0x39223a00	0.0001547113
103	0xbba893b0	-0.005144559
104	0x3cd54080	0.026031733
105	0xbbbf6fc0	-0.005842179
106	0x3c75d928	0.015005387
107	0x3b8d4e30	0.004312299
108	0x3d60bb64	0.05486621
109	0x3c314478	0.010819547
110	0x3c9358e0	0.017986715
111	0xbd6789a4	-0.05652775
112	0xbcd3584c	-0.02579894
113	0xbd333ad8	-0.04375729
114	0x3bf66ac0	0.00752005
115	0xbcd45df4	-0.025923707
116	0x3d52fdee	0.051511697
117	0x3d21f8f8	0.039544076
118	0xbcd3d498	-0.025858209
119	0x3d0bc2e8	0.034121424
120	0x3c0eccb0	0.0087157935
121	0xbcd42e5c	-0.025901012
122	0x3b656360	0.003500186
123	0xbd4bdcc6	-0.049771093
124	0xbc9ce56c	-0.019152366
125	0x3d276dc6	0.040876172
126	0x3bf9d710	0.0076245144
127	0x3d425480	0.047443867
128	0xbd2c867e	-0.04212045
129	0x3d5f0ddc	0.054456577
130	0xbc99c8cc	-0.018772505
131	0x3b6dec20	0.0036304072
132	0xbcfb7da0	-0.030699551
133	0xbd6b9f3c	-0.057524905
134	0xbb9133a0	-0.004431203
135	0x3d67ae46	0.056562684
136	0xbc37fbd0	-0.01122947
137	0xbc1cfa40	-0.009581149
138	0xbd510622	-0.05103124
139	0x3d24de70	0.040251195
140	0xbd1be3c0	-0.038058996
141	0xbc86b9e8	-0.016446069
142	0xbd20d8ac	-0.039269134
143	0xbd2b4dc0	-0.041822195
144	0x3d130f98	0.035903543
145	0xbd17017a	-0.036866643
146	0xbd2e1ddc	-0.042508945
147	0x3c511a00	0.012762547
148	0x3d03890e	0.032113127
149	0xbd2d82e6	-0.042361163
150	0xbd12e18a	-0.035859622
151	0xbc278678	-0.010224931
152	0xbca12110	-0.019669086
153	0xbcc1b46c	-0.023645602
154	0xbad2b800	-0.0016076565
155	0xbc1b12a0	-0.00946489
156	0xbd348908	-0.044075996
157	0x3c6093a0	0.013707072
158	0x3cc88cc8	0.024481192
159	0xbc869114	-0.0164266
160	0xbd64ae62	-0.055830367
161	0xbd563db4	-0.05230494
162	0x3d2d068a	0.042242564
163	0x3cd91bf0	0.02650258
164	0xbc315a38	-0.0108247325
165	0x3c955f7c	0.018234007
166	0x3d1b3482	0.037891872
167	0x3c4a4290	0.012344971
168	0xbd504080	-0.050842762
169	0x3d6f4ef4	0.058424905
170	0x3cd75250	0.026284367
171	0xbc93e950	-0.018055588
172	0x3d34dd62	0.04415644
173	0x3cdf129c	0.027230553
174	0xbcdd6bcc	-0.02702894
175	0xbd657e44	-0.05602862
176	0x3d0e1bd8	0.034694523
177	0xbcf1ca50	-0.029515415
178	0x3bb47130	0.005506657
179	0xbc980e70	-0.018561572
180	0x3c7885b0	0.015168592
181	0xbc92f9b4	-0.017941333
182	0x3d587592	0.0528465
183	0xbd666768	-0.05625096
184	0x3c8949e4	0.016758867
185	0x3d3764e4	0.04477395
186	0x3d5b4e28	0.053541332
187	0xbcdae760	-0.026721656
188	0x3d07b51a	0.033131696
189	0x3d2923ea	0.041294016
190	0xbaef5880	-0.0018260628
191	0xbbebb940	-0.0071937144
192	0xbc371c90	-0.011176243
193	0xbcefd3c0	-0.029275775
194	0xbcd24490	-0.025667459
195	0x3cfb3724	0.030665942
196	0xbd621ab4	-0.055201247
197	0x3c27bf28	0.010238446
198	0x3d765eea	0.06014911
199	0xbd52d258	-0.05147013
200	0x3c30ce70	0.010791406
201	0xbca77f14	-0.020446338
202	0x3d582ef2	0.052779146
203	0x3d6165d0	0.055028737
204	0xbced32e8	-0.028954938
205	0x3d19ab2e	0.037516765
206	0xbbe0ab30	-0.0068563446
207	0xbd43fe50	-0.047849953
208	0x3cdce31c	0.026963763
209	0x3b4e3580	0.0031464994
210	0xbca7ab24	-0.020467348
211	0xbd53f9e8	-0.051752
212	0xbd2bba02	-0.041925438
213	0xbd7e7ac0	-0.062128782
214	0xbd379048	-0.04481533
215	0xbb9b3e40	-0.0047376454
216	0x3d70755a	0.058705665
217	0xb9ac0600	-0.00032810867
218	0xbccc8bbc	-0.024968974
219	0xb7a55000	-1.9706786e-05
220	0xbc31e318	-0.010857366
221	0xbbcd48c0	-0.006264776
222	0xbbc98f00	-0.00615108
223	0x3d4105b8	0.047124594
224	0xbd1de3a8	-0.038547188
225	0xbca85c64	-0.020551868
226	0x3cbe2044	0.023208745
227	0x3d7b4df4	0.06135364
228	0xbc3b83b8	-0.011444978
229	0x3d73e6ac	0.059546158
230	0xbd580a70	-0.05274433
231	0x3c9ab11c	0.01888328
232	0xbd169e9a	-0.036772348
233	0x3cd3e67c	0.02586674
234	0xbcec0e30	-0.028815359
235	0xbd73a2a2	-0.05948127
236	0xbcfcd538	-0.03086339
237	0xbcbf9730	-0.023387522
238	0xbcb452fc	-0.022012226
239	0x3d6c3732	0.057669826
240	0x3be37f20	0.0069426447
241	0xbc04f7d0	-0.008115724
242	0xbd247780	-0.040153027
243	0xbc6036e0	-0.013684958
244	0xba169f00	-0.0005745739
245	0xbd28db6a	-0.041224875
246	0xbd67e594	-0.056615427
247	0xbcda6828	-0.026660994
248	0x3d7c12ee	0.06154149
249	0xbbc15220	-0.0058996826
250	0xbc91fe10	-0.017821342
251	0xbd19a89c	-0.037514314
252	0xbd34b2da	-0.04411588
253	0x3c88d864	0.016704746
254	0x3c000c08	0.0078153685
255	0xbd238274	-0.03991933

fc3.bias f4 [128]
0	0x3d0d8026	0.03454604
1	0xbc0c4f24	-0.0085637905
2	0xbd39ee2f	-0.045393165
3	0x3c8841c0	0.016632915
4	0x3cc0d33c	0.023538224
5	0x3ca87f18	0.020568416
6	0xbc1d9e70	-0.009620294
7	0x3ce49dea	0.02790733
8	0x3ac4e840	0.0015022829
9	0x3c918663	0.017764276
10	0xbb4c9ad7	-0.0031220221
11	0xbd326346	-0.043551706
12	0xbca482a8	-0.020081833
13	0xbc1b829b	-0.009491588
14	0x3c4a4c20	0.012347251
15	0xbd617ea3	-0.05505241
16	0xbcf59a82	-0.029980902
17	0x3d427bd6	0.04748138
18	0xbc8b6c22	-0.017019335
19	0xbd4255e3	-0.04744519
20	0x3d46936f	0.048480447
21	0x3c9190b0	0.017769188
22	0xbd6a9ebb	-0.057280283
23	0x3d23113a	0.03981135
24	0xba59b884	-0.0008305388
25	0xbccfe006	-0.025375377
26	0xbd58be40	-0.05291581
27	0xbc9753d2	-0.018472586
28	0x3d14c43a	0.03631995
29	0xbc96f5f4	-0.018427826
30	0xbc7a0d2d	-0.01526193
31	0x3c58eee8	0.013240553
32	0x3d3f1a00	0.046655655
33	0xbc51ba17	-0.012800715
34	0x3d351ad1	0.044215027
35	0x3d3745fa	0.04474447
36	0xbc7206c0	-0.014772117
37	0x3d45beb4	0.04827757
38	0xbd3ba838	-0.045814723
39	0xbc656077	-0.01400005
40	0xbaafb604	-0.0013405685
41	0x3cb71844	0.022350438
42	0xbc2d102d	-0.010562939
43	0x3a6dc25f	0.0009069796
44	0x3d3b6e92	0.045759745
45	0xbd2adc2e	-0.041713886
46	0xbb8ee027	-0.004360217
47	0xbd822cf1	-0.06356228
48	0xbca81499	-0.020517634
49	0xbc3b6505	-0.011437659
50	0x3d81f4a1	0.063454874
51	0xbd753dee	-0.059873514
52	0x3d52c973	0.05146165
53	0xbd132d42	-0.035931833
54	0x3d7d7fa4	0.061889306
55	0x3c8ee92f	0.017445175
56	0x3d535242	0.05159212
57	0xbd17f16d	-0.037095476
58	0xbc7d90aa	-0.015476385
59	0x3ce019fc	0.02735614
60	0x3d69a42c	0.057041332
61	0xbd79ec04	-0.061016098
62	0x3cf2a7ef	0.029621093
63	0xbb8637b7	-0.004095997
64	0xbd0215d3	-0.031759094
65	0xbd344a92	-0.04401643
66	0x3d264eaa	0.040602364
67	0xbd51dd61	-0.051236514
68	0x3d4912d9	0.04909024
69	0xbd6955f7	-0.056966748
70	0x3d0c7fdb	0.03430162
71	0xbc550023	-0.013000521
72	0x3cb6cb84	0.02231384
73	0xbd798766	-0.06092014
74	0xbccf2649	-0.02528681
75	0x3cd3e084	0.025863893
76	0x3d3fc55a	0.04681907
77	0xbcc39cc4	-0.023878463
78	0xbd7e2e7a	-0.062056042
79	0xbd0ebec3	-0.034849893
80	0xbc37a0fb	-0.011207814
81	0xbb2bcf22	-0.002621599
82	0x3d7cb7a2	0.061698563
83	0xbc7d78d4	-0.015470702
84	0x3cf7e57c	0.030260794
85	0xbd517e9a	-0.051146127
86	0x3d0acc6e	0.033886366
87	0xbd768bcf	-0.060191926
88	0xbbcd44ef	-0.006264321
89	0xbcfd84de	-0.030947145
90	0xbd200548	-0.039067537
91	0x3d248546	0.040166162
92	0xbcf337ff	-0.029689787
93	0xbca87efb	-0.020568362
94	0xbcd93c5b	-0.026518038
95	0x3c683218	0.0141720995
96	0xbd5ce676	-0.053930722
97	0xbb55dbb4	-0.0032632174
98	0xbd1e9804	-0.038719192
99	0xbd377c09	-0.044796024
100	0xbcf7fab9	-0.030270921
101	0xbce97659	-0.028498815
102	0xbca85fac	-0.020553432
103	0x3d4476ba	0.04796479
104	0xbc871688	-0.016490236
105	0xbd49cc39	-0.049267028
106	0x3d61874e	0.055060677
107	0x3d3e5f3a	0.046477534
108	0x3a86b543	0.0010277409
109	0xbd3d8e60	-0.046278358
110	0x3d55d0e1	0.052201156
111	0x3cbe06b1	0.02319655
112	0xbd43cb3b	-0.047801238
113	0x3c92251c	0.01783996
114	0x3d3567c6	0.04428842
115	0xbcc00984	-0.023442037
116	0x3cb98a06	0.022648823
117	0x3d0705a0	0.03296435
118	0xbd57c621	-0.052679185
119	0x3d554237	0.0520651
120	0xbc80b7c4	-0.015712626
121	0x3abc052f	0.0014344807
122	0x3bdf669b	0.0068176514
123	0x3c462c96	0.012095591
124	0x3c33ec22	0.010981591
125	0xbb2f43b8	-0.0026743244
126	0xbcb74199	-0.022370147
127	0xbc057fe2	-0.008148165

out.weight f4 [7, 128]
0	0x3d42fa12	0.047601767
1	0xbd8e9cf6	-0.06963532
2	0x3d068a2c	0.032846615
3	0xbcf267c1	-0.02959049
4	0xbd6bf5b4	-0.057607368
5	0xbd2355f7	-0.039876904
6	0x3da87dbd	0.08227108
7	0x3d933e60	0.071896315
8	0xbd8180db	-0.06323405
9	0xbd5b79de	-0.05358302
10	0xbb4b647e	-0.003103524
11	0xbd7e1b3b	-0.062037688
12	0x3d63a360	0.05557573
13	0xbc70ece6	-0.0147049185
14	0x3cbe3080	0.023216486
15	0x3d48c859	0.04901919
16	0xbcbf1a70	-0.023328036
17	0x3c07a348	0.008278675
18	0xbcc2950b	-0.02375271
19	0xbd3d9106	-0.046280883
20	0x3d897b1c	0.067129344
21	0xbd9e3da2	-0.07726599
22	0x3c0f79df	0.008757084
23	0x3d8e78ee	0.06956659
24	0x3d8887e2	0.066665426
25	0x3d58010e	0.05273538
26	0xbc806954	-0.015675224
27	0x3d1032f3	0.03520484
28	0xbd2b5fb4	-0.041839316
29	0xbc9e3494	-0.01931218
30	0x3ca34337	0.019929511
31	0xbcae3823	-0.021267002
32	0x3c838050	0.016052395
33	0x3d1f0a43	0.038828146
34	0xbcd41286	-0.025887739
35	0x3d758885	0.05994465
36	0x3b7ad9a0	0.0038276687
37	0x3a0ff580	0.00054915994
38	0x3d4f89a5	0.050668377
39	0xbc4fbd10	-0.012679353
40	0xbd4adec5	-0.049528856
41	0xbd1c036f	-0.038089212
42	0x3d347318	0.044055074
43	0xbd14b3a8	-0.036304146
44	0xbda4659c	-0.08027193
45	0x3cfe7519	0.031061696
46	0x3d6e55b6	0.05818721
47	0xbd9f826d	-0.077885486
48	0x3c8fe4b6	0.017565113
49	0x3d22cd8e	0.039746813
50	0xbd74cf79	-0.059768174
51	0xbc23f532	-0.01000719
52	0xbbd2611e	-0.0064202687
53	0x3cae9b62	0.021314327
54	0x3c79cb1b	0.015246178
55	0xbd1e6f3a	-0.038680293
56	0x3daac871	0.083390124
57	0xbd044253	-0.032289814
58	0x3a941940	0.0011299029
59	0xbd5d308f	-0.054001387
60	0xbccb2e05	-0.024802217
61	0xbcc38d9c	-0.023871236
62	0x3d505ad5	0.050867874
63	0x39d0354a	0.00039712555
64	0x3d9f5be3	0.07781198
65	0xbd084927	-0.03327289
66	0x3d8bfc1e	0.06835197
67	0x3da688e6	0.0813158
68	0xbd924531	-0.071421035
69	0x3da76dd2	0.081752434
70	0xbb484e29	-0.0030564165
71	0xbd3ca2ac	-0.046053573
72	0xbd871514	-0.06595817
73	0xbd9cde7b	-0.07659622
74	0x3d82467e	0.063611016
75	0x3dafa1e1	0.08575798
76	0xbaed0104	-0.0018081968
77	0x3d102fe9	0.03520194
78	0x3d4ec0d8	0.05047688
79	0x3d4d21ec	0.05008118
80	0x3d57eaaa	0.052714027
81	0xbd09cf34	-0.03364487
82	0x3d8db2b5	0.06918851
83	0x3d8fe8cf	0.070268266
84	0x3d83fe63	0.06445005
85	0x3c5a109c	0.013309624
86	0xbd301eb3	-0.042998027
87	0x3d189864	0.037254706
88	0x3d4a00cd	0.04931717
89	0xbc8c0bb0	-0.017095417
90	0x3d9d8a99	0.07692451
91	0x3d2e67a9	0.042579327
92	0x3ce6f8b4	0.028194763
93	0x3d840511	0.06446279
94	0x3d81d605	0.06339649
95	0x3c2e2960	0.010629982
96	0x3d12ba7f	0.035822388
97	0x3dae2ccf	0.0850464
98	0x3d928165	0.07153586
99	0x3cd55132	0.026039694
100	0x3d306229	0.043062363
101	0xbd2816fa	-0.041037537
102	0xbc5a833c	-0.013336953
103	0xbce64f1e	-0.028113898
104	0xbb976a10	-0.004620798
105	0x3db925e2	0.09040429
106	0x3d8831c9	0.06650121
107	0xbd2eab3f	-0.04264378
108	0xbcebd614	-0.028788604
109	0xbd2ac604	-0.04169275
110	0x3c122fe0	0.008922547
111	0x3d6e517a	0.05818317
112	0x3d10323c	0.035204157
113	0x3dc2c177	0.09509557
114	0xbc05a8f2	-0.0081579555
115	0xbca8a803	-0.020587927
116	0x3d6b9342	0.057513483
117	0xbd0fb333	-0.035083007
118	0x3d6d590a	0.057946242
119	0x3d1c92c5	0.038225908
120	0xbda7ca7e	-0.08192919
121	0x3d10f3c6	0.03538873
122	0x3cdf5714	0.027263202
123	0x3d9d6839	0.076858945
124	0x3d6ce23d	0.057832945
125	0x3c828e1d	0.015936906
126	0xbd622e5b	-0.05521999
127	0x3d39c982	0.04535819
128	0xbd76ea4c	-0.060282037
129	0xbc1884e9	-0.009309032
130	0x3d22547b	0.039631348
131	0xbc708a2f	-0.014681383
132	0xbc3aa5d8	-0.011392079
133	0x3db278e9	0.08714468
134	0xbd10d800	-0.035362244
135	0xbc8e254f	-0.017351774
136	0x3d4c3102	0.049851425
137	0x3be32286	0.0069316057
138	0xbd4c3c91	-0.049862448
139	0x3d1df254	0.03856118
140	0x3dadc86d	0.08485494
141	0x3d81a124	0.06329563
142	0x3cca9c44	0.024732716
143	0xbd252b90	-0.040324748
144	0xbbb94b4b	-0.0056547276
145	0xbcd6af08	-0.026206508
146	0x3bef2d7e	0.0072991243
147	0xbcc34220	-0.023835242
148	0xbb61213e	-0.003435209
149	0x3c77d839	0.015127235
150	0x3c7ff5a4	0.01562253
151	0xbd8f7fd2	-0.07006802
152	0x3c040f7e	0.008060334
153	0x3af87f98	0.0018958924
154	0x3b940770	0.004517488
155	0x3c237f79	0.009979122
156	0xbd25feec	-0.040526316
157	0x3d8ebff9	0.0697021
158	0xbb881a59	-0.0041535315
159	0x3cf7f1a9	0.0302666
160	0xbb8d80c0	-0.0043183267
161	0x3d08faac	0.033442184
162	0xbd88c9aa	-0.06679089
163	0x3d7e20ef	0.062043127
164	0xbd6c6032	-0.057708926
165	0xbd0bd389	-0.034137283
166	0x3cc8c0ba	0.024505962
167	0xbc3d01c8	-0.011536069
168	0xbcba2731	-0.022723766
169	0xbcb67db0	-0.02227673
170	0x3d437479	0.0477185
171	0x3d8d42c4	0.068975
172	0x3b06e860	0.0020585284
173	0x3bbf7dd6	0.0058438582
174	0x3cc146f2	0.0235934
175	0xbd230ceb	-0.03980724
176	0xbcd5f496	-0.026117604
177	0x3d5d7de9	0.054075155
178	0x3d8ce400	0.06879425
179	0x3dadcd94	0.084864765
180	0xbdfd2e07	-0.12362295
181	0xbd59c81b	-0.05316935
182	0x3cdac4d0	0.026705176
183	0xbcfd68f3	-0.030933833
184	0x3d00ef52	0.031478234
185	0xbcd152c5	-0.025552163
186	0x3d6055fd	0.054769505
187	0x3d0a0502	0.033696182
188	0xb987a80a	-0.00025874405
189	0xbc611c38	-0.013739638
190	0xbb950815	-0.0045480826
191	0xbd1e5a2d	-0.038660217
192	0xbd1d0b93	-0.038341116
193	0x3d1e1710	0.038596213
194	0x3d2be711	0.04196841
195	0x3cf9aa22	0.030476633
196	0x3cf1dba6	0.029523682
197	0xbd2bf6dd	-0.041983474
198	0xbd70f981	-0.058831695
199	0x3d9b213a	0.07574697
200	0xbbba6bd0	-0.005689122
201	0x3d7d7b74	0.061885312
202	0xbc9dd045	-0.01926435
203	0xbd5a6326	-0.05331721
204	0x3ccf6799	0.025317954
205	0x3cc74768	0.024326041
206	0xbc4b8f32	-0.012424277
207	0x3d4e3b25	0.050349373
208	0x3c35210c	0.011055242
209	0xbae58bae	-0.0017512941
210	0xbd758132	-0.059937663
211	0xbdac9b12	-0.08428015
212	0xbdba72dd	-0.0910394
213	0x3c7ac3ba	0.015305454
214	0xbb1505cf	-0.0022739058
215	0x3d0288a1	0.03186858
216	0xbb43a0f0	-0.0029850565
217	0x3c19765a	0.009366596
218	0x3d24462c	0.040105984
219	0x3d01532c	0.03157346
220	0x3d363dbd	0.044492472
221	0xbd2946af	-0.041327175
222	0x3d4a9854	0.049461678
223	0xbd8c0c2d	-0.0683826
224	0x3c1db34f	0.00962527
225	0x3d3a5cc3	0.04549862
226	0x3d814739	0.06312413
227	0xbd8a0122	-0.06738497
228	0xbcaac432	-0.020845506
229	0xbc499fea	-0.012306193
230	0xbca087ad	-0.019595945
231	0xbd37b05e	-0.04484593
232	0x3d2a5c52	0.04159195
233	0x3d760264	0.060060874
234	0x3d985cab	0.0743955
235	0xbb083018	-0.002078062
236	0xbd8d6410	-0.06903851
237	0xbc86d5ad	-0.01645931
238	0x3d7d1739	0.061789725
239	0x3d7a0f10	0.06104952
240	0x3da40fd6	0.08010833
241	0xbd4b8fc9	-0.04969767
242	0x3da220fb	0.07916447
243	0xbd44f51d	-0.04808532
244	0xbc174b64	-0.009234283
245	0xbd1fa94a	-0.038979806
246	0xba9c3996	-0.0011919017
247	0x3d0c2912	0.034218855
248	0xbc8403e0	-0.016115129
249	0x3d07e10a	0.0331736
250	0x3cc23608	0.023707405
251	0xbd92704c	-0.07150325
252	0x3dae03d1	0.08496822
253	0xbdb29565	-0.08719901
254	0xbcb663d5	-0.0222644
255	0x3b93f83f	0.004515677

out.bias f4 [7]
0	0x3d521703	0.051291477
1	0x3c0c7105	0.008571868
2	0x3cef0d5c	0.029181175
3	0x3d523749	0.051322255
4	0x3d632b8b	0.055461448
5	0xbd5ff226	-0.05467429
6	0x3d97cc32	0.07411994
