trained_models/dqn_shooter_50.pt (torch, 684244 bytes, 8 tensors)

fc1.weight f4 [512, 9]
00000000: 640c 9cbe a595 8b3d 04d9 a7be c3f5 9a3e
00000010: 814c 11be 069d 7abe 32bd 793e 969d 8cbe
00000020: b9ae 92be 8646 1ebe 523f 80be e6f3 0c3e
00000030: 537d 9cbe ce9f 3f3e dad9 723e 2c0f 81bd
00000040: b93a 913e 54d1 81be b60a 8bbd e8c0 8ebe
00000050: db6d ac3c 6a2d 963d 4a0b 85be ed0c 70be
00000060: 421a 4b3e bd01 5b3e ab7a 43be feff 8c3e
00000070: bf25 783e d364 edbd 3f1b fe3d 0a08 2ebe
00000080: 16f5 843d 3c35 8c3e 18aa 843e fdaf b5be
00000090: edff c03e 65a4 01be 614f 41bd 1827 453e
000000a0: 995f 823d cea9 003e 02cf 363e b778 253d
000000b0: 6cdd 013e db9d 223d 6f54 6b3e 5083 843e
000000c0: 1df2 833e bc49 1ebe 9c0c eebc ecde 96be
000000d0: 339d 94bd 5ee3 513e 5d24 09bd e508 8cbd
000000e0: 5a45 ed3c 494f 7e3e 27a6 d63d 4786 7fbe
000000f0: 0fd4 923e ebe9 8b3e 8f66 b83d 5e64 6bbe
00000100: 7746 e23d a4a1 74bd 0d1a 713d 7494 843e
00000110: 60e3 8c3d 8d4f 9d3e 92ee 4fbe 78b3 703e
00000120: 3813 71be 5e03 383e 9eed 37be 1eb0 3dbe
00000130: f1aa 953e 331c 1cbe 5b4f 45be 8bfe 4abe
00000140: 2b87 17be 2df9 7ebe e393 08be 852b d13b
00000150: b5a4 c83d 3233 c53a 4dd3 be3d 296f 95be
00000160: f64c 78be 664c c3be 9a2b 353e 4c76 a83e
00000170: d23f 673e 8ae6 623e 2cb3 32be 78c0 e6ba
00000180: 80f8 c13c 2f50 103e 05f7 d33d b480 6dbe
00000190: 071a 213c b09e 263d 855a 3d3e 013c 953e
000001a0: e8ac 5ebd 53ed a93c e7b3 7c3d 11c0 4a3d
000001b0: 8ae1 94be 6079 64be a38e 5abe 9303 45be
000001c0: 00b3 163c 8088 343b d00d 8cbe d014 b4bd
000001d0: 670c a33e 4227 283e eef3 17be 9c83 eb3d
000001e0: 34fc a6be e380 01be a041 263e 8bda 9ebe
000001f0: 00ae c7bc 48ce 32be a296 13be 2ee3 91be
00000200: 8ed2 973e ffd5 293e 4d29 f7bd 2044 54be
00000210: f05b 03be 62aa 273e 98af 79be fcee a3bd
00000220: f639 b7bd c11c 863e c019 f8bd 3277 1e3e
00000230: 23c0 44be 08e0 503d aa6d 1d3e a7e2 9b3e
00000240: 2b1e cbbe f23d 8dbe 24be a0be 1e47 933e
00000250: 8eac 9fbe 2cb7 f43d 8e2a 26be 7e82 e8bd
00000260: 144c 31bd 98b0 5abd dcf8 e53d 4685 c1bd
00000270: 66ab 7fbe 0a6b 683e 8a39 653e c0a4 b6bb
00000280: da6f 143e 00d3 31bd bc9b abbd c63f dfbd
00000290: a32e 7dbe 5c06 91be ec52 aabe 6ba9 913e
000002a0: 76f8 56be d635 57be 00a6 dfbb 6bb9 2abe
000002b0: 6ecf 073e 6b11 45be f8d5 71be cee3 a2be
000002c0: 0b20 00be 43ca 0fbe c6d6 3c3e 9ee0 4b3e
000002d0: 306e 56be 16d3 3ebe 6b53 1abe 90b3 87be
000002e0: 80ec 4e3b 189c a7be ea2b 393e bc53 c2bd
000002f0: dd12 903e 9f77 513e f50b 85bd 99cf 96be
00000300: 32a9 83bd b18a d33c 5bfe 6cbe 90c1 a5bc
00000310: c359 61be 7fc8 43be cbc0 a7be 6473 073e
00000320: 12ab af3d 040f 8c3e 7f72 ae3d 96e5 4d3e
00000330: 572d 8a3e 919f a33e 11d3 033e 80e8 443b
00000340: 4225 4a3e 504a d0bd de16 03be ca9b 763e
00000350: 7bc3 873e eca3 e4bd dd58 a83e 951b a13e
00000360: e1b5 0cbe 96c9 153e 0158 883e 9366 053e
00000370: ac47 483e 21db 463e 52c2 bbbc f177 bbbd
00000380: e3e1 d53e df74 8e3c d3bb f3bc 13ca 4bbe
00000390: 59b2 8c3d 1d99 8d3e bbb2 503e c076 573e
000003a0: d4ce 5f3d 5069 c7be a4a1 bcbe be20 5c3e
000003b0: 6e90 8e3e 3503 503c d65b 71bd 66fc 0fbe
000003c0: 48b0 8bbd 1a1f acbe 3255 533e 5a07 9e3e
000003d0: 0538 c53d 6ab3 7d3e b691 9dbd 55eb 4bbe
000003e0: 45d6 833e 2668 793e 83e9 26be 3c7c 933e
000003f0: 3469 a9bd 664f 513e ea93 333e 0e5f 57be
-0.30478203 0.06815652 -0.32782757 0.30265626 -0.1418934 -0.24473962 0.24388579 -0.2746398
-0.28648928 -0.1545659 -0.2504831 0.13764915 -0.30564365 0.18713304 0.23715916 -0.06301722
0.28365114 -0.25355017 -0.06789152 -0.2788155 0.021048477 0.07332881 -0.25985175 -0.23442431
0.19834235 0.21387382 -0.19089763 0.27539057 0.24233149 -0.11591496 0.124075405 -0.16995254
0.06492059 0.27384365 0.2591102 -0.3548583 0.37695256 -0.12660368 -0.047194842 0.19253194
0.0636589 0.12564775 0.17852405 0.040398326 0.12682122 0.039701324 0.22981428 0.25881433
0.25770655 -0.15457815 -0.029058747 -0.2946695 -0.07256546 0.2049689 -0.033481944 -0.06837634
0.028963733 0.24834932 0.1048091 -0.24953566 0.28677413 0.27326903 0.090039365 -0.22987506
0.11048596 -0.059724465 0.058862735 0.2589451 0.06879306 0.30724755 -0.20305851 0.23505962
-0.23542488 0.17970034 -0.17961738 -0.18524215 0.2923198 -0.15245132 -0.19268553 -0.19823663
-0.14797656 -0.2489974 -0.13337664 0.0063833618 0.097970404 0.0015045165 0.09317646 -0.2918637
-0.24248108 -0.38144225 0.17692414 0.32902753 0.2258294 0.22158256 -0.17451161 -0.0017604968
0.023678064 0.14093088 0.103498496 -0.23193628 0.009832866 0.04067868 0.18491562 0.29147342
-0.054364115 0.020743048 0.061695006 0.049499575 -0.29078323 -0.22311926 -0.21343474 -0.19239645
0.00919795 0.002754718 -0.27354288 -0.08793032 0.318454 0.16421226 -0.14839146 0.11499712
-0.3261429 -0.12646823 0.16235971 -0.3102611 -0.024374962 -0.17461503 -0.1441293 -0.28493637
0.29652828 0.1658554 -0.120684244 -0.20729113 -0.1282804 0.1637359 -0.2438339 -0.08004567
-0.08946602 0.26193812 -0.121142864 0.15475157 -0.1921392 0.050994903 0.15373865 0.3044636
-0.39671454 -0.27586323 -0.31395066 0.28765196 -0.31186336 0.11949 -0.16227171 -0.113530144
-0.043285444 -0.05339107 0.11229107 -0.09449248 -0.24967727 0.22697082 0.2238523 -0.005573839
0.14495793 -0.043414116 -0.08379313 -0.10900836 -0.24724822 -0.28325164 -0.3326639 0.28449568
-0.20993218 -0.2101663 -0.0068252087 -0.16672294 0.13262722 -0.19244926 -0.23616779 -0.31814426
-0.12512223 -0.14042 0.18441305 0.19909903 -0.2094047 -0.1863521 -0.15070884 -0.26504183
0.003157407 -0.32736278 0.18083158 -0.09488627 0.28139392 0.20455788 -0.06496421 -0.2945526
-0.06428756 0.02582297 -0.23143904 -0.0202339 -0.22006898 -0.19119452 -0.32764277 0.13227612
0.08577551 0.27355206 0.08517932 0.20107111 0.26987717 0.31957677 0.12873484 0.0030045807
0.19740775 -0.10170424 -0.12801692 0.24082866 0.26516327 -0.11164078 0.32880297 0.31466356
-0.13741256 0.1462768 0.26629642 0.1302741 0.1955859 0.19419529 -0.022919808 -0.091537364
0.417739 0.017389713 -0.029752648 -0.19901304 0.068699546 0.2765588 0.2038068 0.21041393
0.054640606 -0.38947535 -0.36842072 0.21496865 0.27844566 0.012696077 -0.058925472 -0.14061126
-0.06820732 -0.3361748 0.20637968 0.30864984 0.096298255 0.24775472 -0.07693808 -0.19913991
0.25749412 0.24356136 -0.16300015 0.2880572 -0.08272019 0.20440444 0.17536893 -0.21032354

fc1.bias f4 [512]
00000000: 7b1e 1dbe 2054 f2bd b477 d83d e726 fe3d
00000010: a412 a3bd 0d3c c63d 48eb 253e a74a 20be
00000020: a0a4 1f3e 74fd 4abd cfbc a1bd 2a36 9e3e
00000030: 9838 083d 125c 533e d760 95bc d7f1 823e
00000040: 3fe3 98be 334e 803e a0fb 5abd 40d4 52be
00000050: 222a 793e 6d49 66be e3fa 28bc fb86 9c3e
00000060: a101 913e 5612 4cbe 9e3e 1bbe c424 9dbe
00000070: 228f 6f3e 82e0 5a3e c343 8a3e 96ac d6bd
00000080: 026a 6c3e 3cb9 dbbd 7d68 1e3e f0b3 db3d
00000090: a408 a33e 708e 96bc ebfb 923e 14f1 e63d
000000a0: 286f 08be 8e06 7cbe f05a afbd 7a03 303e
000000b0: 68c9 393d da4f 303e 2c7e eb3d d154 6f3e
000000c0: 7800 613e 2709 323e 8065 b7bc c491 033e
000000d0: 5edc 233e 385b 5bbe fa94 a1be 45bd a13e
000000e0: b018 b83d 5f2e a53e 7289 91bd 4eac 86be
000000f0: 3626 f03c e70e a0be 2454 77bd 4e46 11be
00000100: 7182 90be a72f 81bc 2e58 79be 70d3 8a3c
00000110: 5d23 283e 117f 86bc 899f 3bbe a48d 3dbc
00000120: bc6c ddbd 5cba 9dbd 897f 8d3e 4e12 a0be
00000130: 05f8 59be 73fa 4bbe eb74 7bbe 6403 4e3d
00000140: 51fc c03c 7688 963d def8 583e 1970 0d3e
00000150: e0d7 18bc d0f1 6fbe 4f51 d7bd 34a7 413d
00000160: 59f5 953e 13cf 783e d602 a9be 2dbc 91be
00000170: f027 bfbc 4778 95be 6522 a13e a08b 613d
00000180: bc5a 9fbd 1e22 283e a1b3 f03d c17f aa3d
00000190: 787d 61be faaa 83bd e0d2 38bc 6831 343d
000001a0: 0487 0fbe b8a2 69be 6e54 3cbe 83a6 23be
000001b0: 06a2 60be 9428 43bd 5020 d83c b152 9a3e
000001c0: b5be 6cbe 335b 193e 62c8 3d3e 0f5f a7be
000001d0: 9bc6 7dbe 8f76 953e 2add 8bbe 4e57 003e
000001e0: 5d4b 80be b160 363d 168a f2bd 3ede 693e
000001f0: e6a8 6f3e 7320 7fbd 429d 7cbc 0ba8 6c3e
00000200: e961 68bd 96f8 453e 1685 743e ca21 533e
00000210: a06e e6bd 870b 783e 9959 893e 06b6 e2bd
00000220: 96fd 14bc 1ba2 98be 05ba 933e c8b1 38bd
00000230: 686c 4fbd 8291 1a3e 19e8 6bbd 47e7 813c
00000240: 464f a2be 344e a83d 62d5 523e d3a8 8abe
00000250: 7638 32bd 7606 d0bd 2533 43bc c5ca 073e
00000260: a10a 5dbd 383c 173d a6ee 7bbe fe0a 02be
00000270: 8c12 a5be b9c7 7c3e 2a4c 5f3e f013 f0bd
00000280: a84a a2bd 60fb 8abd a656 fabd 054a 69be
00000290: 05a1 c13d f832 7fbe 2f57 943d 13d4 45be
000002a0: f371 fb3d 1090 bcbc 8626 723c 88b4 193d
000002b0: 00aa 783d 8ef2 a5be 5b5b 64be 5ed2 71be
000002c0: c0ed 54be 5ab2 9a3e 63bc a73e c9d7 a2be
000002d0: 17cc 83be 8c6c a7be 4164 21bd e468 443e
000002e0: 70c0 453e e40c bdbd eef6 23be 50dd b8bc
000002f0: 7ede 52bc 843c a4be d3b8 0ebe 975b 8d3d
00000300: 79a1 6f3c 5069 103d 360a 54be dfd2 a6be
00000310: ec10 69be 5379 7bbd 51eb 43be 7006 993c
00000320: 5c8d b83d 2169 69be b9da 823e 0800 61be
00000330: 4e1f 71be 8375 02be f359 b2bd 3ff2 a1be
00000340: 181f 453d 2c5b 053e 1858 a2be 3cea 9e3d
00000350: ee2d 77be 5965 94be af00 98be ccdd a0be
00000360: ab13 5bbe 13c5 01be d561 863e 4ebd 6e3e
00000370: 5b81 233d cc3d 0d3e d6e5 86be 658d 6fbd
00000380: c716 8e3e 06a6 65be 2611 763e d827 6ebe
00000390: b10f a93e 4a12 343e 5498 563e b76b f2bd
000003a0: 9a3b 343e 10db e2bc 03e4 45be a905 893e
000003b0: fc1d 5e3e d9ac 8d3e 731c 12be e3cf d93b
000003c0: 625a 403e 21f3 14be 267c 93be 8ef7 53be
000003d0: 83ff 4abe 7cc8 9bbe 1ec8 503e 50d6 c6bb
000003e0: 0e69 acbe 6877 173d af94 893e dba2 8cbe
000003f0: 406d 043e d3be 17be 606d 9fbd c654 14be
-0.15343659 -0.11832452 0.105697066 0.12409764 -0.0796254 0.096794225 0.16203034 -0.15653478
0.15590143 -0.049558118 -0.078973405 0.309007 0.033257097 0.20640591 -0.018234653 0.25575134
-0.29860875 0.2505966 -0.053462625 -0.2058878 0.24332479 -0.22488947 -0.010313722 0.30571732
0.28321555 -0.1992887 -0.15160605 -0.30692112 0.23394445 0.21374705 0.27004823 -0.10482137
0.23087314 -0.1072869 0.15469547 0.1072768 0.3184253 -0.018378466 0.28707823 0.11276451
-0.13323653 -0.24611875 -0.08562267 0.17188826 0.04535809 0.17217961 0.11498675 0.23372199
0.21972835 0.17386304 -0.022387266 0.12848574 0.16002032 -0.21421516 -0.31558973 0.31589714
0.08989084 0.3226194 -0.07106294 -0.26303333 0.029315095 -0.3126137 -0.060382977 -0.14186975
-0.2822452 -0.015769793 -0.24350044 0.016946524 0.1641974 -0.016418012 -0.18322577 -0.011569414
-0.10811755 -0.07701561 0.27636364 -0.31263965 -0.21286018 -0.19919758 -0.2455632 0.050296202
0.023557814 0.073502466 0.21188685 0.13812293 -0.009328812 -0.23432088 -0.10513555 0.047278598
0.29288748 0.24297743 -0.33009976 -0.2846388 -0.023334473 -0.29193327 0.31471553 0.055064797
-0.07780978 0.16419265 0.117530115 0.083251484 -0.22020519 -0.064290956 -0.011280745 0.04399243
-0.14016348 -0.22815979 -0.18391582 -0.15981488 -0.21936807 -0.04764612 0.026382595 0.30141214
-0.23119624 0.14976196 0.18533471 -0.3268971 -0.24782793 0.29192016 -0.27317172 0.12533304
-0.25057498 0.044525806 -0.11842744 0.22838685 0.23404273 -0.062286805 -0.015418353 0.23110978
-0.056734 0.1933311 0.23878893 0.20618358 -0.11251569 0.24223147 0.2682617 -0.110698745
-0.009093663 -0.29811177 0.2885286 -0.04509142 -0.050640494 0.1509457 -0.057594392 0.015857352
-0.31701106 0.08218041 0.20589212 -0.27081928 -0.043510877 -0.10157482 -0.011914049 0.13260944
-0.053965215 0.036922663 -0.24602756 -0.12699506 -0.32240713 0.24685563 0.21806398 -0.11722553
-0.07924396 -0.06786227 -0.12223558 -0.22782142 0.0945454 -0.24921787 0.072431915 -0.19319181
0.122775935 -0.023017913 0.0147796925 0.037525684 0.060709 -0.32411617 -0.22300474 -0.23615405
-0.2079382 0.30214196 0.32760915 -0.31805256 -0.25741646 -0.32700002 -0.03940225 0.19180638
0.1931169 -0.09230974 -0.16012165 -0.022566468 -0.012870429 -0.3207742 -0.13937692 0.06902235
0.0146259 0.035256684 -0.2070702 -0.32582757 -0.22760361 -0.061395 -0.19132735 0.018679827
0.09011337 -0.2279401 0.25557497 -0.21972668 -0.23547098 -0.1274014 -0.08708563 -0.31630132
0.048125356 0.1302306 -0.31707835 0.077595204 -0.24138615 -0.28983572 -0.29688022 -0.31419218
-0.21394221 -0.12672834 0.26246515 0.23314402 0.039918285 0.13793105 -0.26347226 -0.058484454
0.27751753 -0.22426614 0.24029979 -0.23257387 0.33019784 0.17585102 0.20956546 -0.11836951
0.17600861 -0.027692348 -0.19325261 0.2676213 0.21691126 0.27670935 -0.14268665 0.0066470965
0.18784478 -0.14545871 -0.28805655 -0.20699903 -0.19824032 -0.30426395 0.20388839 -0.0060680285
-0.336739 0.03697911 0.2687125 -0.27468 0.129323 -0.14818887 -0.077845335 -0.14485464

fc2.weight f4 [256, 512]
00000000: 8f77 6abc a0da e73b 7a97 41bd 153c 0ebd
00000010: ae5e 3fbd a395 7c3c 07ea c7bc 6dc3 dbbc
00000020: 82f4 bd3c 2a35 6dbc 476b d4bc 688b ee3c
00000030: 2087 303b 8851 3ebc f7b8 b1bc 40bf d73a
00000040: b0d2 2abc 21d8 c8bc 2c2d 943c 9656 77bc
00000050: ca0b b93c 622c 33bd 7f55 083c e845 0abd
00000060: e269 c43c edac bbbc 74a0 0fbd 8175 1cbd
00000070: d961 30bd d2c5 7fbc 3095 8ebc af42 1f3d
00000080: b8db 083c a010 b2bb da75 41bc 5166 053d
00000090: b000 d6bb 5b62 143d ba34 31bc f8b1 35bc
000000a0: 89bc 9bbc bcbf 04bd b01d c7bb 7c39 8dbc
000000b0: 9c56 23bd 9965 a7bc aa28 24bd fb78 fd3c
000000c0: a439 893b 4152 dd3b 9336 c7bc 6166 02bb
000000d0: 83e3 123d b792 a83b 3686 88bc 56e6 dd3c
000000e0: 1189 d0bc 0af8 bb3c 05de 433c ce2b 86bc
000000f0: 36eb a6ba 24dd 1fbd 8331 bfbc b7d0 0a3d
00000100: f6b4 62bc 7430 bb3a 7072 113c b4e0 c4bc
00000110: 3e78 e5bc 19e3 cebc edad 6ebb 5b85 a2bc
00000120: 65a4 f73c c346 0b3d ceaf 26bd ca29 67bc
00000130: 62a5 19bd 4cd9 01bd 1ddb 1f3d e7bc 5fbb
00000140: e29d abbc 0af5 dd3c b57e 9bbc 3e22 433c
00000150: 3dca 223d 30de ea3b d85c 103d 2b32 c53c
00000160: f497 47bc 36a8 bf3c 9ae7 c23c 2592 52bc
00000170: 41ba 07bd 8c4c 4bbc b820 f8bc 60ff 7f3b
00000180: 58cf b33c 91bb 32bd 982e 6a3c b3cb 2abd
00000190: 4c94 2f3c f651 b53b e853 88bb 6453 03bc
000001a0: c79a 04bd 8aaf adbc 00bb 61bb b7f4 56bd
000001b0: 0014 ed38 0a57 02bd 92c4 b53c 7048 13bc
000001c0: 7e38 fcbb 8cc1 28bd afcf 9a3c 9b67 dc3c
000001d0: 9890 b2bb d89d 1ebd 0c5d 6d3c 3da9 ffbc
000001e0: 1319 20bd 67d9 8dbc 50b4 d03c 841c 34bd
000001f0: 388a a2bb 460c 3fbd a596 18bd 9a65 163d
00000200: 6e51 ac3c 6d83 a1bc c629 eebc 7241 c3bc
00000210: 20cf d9ba 8bb7 1bbc c2bc 92bc fc0f 153c
00000220: a5b9 09bd 8880 21bd a85d f83b 9065 1abb
00000230: 40a9 38bc becb 943c 5066 203d 655c a43b
00000240: 63b9 1fbd 5655 e6bc 509c 6b3c c85c 15bd
00000250: 1dc5 d139 74f0 0f3c 4947 f8bc 3693 0cbc
00000260: edd0 313c 40c1 e0ba 40b7 6cbb 43fe 9bbc
00000270: 9ca8 2cbd d8eb af3b 5e43 34bd b03e 4a3c
00000280: 767a afbb d164 253d a78f b73c 510f 96bb
00000290: 52a6 d53c eb30 ccbb a491 1fbd df50 be3c
000002a0: f4fc 30bb 0c9d 913c 5523 b33b 69dd 17bd
000002b0: 70bd ce3b fb3b 25bd bc49 92bc 14fe fd3c
000002c0: 7cec ff3c c0d1 8d3c 1bd3 1d3d 4ba0 663c
000002d0: fb76 7dbc 92c9 d2bc 6212 cbbb 37db a03c
000002e0: 268a 1f3d 3d28 3cbd c2a1 0dbd d7de e0bc
000002f0: a18e 7abc d0eb 37bd 5f7e 033d d57c 49bb
00000300: 5444 053d b7c9 fb3c a561 053d a261 8c3c
00000310: 1abb b83c ed60 f63c 8eac 3c3b b81c 223c
00000320: 80b8 213d 93ce c4bc aa08 e93c f315 113d
00000330: 12d0 ce3c 6e64 cd3c f444 703c ce82 b73c
00000340: bd16 dbbc bf59 133d 5064 353b e24a eb3c
00000350: 95b4 fe3c 93af c7bc bc50 dabc f622 29bd
00000360: 06d3 2a3c 40c3 7c3a b051 e7bb 80ce 67bb
00000370: 90be eebc de85 783c 8eaf 71bc b825 95bc
00000380: 9778 f43b 55f5 013d 55e2 0e3d 5031 4e3b
00000390: 3646 e83c 065b 01bd 045f c6bc 1d58 853c
000003a0: 54a4 3abc d2af 69bc e88e c3bc 423d a53c
000003b0: 371d e23b 3612 1abd 50f8 233c 7305 3b3a
000003c0: 32f1 94bc c216 ed3c b4bc edbc fabd 00bd
000003d0: fb4c a7bc f996 22bb 4f57 37bd 987c 30bc
000003e0: 8de1 6dbc 5c73 82bc 5124 2a3d 907c 32bb
000003f0: 1149 b23c aaeb c63c af8d 253d c5ed febc
-0.014310732 0.0070756227 -0.0472636 -0.034725267 -0.046721153 0.015416536 -0.024403585 -0.026826585
0.02318788 -0.014478007 -0.02593006 0.029119208 0.002693601 -0.011616118 -0.021694643 0.0016460195
-0.010426208 -0.02451712 0.018087946 -0.015096327 0.02258863 -0.0437435 0.008321165 -0.033758074
0.02397627 -0.022909606 -0.03506513 -0.038197998 -0.043062065 -0.015611129 -0.017405123 0.038881954
0.008353166 -0.0054341108 -0.011807883 0.03256828 -0.0065308437 0.03622661 -0.010815794 -0.011089794
-0.019010799 -0.032409415 -0.006076537 -0.017239325 -0.03987752 -0.020434188 -0.040077843 0.030941477
0.0041877795 0.00675419 -0.024318015 -0.0019897448 0.035861503 0.005144443 -0.01666556 0.027087372
-0.025455983 0.022945423 0.011954789 -0.01637831 -0.0012734893 -0.039029256 -0.023339039 0.033890452
-0.01383709 0.0014281408 0.008877382 -0.024032928 -0.028011438 -0.025254773 -0.0036419586 -0.01983898
0.030229757 0.03400303 -0.040695004 -0.014109084 -0.037511237 -0.03170137 0.039027322 -0.0034139694
-0.020949308 0.027094383 -0.018981317 0.011910019 0.03974365 0.0071676 0.035244793 0.024071774
-0.012182225 0.023395639 0.023792077 -0.012852226 -0.03313661 -0.012408387 -0.030289039 0.0039062127
0.021949455 -0.04363591 0.014293335 -0.04169817 0.010716509 0.005533452 -0.004160393 -0.008015487
-0.03237417 -0.021201868 -0.0034443736 -0.052479472 0.00011304766 -0.03182129 0.022188459 -0.008989438
-0.007697164 -0.041200206 0.01889786 0.026904872 -0.005449366 -0.03872475 0.014487516 -0.031208629
-0.039086413 -0.01731558 0.025476605 -0.043972507 -0.0049603246 -0.046642564 -0.03725304 0.03671799
0.021034922 -0.019715989 -0.029072654 -0.023834918 -0.0016617514 -0.009504209 -0.017912272 0.009098049
-0.03362431 -0.039429218 0.007579524 -0.002355907 -0.011270821 0.018163558 0.039160073 0.005015897
-0.038995158 -0.028116863 0.0143805295 -0.036465436 0.00040010447 0.008785356 -0.030307429 -0.00858002
0.010853034 -0.0017147437 -0.0036119968 -0.01904214 -0.042152986 0.005368691 -0.04400956 0.012344047
-0.0053551747 0.04037935 0.022407366 -0.0045794626 0.026080284 -0.0062314174 -0.038957253 0.023231922
-0.002700624 0.017775081 0.0054668584 -0.037076388 0.006309204 -0.040340405 -0.017857425 0.031004943
0.031240694 0.01731193 0.038531404 0.014076303 -0.015470262 -0.025730882 -0.0061972598 0.01963578
0.038950108 -0.04593681 -0.034578092 -0.027450008 -0.015292794 -0.044902623 0.03210294 -0.0030744572
0.032535866 0.030735834 0.032563824 0.017136399 0.022550154 0.030075515 0.0028789374 0.009894542
0.039482594 -0.024024284 0.028446514 0.035421323 0.0252457 0.025072303 0.014664877 0.02240124
-0.02674424 0.03597426 0.00276782 0.02872223 0.031091968 -0.024375712 -0.026649825 -0.041293107
0.0104262885 0.00096421316 -0.0070592985 -0.0035370886 -0.029143602 0.015168635 -0.014751328 -0.018206462
0.0074606645 0.031728107 0.034883816 0.0031462498 0.028353792 -0.031580947 -0.024215229 0.016277367
-0.011391718 -0.01426311 -0.023871854 0.020170812 0.0069004553 -0.037615024 0.010007933 0.0007134296
-0.018181417 0.028941516 -0.029020645 -0.031431176 -0.02042245 -0.0024809225 -0.044761 -0.010771893
-0.0145191075 -0.015924148 0.04153854 -0.002723489 0.021763356 0.024282295 0.040418323 -0.031119237

fc2.bias f4 [256]
00000000: 409b 49bc e0ff 913b 46c1 6bbc 5462 16bd
00000010: 9ca3 c63c 3bc5 12bd 32b7 37bc 0823 e13c
00000020: 40cb 82ba 38ba 0cbd d18a 18bd a791 093d
00000030: bad5 383c 3d52 3fbd 0e9d 1bbd 25d1 cdbc
00000040: 7fde b2bb a839 adbc ab1f 293d 110f 143d
00000050: 33b2 093d 259e 0cbc 5478 e23c ac60 48bb
00000060: 6ad0 ba3c ade1 24bd def5 bfbc 5f0e 47bc
00000070: 15e1 5f3c e208 213d 6cee 05bd b09e 35bb
00000080: ac04 3ebc 8a37 31bd f749 10bd 405d 083c
00000090: c0d6 ca3a 90cc 2cbc d386 853c e43d 3d3d
000000a0: 5c30 533c b626 003d 159e cc3c a8ca 3abc
000000b0: 8e8f e03c 3e75 3bbd f5c5 e8bb 5b2d c13c
000000c0: a3a8 53bb 293b 2fbd a065 5fb6 332c 02bd
000000d0: 4e70 07bd 7101 85bc 7295 9f3c f804 f03c
000000e0: 41d9 0a3d d36d 25bc 6e38 803c 7040 ccbb
000000f0: 3ff5 23bd eeaf 05bc 106b 7cbc f0a1 1fbc
00000100: c0ce c93a b51f d6bb 593f a3bc 1e0f 1dbc
00000110: 6eb3 983c dd65 91ba e289 acbc 9e16 dc3b
00000120: 4490 233b be7c a43c d36a 383b 342f c63c
00000130: 75a1 123d b7d7 42bd 77e4 88bc 3646 0a3c
00000140: 22b6 3fbb 4e35 bb3c 5cb3 26bc 1493 d53b
00000150: 3e67 233c 8cc9 1cbc 188a 7c3c 60f4 80ba
00000160: 3ad3 bd3c f62c ac3c 5409 18bc a901 1dbd
00000170: 034e ee3c f2b9 ecbc 6897 94bc 075c 3a3d
00000180: 8219 97ba f0d5 583b 0cfe 3e3c 591f 9fbc
00000190: 94cd a43c 4505 85bc 4c4e 973c 8d8d 4c3d
000001a0: 99a5 93bc 69cf a53b 5214 d43c 8185 c93c
000001b0: d008 0b3b 384f 113d 5ba4 153d 932f 05bd
000001c0: 7ffc 1d3d d613 163d 5f30 c7bc 2058 5fbc
000001d0: 4b49 29bc 7b98 52bc fc95 f3bc 3aa0 cabc
000001e0: f0d7 17bc d347 c2bc faf1 7ebc 307b 15bb
000001f0: 676e 313b c994 44bc ace9 debc 0ae1 03bd
00000200: a08d 08bd 5acc 103c d07a b23b 4d5f a6bc
00000210: 7863 b73c 66a6 c73c 99ba 253c d844 083c
00000220: a9da d7bc a635 e13a 697e 033d 5016 343b
00000230: 2be5 023d 730a 07bb f0a5 ec3c ecbf f0bc
00000240: 6854 7e3c 4f0b b23b 114c 1e3d e25c 963c
00000250: d2fb 6b3c 747e 443c 2b97 25bd efe2 14bd
00000260: 054b 863c 76b9 a63c a1df 1e3d c87e 213d
00000270: 4975 71bb 36ad 083d 25d6 cbbc a266 a8bc
00000280: 612f c63b bab0 ff3c 0a38 41bd 54e9 10bd
00000290: e99f 4e3c ee8a 26bd d396 06bd 9bd6 abbc
000002a0: 093d de3c 641a 263c 9207 db3c bd2f 73bc
000002b0: c0da 2b3a 5c58 32bd 3f50 95bc 04e7 51bc
000002c0: 886a 5c3b ab57 17bd 1d44 b5bc 0034 b93a
000002d0: 535b 04bd 1017 0bbc e0c7 9cba 41c7 efbc
000002e0: 2c4b 2ebd e972 16bd cc9c 5cbc 3ea3 a8bc
000002f0: 81b4 eb3c 2847 8c3c 9a80 d6ba dd09 9a3c
00000300: fe1f 28bd 44ab 03bd 6e2f 4bbc 8524 4abb
00000310: 0034 a6b9 4e03 fabc dca6 aebc a2e3 b63c
00000320: a8c4 07bd 948b 0c3d 123b e23c 1bce b4bc
00000330: a831 20bd 63eb 033d 23ec 09bd dd9d cdbc
00000340: 7abe c53c b7aa c9bc 434c 283d 3056 2abc
00000350: cc59 1d3d adaa 2c3d 4940 c03c 64f9 1fbc
00000360: fadc 62bc cfe7 dfbc 9ae5 bebb 80c5 67bb
00000370: daf6 933c 0746 d3bc b784 60bc 4e97 b1bb
00000380: 62e6 de3c 84a4 32bc fe23 c13c fe19 38bd
00000390: 0239 ca3c a10b d53c 3403 0abb 483c e6bb
000003a0: aa06 25bd da2b 0fbd bbfc 1fbd f397 c33c
000003b0: 31ba c2bb f8b4 293d 413c 273d 21bf eebc
000003c0: 5c0f bb3a bcaa 2fbd d50a a23c de80 25bd
000003d0: 40ee cc3a 178f 2ebd 7b35 223d efb8 39bd
000003e0: 6f34 b93c 80d6 a13a 0fa2 b83c 8de7 8cbc
000003f0: 2645 d3bc 7271 ca3c 43ba 2bbd 83fa 8c3c
-0.012305081 0.0044555515 -0.014389342 -0.036714867 0.024247937 -0.035832625 -0.011213111 0.027482525
-0.0009978786 -0.03435728 -0.03724176 0.03358617 0.011281425 -0.046709288 -0.037991576 -0.025124142
-0.0054586525 -0.021145657 0.041289967 0.03614718 0.03361721 -0.0085826265 0.027645268 -0.00305752
0.022804458 -0.040254284 -0.023432668 -0.012149422 0.013664504 0.039315112 -0.03269808 -0.0027712993
-0.011597794 -0.043265857 -0.03522679 0.008323014 0.0015475377 -0.010546818 0.01629964 0.0462016
0.012889948 0.031286918 0.024977723 -0.011400856 0.027412202 -0.045766108 -0.0071036764 0.023581197
-0.003229656 -0.04278103 -3.3288743e-06 -0.031780433 -0.033066086 -0.016236039 0.01948044 0.029299244
0.033898596 -0.010096985 0.015651908 -0.0062332675 -0.040028807 -0.008159621 -0.015406385 -0.009743199
0.0015396699 -0.0065345415 -0.019927667 -0.009586124 0.018640246 -0.001109298 -0.021061841 0.0067165634
0.0024957815 0.020079013 0.0028139844 0.02419243 0.03579851 -0.047569003 -0.016710503 0.008439591
-0.0029252847 0.022852566 -0.010174599 0.006517777 0.009973345 -0.009569537 0.0154137835 -0.0009838454
0.02317201 0.021017533 -0.009279568 -0.03833166 0.029089933 -0.02889726 -0.018138602 0.04549792
-0.0011527988 0.00330865 0.011657249 -0.019424127 0.020117559 -0.016237864 0.018469952 0.04993968
-0.018023299 0.0050601256 0.025888596 0.024599792 0.002121497 0.03547594 0.036533695 -0.032516073
0.038570877 0.03664001 -0.024315057 -0.0136318505 -0.010332416 -0.012853737 -0.029734604 -0.024734605
-0.009267792 -0.02371589 -0.015560621 -0.0022809021 0.0027073862 -0.011998364 -0.027211033 -0.032197036
-0.03333819 0.008837784 0.0054467693 -0.020309115 0.022386298 0.024371337 0.010115289 0.008317195
-0.026349382 0.0017182126 0.032102976 0.002747912 0.031956833 -0.0020605593 0.028887719 -0.02938839
0.015523054 0.005433477 0.03864676 0.018354837 0.0144033 0.011993039 -0.040427368 -0.036349233
0.016393194 0.020352107 0.038787488 0.03942755 -0.003684359 0.03336831 -0.024882386 -0.020556752
0.0060481285 0.0312122 -0.047172584 -0.03537877 0.012611368 -0.040659837 -0.03285868 -0.020976355
0.027128713 0.010138128 0.026737008 -0.014842925 0.00065557286 -0.043541297 -0.01822674 -0.012811426
0.0033632834 -0.03694884 -0.022127206 0.0014129877 -0.032313656 -0.008489385 -0.0011961423 -0.029269816
-0.04255216 -0.03673068 -0.013465118 -0.020585652 0.028772594 0.017123774 -0.001636523 0.018803531
-0.041046135 -0.032145754 -0.012401445 -0.0030844521 -0.0003170073 -0.030519154 -0.0213198 0.02232534
-0.03314653 0.0343128 0.027616058 -0.022070935 -0.039109856 0.032206904 -0.033672463 -0.02509969
0.024138678 -0.024617536 0.041088354 -0.010396525 0.038415715 0.042154957 0.023468154 -0.009764049
-0.01384663 -0.027332215 -0.0058257105 -0.0035365522 0.018062044 -0.025790228 -0.013703517 -0.0054196483
0.027209464 -0.010903481 0.023576733 -0.044946663 0.024685387 0.026006522 -0.0021059038 -0.007026229
-0.04028956 -0.03495393 -0.039059382 0.023876166 -0.005942606 0.04143235 0.040828947 -0.029143872
0.0014271545 -0.042887434 0.019780556 -0.0404061 0.0015634969 -0.04261693 0.039601784 -0.045342382
0.02260801 0.0012347251 0.022538213 -0.017200256 -0.025789808 0.024712298 -0.04192568 0.017209297

fc3.weight f4 [128, 256]
00000000: 98b6 41bc 1484 673d 3eea 24bd 5ec9 05bd
00000010: 7e35 69bd 34ab cc3c 0cdc ddbc 28cd 0fbc
00000020: b0e9 9cbb b03f cc3c c413 283d 00e0 073b
00000030: c4a9 c93c 0875 6d3d b8b5 ebbc a0cb 783c
00000040: 8ca5 db3c 5025 10bd 0003 a83b c00f 5fbc
00000050: 4297 18bd 8084 51bd cc4a b9bc 8835 00bd
00000060: 5802 41bd ccf0 26bd e8dd 4ebc 8865 19bd
00000070: 5c65 c93c c0e1 5e3d 7421 6e3d 8cbe 7bbd
00000080: 14f3 61bd 9cfd e63c 1826 dd3c c26d 0f3d
00000090: dedb 1cbd 00f1 a5b9 6014 cdbb 785a 8c3c
000000a0: 2464 253d aeec 223d e0bc e7bb 0057 563a
000000b0: 727a 0f3d e407 513d d053 07bd 84eb cb3c
000000c0: a011 783d e45c 63bd 7a7e 1b3d 1e86 3e3d
000000d0: c49d e1bc 3444 32bd 846e ffbc 7874 973c
000000e0: 80bf c2bb f0ca 40bd 3a5a 4fbd 00a8 bdb8
000000f0: 2884 f8bc 3894 7dbd ec6f 6a3d b052 d0bc
00000100: 3a78 3f3d 60d9 93bc 003e 23bc aa2e 7abd
00000110: a816 c9bc 2675 0ebd a861 1f3c 0ac2 7d3d
00000120: a6b4 5abd 68b0 f2bc 28a0 233c 2eeb 193d
00000130: 0c46 2e3d f415 b83c f8e9 763c a0f9 3dbd
00000140: 941a 31bd a2e9 613d 600e 32bb 260e 08bd
00000150: 7070 b73b 20de 853b 700b 1e3d 6228 303d
00000160: 7214 57bd 5eba 303d ec4c 9d3c 543e 1dbd
00000170: 1849 5b3d 2032 013d 563c 1d3d 3089 eb3c
00000180: 78ca 55bc c4c8 93bc b01e 703c 2890 53bc
00000190: 4071 b6bb f076 aabc 003a 2239 b093 a8bb
000001a0: 8040 d53c c06f bfbb 28d9 753c 304e 8d3b
000001b0: 64bb 603d 7844 313c e058 933c a489 67bd
000001c0: 4c58 d3bc d83a 33bd c06a f63b f45d d4bc
000001d0: eefd 523d f8f8 213d 98d4 d3bc e8c2 0b3d
000001e0: b0cc 0e3c 5c2e d4bc 6063 653b c6dc 4bbd
000001f0: 6ce5 9cbc c66d 273d 10d7 f93b 8054 423d
00000200: 7e86 2cbd dc0d 5f3d ccc8 99bc 20ec 6d3b
00000210: a07d fbbc 3c9f 6bbd a033 91bb 46ae 673d
00000220: d0fb 37bc 40fa 1cbc 2206 51bd 70de 243d
00000230: c0e3 1bbd e8b9 86bc acd8 20bd c04d 2bbd
00000240: 980f 133d 7a01 17bd dc1d 2ebd 001a 513c
00000250: 0e89 033d e682 2dbd 8ae1 12bd 7886 27bc
00000260: 1021 a1bc 6cb4 c1bc 00b8 d2ba a012 1bbc
00000270: 0889 34bd a093 603c c88c c83c 1491 86bc
00000280: 62ae 64bd b43d 56bd 8a06 2d3d f01b d93c
00000290: 385a 31bc 7c5f 953c 8234 1b3d 9042 4a3c
000002a0: 8040 50bd f44e 6f3d 5052 d73c 50e9 93bc
000002b0: 62dd 343d 9c12 df3c cc6b ddbc 447e 65bd
000002c0: d81b 0e3d 50ca f1bc 3071 b43b 700e 98bc
000002d0: b085 783c b4f9 92bc 9275 583d 6867 66bd
000002e0: e449 893c e464 373d 284e 5b3d 60e7 dabc
000002f0: 1ab5 073d ea23 293d 8058 efba 40b9 ebbb
00000300: 901c 37bc c0d3 efbc 9044 d2bc 2437 fb3c
00000310: b41a 62bd 28bf 273c ea5e 763d 58d2 52bd
00000320: 70ce 303c 147f a7bc f22e 583d d065 613d
00000330: e832 edbc 2eab 193d 30ab e0bb 50fe 43bd
00000340: 1ce3 dc3c 8035 4e3b 24ab a7bc e8f9 53bd
00000350: 02ba 2bbd c07a 7ebd 4890 37bd 403e 9bbb
00000360: 5a75 703d 0006 acb9 bc8b ccbc 0050 a5b7
00000370: 18e3 31bc c048 cdbb 008f c9bb b805 413d
00000380: a8e3 1dbd 645c a8bc 4420 be3c f44d 7b3d
00000390: b883 3bbc ace6 733d 700a 58bd 1cb1 9a3c
000003a0: 9a9e 16bd 7ce6 d33c 300e ecbc a2a2 73bd
000003b0: 38d5 fcbc 3097 bfbc fc52 b4bc 3237 6c3d
000003c0: 207f e33b d0f7 04bc 8077 24bd e036 60bc
000003d0: 009f 16ba 6adb 28bd 94e5 67bd 2868 dabc
000003e0: ee12 7c3d 2052 c1bb 10fe 91bc 9ca8 19bd
000003f0: dab2 34bd 64d8 883c 080c 003c 7482 23bd
-0.011823319 0.056522444 -0.040262453 -0.03266274 -0.05693578 0.02498398 -0.027082466 -0.00877694
-0.0047886 0.024932712 0.041034475 0.002073288 0.024617083 0.057972938 -0.028773174 0.015185267
0.026812337 -0.035191834 0.0051273108 -0.013614595 -0.037253626 -0.051151752 -0.022618674 -0.03130105
-0.047121376 -0.040756986 -0.012626149 -0.037450343 0.024584465 0.05441451 0.058137372 -0.061461017
-0.055163458 0.028197102 0.026995704 0.035016783 -0.03829562 -0.0003165081 -0.0062585324 0.017132983
0.040378705 0.039776497 -0.007072076 0.0008176416 0.035028882 0.051032916 -0.033038914 0.024892576
0.060563684 -0.05550851 0.037962414 0.046514623 -0.027541049 -0.043522075 -0.031180628 0.018488154
-0.0059432387 -0.047068536 -0.050623156 -9.043515e-05 -0.030336455 -0.06190893 0.057235643 -0.025430053
0.046745516 -0.018047988 -0.009963512 -0.06107966 -0.024546936 -0.03477969 0.009727873 0.06195263
-0.053394936 -0.029625133 0.009986915 0.0375778 0.04254727 0.022471406 0.015070431 -0.04638064
-0.043238238 0.05515445 -0.0027169213 -0.033216618 0.0055981204 0.0040853173 0.038585126 0.043007262
-0.052509733 0.043146484 0.019201718 -0.03838952 0.053536505 0.031541944 0.03838762 0.02875194
-0.013048761 -0.018040068 0.014655754 -0.0129127875 -0.0055676997 -0.020808667 0.0001547113 -0.005144559
0.026031733 -0.005842179 0.015005387 0.004312299 0.05486621 0.010819547 0.017986715 -0.05652775
-0.02579894 -0.04375729 0.00752005 -0.025923707 0.051511697 0.039544076 -0.025858209 0.034121424
0.0087157935 -0.025901012 0.003500186 -0.049771093 -0.019152366 0.040876172 0.0076245144 0.047443867
-0.04212045 0.054456577 -0.018772505 0.0036304072 -0.030699551 -0.057524905 -0.004431203 0.056562684
-0.01122947 -0.009581149 -0.05103124 0.040251195 -0.038058996 -0.016446069 -0.039269134 -0.041822195
0.035903543 -0.036866643 -0.042508945 0.012762547 0.032113127 -0.042361163 -0.035859622 -0.010224931
-0.019669086 -0.023645602 -0.0016076565 -0.00946489 -0.044075996 0.013707072 0.024481192 -0.0164266
-0.055830367 -0.05230494 0.042242564 0.02650258 -0.0108247325 0.018234007 0.037891872 0.012344971
-0.050842762 0.058424905 0.026284367 -0.018055588 0.04415644 0.027230553 -0.02702894 -0.05602862
0.034694523 -0.029515415 0.005506657 -0.018561572 0.015168592 -0.017941333 0.0528465 -0.05625096
0.016758867 0.04477395 0.053541332 -0.026721656 0.033131696 0.041294016 -0.0018260628 -0.0071937144
-0.011176243 -0.029275775 -0.025667459 0.030665942 -0.055201247 0.010238446 0.06014911 -0.05147013
0.010791406 -0.020446338 0.052779146 0.055028737 -0.028954938 0.037516765 -0.0068563446 -0.047849953
0.026963763 0.0031464994 -0.020467348 -0.051752 -0.041925438 -0.062128782 -0.04481533 -0.0047376454
0.058705665 -0.00032810867 -0.024968974 -1.9706786e-05 -0.010857366 -0.006264776 -0.00615108 0.047124594
-0.038547188 -0.020551868 0.023208745 0.06135364 -0.011444978 0.059546158 -0.05274433 0.01888328
-0.036772348 0.02586674 -0.028815359 -0.05948127 -0.03086339 -0.023387522 -0.022012226 0.057669826
0.0069426447 -0.008115724 -0.040153027 -0.013684958 -0.0005745739 -0.041224875 -0.056615427 -0.026660994
0.06154149 -0.0058996826 -0.017821342 -0.037514314 -0.04411588 0.016704746 0.0078153685 -0.03991933

fc3.bias f4 [128]
00000000: 2680 0d3d 244f 0cbc 6401 2cbd ff25 263c
00000010: 3cd3 c03c f0c9 953c 709e 1dbc ea9d e43c
00000020: 40e8 c43a 6386 913c 4d0d 3839 4663 32bd
00000030: 97a0 b7bc 9b82 1bbc 204c 4a3c a37e 61bd
00000040: 4f8f efbc d67b 423d 493b 36bc e355 42bd
00000050: 6f93 463d 0f8f ab3c af9f 50bd db10 303d
00000060: 2708 37bb 7854 d9bc 40be 58bd ae0f a1bc
00000070: 3ac4 143d f4f5 96bc b88f 6ebc e8ee 583c
00000080: 001a 3f3d bafb 81bc d11a 353d d72e 303d
00000090: c006 72bc b4be 453d 26a7 2ebd 3001 37bc
000000a0: 04b6 afba 4418 b73c b4cd 42bc 35fc 6eba
000000b0: 926e 3b3d c584 23bd e2a4 d1bb b258 77bd
000000c0: 9914 a8bc 68f2 0cbc d90a 7a3d d83b 68bd
000000d0: 5944 4f3d 422d 13bd 31a1 773d 2fe9 8e3c
000000e0: 4252 533d 5121 24bd 2244 90bc 0947 fe3c
000000f0: 6634 613d 04ec 79bd c080 1b3d 2cf5 a5bb
00000100: d315 02bd 924a 34bd d4e1 263d 61dd 51bd
00000110: d912 493d f755 69bd db7f 0c3d 511c 70bc
00000120: 84cb b63c 7a77 6bbd 3096 d0bc 84e0 d33c
00000130: b5a7 593d c49c c3bc 7a2e 7ebd 2ead 14bd
00000140: 6688 47bc 1a39 a8bb a2b7 7c3d d478 7dbc
00000150: 682d 1b3d acbc 40bd 070d 0d3d cf8b 76bd
00000160: ef44 cdbb d6a9 e3bc fa03 13bd 4685 243d
00000170: e9da e8bc e62c 69bc 42b3 e5bc 1832 683c
00000180: e3e8 4fbd 0078 b8b8 c73e 25bd 097c 37bd
00000190: b9fa f7bc 0d64 f7bc 23da bbbc ba76 443d
000001a0: 8816 87bc 5712 4cbd bb6c 5a3d 3a5f 3e3d
000001b0: 95e1 c9bb 1c9f 33bd 6055 5d3d 750d f23c
000001c0: 29f4 47bd 296c 8a3c c667 353d 8409 c0bc
000001d0: 068a b93c 340a 003d 9697 53bd c3f4 4f3d
000001e0: c4b7 80bc 2f05 bc3a 9b66 df3b 962c 463c
000001f0: 22ec 333c 8851 243b 9941 b7bc 30b1 d5bb
0.03454604 -0.0085637905 -0.041993514 0.010140895 0.023538224 0.018284768 -0.009620294 0.02790733
0.0015022829 0.017764276 0.00017552562 -0.043551706 -0.022415442 -0.009491588 0.012347251 -0.05505241
-0.02924314 0.04748138 -0.011122533 -0.04744519 0.048480447 0.02094224 -0.050933536 0.042984825
-0.0027928443 -0.026529536 -0.05291581 -0.019660797 0.03631995 -0.018427826 -0.014560632 0.013240553
0.046655655 -0.015867103 0.044215027 0.04301342 -0.014772117 0.04827757 -0.042639874 -0.011169717
-0.0013405685 0.022350438 -0.011889864 -0.0009116561 0.045759745 -0.03992154 -0.0063978294 -0.06038732
-0.020517634 -0.008602716 0.0610455 -0.056697696 0.05060229 -0.035931833 0.06045646 0.017445175
0.05159212 -0.040070836 -0.017610613 0.031039732 0.05498161 -0.061016098 0.037964582 -0.005064627
-0.031759094 -0.04401643 0.04074271 -0.051236514 0.04909024 -0.056966748 0.03430162 -0.014655189
0.02231384 -0.05748699 -0.02546224 0.025863893 0.053138454 -0.023878463 -0.062056042 -0.03629797
-0.012178516 -0.00513376 0.061698563 -0.015470702 0.0378851 -0.04705493 0.034436252 -0.060191926
-0.006264321 -0.027790945 -0.035892464 0.040166162 -0.028424697 -0.014231896 -0.028039578 0.0141720995
-0.050759207 -8.7961555e-05 -0.040343072 -0.044796024 -0.030270921 -0.030199075 -0.022931164 0.04796479
-0.016490236 -0.049822178 0.05332635 0.046477534 -0.0061609247 -0.04385291 0.054036498 0.029547432
-0.048816834 0.016897278 0.04428842 -0.023442037 0.022648823 0.03125973 -0.051658235 0.050770532
-0.015712626 0.0014344807 0.0068176514 0.012095591 0.010981591 0.002507301 -0.022370147 -0.0065213665

out.weight f4 [7, 128]
00000000: 12fa 423d f69c 8ebd 2c8a 063d 1098 a6bc
00000010: b4f5 6bbd 8e8e 34bd bd7d a83d 603e 933d
00000020: db80 81bd de79 5bbd 1867 52bb 3b1b 7ebd
00000030: 2950 543d e6ec 70bc 8030 be3c 59c8 483d
00000040: 015e 6dbc 48a3 073c c87c 07bd 0691 3dbd
00000050: 1c7b 893d a23d 9ebd df79 0f3c ee78 8e3d
00000060: 3f72 823d 9b9c 4b3d 5469 80bc be8e 013d
00000070: b45f 2bbd 9434 9ebc 3877 b33c 2338 aebc
00000080: 5080 833c dc32 273d 8612 d4bc efc3 663d
00000090: a0d9 7a3b 80f5 0f3a a589 4f3d 10bd 4fbc
000000a0: c5de 4abd 6f03 1cbd 19ea 273d 5566 29bd
000000b0: 9c65 a4bd 7cdb 143d 753b 613d 6d82 9fbd
000000c0: b6e4 8f3c 8ecd 223d 9987 82bd 32f5 23bc
000000d0: 57f1 013b 629b ae3c b697 3a3c 3a6f 1ebd
000000e0: 71c8 aa3d baf4 b33a adf4 58bb 8f30 5dbd
000000f0: 21d7 01bd 9c8d c3bc 42b8 543d db88 cf3b
00000100: e35b 9f3d 2749 08bd a714 873d e688 a63d
00000110: 3145 92bd d26d a73d 294e 48bb 1028 4dbd
00000120: 1415 87bd 06dc 8fbd c83d 773d e1a1 af3d
00000130: 0401 edba e92f 103d d8c0 4e3d 81b2 643d
00000140: 0ec2 493d 5874 13bd b5b2 8d3d cfe8 8f3d
00000150: d37f 8a3d 91d9 7c3c 5399 34bd 6498 183d
00000160: cd00 4a3d b00b 8cbc 998a 9d3d a967 2e3d
00000170: f808 e03c 1105 843d 459b 793d 6029 2e3c
00000180: 7fba 123d cf2c ae3d 8f8d 8b3d 3251 d53c
00000190: 2962 303d ff32 72bd b78c 43bc 1e4f e6bc
000001a0: 106a 97bb 5652 b33d 8796 833d 3fab 2ebd
000001b0: acc9 7a3d 6223 26bd 6b4b bc3b 7a51 6e3d
000001c0: 9b21 033d d509 bc3d f2a8 05bc 03a8 a8bc
000001d0: 4293 6b3d d902 20bd 567e 633d cdac 0b3d
000001e0: 7eca a7bd c6f3 103d 1457 df3c 3968 9d3d
000001f0: 3de2 6c3d 31d4 853c 5b2e 62bd 1abd 423d
00000200: 4cea 76bd e984 18bc 7b54 223d 7d6c b3bc
00000210: d8a5 3abc 1731 ad3d 00d8 10bd 4f25 8ebc
00000220: 0231 4c3d 8622 e33b 8b6f 55bd 54f2 1d3d
00000230: fd64 a93d 24a1 813d 449c ca3c 902b 25bd
00000240: 68f5 bbbc 08af d6bc 80ad 633b 2042 c3bc
00000250: 3e21 61bb cff1 953c 049b b33c d27f 8fbd
00000260: 0f8b ae3b 7995 8aba 7007 943b ee31 e73b
00000270: ecfe 25bd f9bf 8e3d d516 06bc a9f1 f73c
00000280: c080 8dbb 6d8b 043d aac9 88bd 8d12 733d
00000290: 3260 6cbd 89d3 0bbd bac0 c83c c801 3dbc
000002a0: 3127 babc b07d b6bc f43a 3e3d a334 8a3d
000002b0: 60e8 063b 8249 a63b da64 ac3c eb0c 23bd
000002c0: 96f4 d5bc 4e69 713d de37 883d e44e b43d
000002d0: 4552 acbd 1bc8 59bd e136 c13c f368 fdbc
000002e0: 52ef 003d ad1a ebbc c486 553d 0205 0a3d
000002f0: dc6e a1bc 381c 61bc 0080 7d38 f87a 51bd
00000300: 930b 1dbd 1017 1e3d abe5 233d 22aa f93c
00000310: a6db f13c ddf6 2bbd 81f9 70bd 18a4 973d
00000320: d06b babb 7402 883d 1d35 bbbc 2663 5abd
00000330: 9967 cf3c 6847 c73c 328f 4bbc bb85 633d
00000340: 09e7 013c d7d0 713b 3281 75bd 129b acbd
00000350: 7d02 b1bd fa2c 973c 6505 5fbb a188 023d
00000360: f0a0 43bb 5a76 193c 6a48 313d 2c53 013d
00000370: 2d3f 453d af46 29bd 41bb 433d 2d0c 8cbd
00000380: 9abe 513c 925f 473d 1ef8 783d 2201 8abd
00000390: 32c4 aabc 543b 6dbc d3ac 1bbd 5eb0 37bd
000003a0: 525c 2a3d 987c 6b3d 60a2 943d 1830 08bb
000003b0: b945 8ebd e304 3bbc dc76 623d b607 8a3d
000003c0: 88a7 9f3d 0b17 5abd fb20 a23d 1df5 44bd
000003d0: 644b 17bc b3a2 2ebd b608 84bb 5ade 013d
000003e0: e003 84bc 0ae1 073d 0836 c23c 4c70 92bd
000003f0: d103 ae3d 05a8 adbd d563 b6bc 405f 783b
0.047601767 -0.06963532 0.032846615 -0.02033618 -0.057607368 -0.044081263 0.08227108 0.071896315
-0.06323405 -0.05358302 -0.0032104906 -0.062037688 0.05183426 -0.0147049185 0.023216486 0.04901919
-0.014487744 0.008278675 -0.033077985 -0.046280883 0.067129344 -0.07726599 0.008757084 0.06956659
0.06369447 0.049709897 -0.015675224 0.03163027 -0.041839316 -0.01931218 0.021907434 -0.021267002
0.016052395 0.040819988 -0.025887739 0.0563392 0.0038276687 0.00054915994 0.050668377 -0.012679353
-0.049528856 -0.038089212 0.040994737 -0.041357357 -0.08027193 0.03634213 0.054988343 -0.077885486
0.017565113 0.039746813 -0.063735195 -0.01000719 0.0019827688 0.021314327 0.01138871 -0.038680293
0.083390124 0.001372955 -0.0033104823 -0.054001387 -0.031699304 -0.023871236 0.051933534 0.006333453
0.07781198 -0.03327289 0.06595736 0.0813158 -0.071421035 0.081752434 -0.0030564165 -0.050087035
-0.06595817 -0.07024388 0.060361654 0.08575798 -0.0018081968 0.03520194 0.05047688 0.055834297
0.04925733 -0.035999626 0.06918851 0.070268266 0.06762662 0.015432731 -0.044091534 0.037254706
0.04931717 -0.017095417 0.07692451 0.042579327 0.027348027 0.06446279 0.060939092 0.010629982
0.035822388 0.0850464 0.068141095 0.026039694 0.043062363 -0.059130665 -0.0119354045 -0.028113898
-0.004620798 0.08755939 0.06425195 -0.04264378 0.061227486 -0.040561087 0.005746295 0.05818317
0.03201447 0.09181563 -0.0081579555 -0.020587927 0.057513483 -0.039065216 0.055540405 0.034100343
-0.08192919 0.03538873 0.027263202 0.076858945 0.057832945 0.016336532 -0.05521999 0.047543623
-0.060282037 -0.009309032 0.039631348 -0.021902317 -0.011392079 0.08456629 -0.035362244 -0.017351774
0.049851425 0.0069316057 -0.05210833 0.03856118 0.08271215 0.06329563 0.024732716 -0.040324748
-0.022944167 -0.026206508 0.0034740865 -0.023835242 -0.003435209 0.01830378 0.021924503 -0.07006802
0.0053266357 -0.0010573111 0.004517488 0.0070555126 -0.040526316 0.0697021 -0.0081841545 0.0302666
-0.0043183267 0.03235953 -0.06679089 0.059343863 -0.057708926 -0.034137283 0.024505962 -0.011536069
-0.022723766 -0.02227673 0.04644294 0.06748321 0.0020585284 0.005074681 0.021044184 -0.03980724
-0.026117604 0.058938317 0.06651281 0.0880411 -0.08414129 -0.05316935 0.023585739 -0.030933833
0.031478234 -0.028699243 0.052130476 0.033696182 -0.019706182 -0.013739638 6.043911e-05 -0.051142663
-0.038341116 0.038596213 0.04001395 0.030476633 0.029523682 -0.041983474 -0.058831695 0.07404345
-0.005689122 0.06641093 -0.022852475 -0.05331721 0.025317954 0.024326041 -0.012424277 0.055547457
0.007928618 0.003689816 -0.059937663 -0.08428015 -0.08643053 0.018454064 -0.0034030315 0.03186858
-0.0029850565 0.009366596 0.04328195 0.03157346 0.048155952 -0.041327175 0.047786 -0.0683826
0.012801791 0.048675127 0.060783498 -0.06738497 -0.020845506 -0.014479477 -0.038006615 -0.04484593
0.04159195 0.05749187 0.07257533 -0.002078062 -0.06946892 -0.011414739 0.055289134 0.06739752
0.07795626 -0.05324463 0.07916447 -0.04808532 -0.009234283 -0.04263563 -0.0040293587 0.03170619
-0.016115129 0.0331736 0.023707405 -0.07150325 0.08496822 -0.08479313 -0.0222644 0.003789857

out.bias f4 [7]
00000000: bd51 563d 9018 e33b 3d90 de3c 5015 503d
00000010: e02a 563d da2b 69bd 67ae 903d
0.052324045 0.0069304183 0.027168388 0.050801575 0.052286983 -0.056926586 0.070645146
