trained_models/dqn_shooter_25.pt (torch, 684244 bytes, 8 tensors)

fc1.weight f4 [512, 9]
00000000: 3fce 92be d8ac 663d f1a2 a4be 1d44 9e3e
00000010: da91 06be 8fba 8abe 931c 683e 7baf 87be
00000020: 933d 3bbe 8646 1ebe 523f 80be e6f3 0c3e
00000030: 537d 9cbe ce9f 3f3e dad9 723e 2c0f 81bd
00000040: b93a 913e 54d1 81be 06e2 11bd 46ed 91be
00000050: 15ab 213d 8fb3 b63d 8929 80be 0559 6abe
00000060: 6253 4c3e 5e5b 823e 313f 65be cb81 853e
00000070: 7052 7e3e 0d4f ebbd 2a37 003e cc56 32be
00000080: 01d6 983d 54ec 8e3e 0be5 763e 3ac7 b6be
00000090: 3efe b83e 60db fdbd ac17 3ebd 1c7c 463e
000000a0: fa7f 7d3d 567f 033e febe 363e fb70 b43c
000000b0: ebf3 e63d 059e 5d3d 1dc1 653e 4e80 853e
000000c0: bad2 843e b69c 19be 5774 f2bc d6e9 95be
000000d0: f326 63bd 76d5 783e feb8 3bbd 2434 9abd
000000e0: 8ef4 043d 66d6 803e d736 e23d 53b5 7fbe
000000f0: e44a 933e 3973 863e 805d f8bc c093 5ebe
00000100: d8cc db3d 94e3 74bd 0265 713d 57d5 853e
00000110: a6ee 923d 4a58 9f3e ede2 3abe 9241 8a3e
00000120: 3813 71be 5e03 383e 9eed 37be 1eb0 3dbe
00000130: f1aa 953e 331c 1cbe 5b4f 45be 8bfe 4abe
00000140: 2b87 17be 15e1 6dbe c0aa 10be 87db 283c
00000150: 480c d03d 3ab4 083c 359b c93d 96aa 92be
00000160: 51ea 66be 1782 84be 542a 2e3e 61bc a23e
00000170: 3529 6e3e 958e 6a3e 1083 28be 4941 02bd
00000180: 227a 143b 2453 e63d 3b37 0b3e cbeb 5fbe
00000190: a26a 3b3c 1338 2f3d 35d4 3f3e 0515 953e
000001a0: 48c5 40bd 50b9 df3c ec84 9c3d 9005 363e
000001b0: 8ae1 94be 6079 64be a38e 5abe 9303 45be
000001c0: 00b3 163c 8088 343b d00d 8cbe d014 b4bd
000001d0: 670c a33e 4227 283e eef3 17be 9c83 eb3d
000001e0: 34fc a6be e380 01be a041 263e 8bda 9ebe
000001f0: 00ae c7bc 48ce 32be d489 05be 572e 97be
00000200: db7e 993e 0f7a 2c3e f02c e6bd d626 58be
00000210: b07c 03be 9420 383e 99cf 4bbe fcee a3bd
00000220: f639 b7bd c11c 863e c019 f8bd 3277 1e3e
00000230: 23c0 44be 08e0 503d aa6d 1d3e a7e2 9b3e
00000240: e93a c3be ccf2 8fbe e261 a0be 3101 943e
00000250: 116f 9dbe 26cd f63d 1b92 22be afcb b5bd
00000260: 0485 64bb 98b0 5abd dcf8 e53d 4685 c1bd
00000270: 66ab 7fbe 0a6b 683e 8a39 653e c0a4 b6bb
00000280: da6f 143e 00d3 31bd bc9b abbd c63f dfbd
00000290: a32e 7dbe 5c06 91be ec52 aabe 6ba9 913e
000002a0: 76f8 56be d635 57be 00a6 dfbb 6bb9 2abe
000002b0: 6ecf 073e 6b11 45be f8d5 71be cee3 a2be
000002c0: 0b20 00be 43ca 0fbe c6d6 3c3e 9ee0 4b3e
000002d0: 306e 56be 16d3 3ebe 6b53 1abe 90b3 87be
000002e0: 80ec 4e3b 189c a7be ea2b 393e bc53 c2bd
000002f0: dd12 903e 9a67 4d3e 9c78 82bd 8c3d 99be
00000300: 8cc0 8abd 7075 c53c 5bfe 6cbe 90c1 a5bc
00000310: 2e33 63be 0022 46be 2347 9dbe 7361 ff3d
00000320: 99f0 c03d 99c0 8f3e 1848 be3d e178 6a3e
00000330: fb55 953e 8247 af3e d3b2 0f3e 80e8 443b
00000340: 4225 4a3e 504a d0bd de16 03be ca9b 763e
00000350: 7bc3 873e eca3 e4bd dd58 a83e 951b a13e
00000360: 3625 1abe b947 123e baba 893e b74e 093e
00000370: 00a6 4b3e 2ff1 3d3e 927b d4bc 57c1 d7bd
00000380: f706 9b3e b236 093d 1eba 85bd 2a2f 2dbe
00000390: b950 be3d c95f 9e3e 5c79 443e e8d2 4a3e
000003a0: 06ba 423b da18 97be 1e6f a9be 3381 5d3e
000003b0: 31d0 8f3e 0bb7 5b3c 7439 73bd f538 12be
000003c0: 3de4 8bbd 281a a1be 3255 533e 3deb 923e
000003d0: ea91 333e 3626 6c3e 9083 bcbd c247 87be
000003e0: 45d6 833e 2e30 793e 60b2 7ebe 2175 923e
000003f0: 3469 a9bd 664f 513e ea93 333e 0e5f 57be
-0.28672978 0.05631718 -0.32155564 0.3091134 -0.13141575 -0.27095458 0.2266715 -0.26501068
-0.18285207 -0.1545659 -0.2504831 0.13764915 -0.30564365 0.18713304 0.23715916 -0.06301722
0.28365114 -0.25355017 -0.035615943 -0.28501338 0.039469797 0.08920967 -0.2503169 -0.22885521
0.19953683 0.25460333 -0.22387387 0.26075587 0.24836135 -0.11489687 0.12521043 -0.17415923
0.07462693 0.2791468 0.2411081 -0.35698873 0.3613147 -0.12395358 -0.046409294 0.19383281
0.061889626 0.12841544 0.17846295 0.02202653 0.112769924 0.054105777 0.22436948 0.2607445
0.25942022 -0.15001187 -0.02959649 -0.29279965 -0.055457067 0.24300179 -0.04583072 -0.07529476
0.032459788 0.25163573 0.11045616 -0.24971513 0.28768075 0.26259783 -0.030318022 -0.2173605
0.1073243 -0.059787348 0.05893422 0.26139328 0.07174425 0.31122047 -0.18250628 0.2700315
-0.23542488 0.17970034 -0.17961738 -0.18524215 0.2923198 -0.15245132 -0.19268553 -0.19823663
-0.14797656 -0.23230393 -0.14127636 0.010306246 0.101585925 0.008343751 0.098440565 -0.28645772
-0.22550322 -0.258805 0.17008334 0.31784347 0.23257907 0.22905953 -0.16456246 -0.031800542
0.0022655805 0.112463266 0.13595288 -0.21867292 0.011438997 0.042778086 0.18733294 0.291176
-0.047063142 0.027310044 0.0764254 0.1777556 -0.29078323 -0.22311926 -0.21343474 -0.19239645
0.00919795 0.002754718 -0.27354288 -0.08793032 0.318454 0.16421226 -0.14839146 0.11499712
-0.3261429 -0.12646823 0.16235971 -0.3102611 -0.024374962 -0.17461503 -0.13040859 -0.29527542
0.29979596 0.16843437 -0.1123904 -0.21108565 -0.12840533 0.17981178 -0.19903411 -0.08004567
-0.08946602 0.26193812 -0.121142864 0.15475157 -0.1921392 0.050994903 0.15373865 0.3044636
-0.38130882 -0.28114927 -0.3132468 0.2890716 -0.307488 0.12050848 -0.15876047 -0.0887674
-0.0034869323 -0.05339107 0.11229107 -0.09449248 -0.24967727 0.22697082 0.2238523 -0.005573839
0.14495793 -0.043414116 -0.08379313 -0.10900836 -0.24724822 -0.28325164 -0.3326639 0.28449568
-0.20993218 -0.2101663 -0.0068252087 -0.16672294 0.13262722 -0.19244926 -0.23616779 -0.31814426
-0.12512223 -0.14042 0.18441305 0.19909903 -0.2094047 -0.1863521 -0.15070884 -0.26504183
0.003157407 -0.32736278 0.18083158 -0.09488627 0.28139392 0.20059052 -0.06370661 -0.2992977
-0.06775007 0.02410385 -0.23143904 -0.0202339 -0.22187492 -0.19348907 -0.30718336 0.12469759
0.0942089 0.28076628 0.092910945 0.22897674 0.2916716 0.34234244 0.1403306 0.0030045807
0.19740775 -0.10170424 -0.12801692 0.24082866 0.26516327 -0.11164078 0.32880297 0.31466356
-0.15053257 0.14285173 0.26900274 0.13408934 0.19887543 0.18549035 -0.02593783 -0.105349235
0.3027875 0.033499427 -0.0652964 -0.16912523 0.092927404 0.30932453 0.1918692 0.19807017
0.002971293 -0.29511148 -0.33092588 0.21631317 0.28088525 0.01341034 -0.059380963 -0.1427954
-0.06830642 -0.31465268 0.20637968 0.28695098 0.1753613 0.23061451 -0.09204781 -0.26421934
0.25749412 0.24334785 -0.24872732 0.28604987 -0.08272019 0.20440444 0.17536893 -0.21032354

fc1.bias f4 [512]
00000000: 40ea 15be 2054 f2bd a993 fb3d 9fdc fe3d
00000010: da34 a2bd 0411 cb3d 0e73 283e fc99 1fbe
00000020: a0a4 1f3e cda4 39bd 3601 94bd 99b4 9f3e
00000030: 9838 083d 125c 533e 5835 77bc d7f1 823e
00000040: b5cf 97be 334e 803e a0fb 5abd 40d4 52be
00000050: 222a 793e 5be9 69be 4e23 1abb fb86 9c3e
00000060: 8984 923e b8a0 33be 8ada 19be 329a a5be
00000070: 228f 6f3e 82e0 5a3e 555c 8a3e 96ac d6bd
00000080: 026a 6c3e 3cb9 dbbd 8407 223e f0b3 db3d
00000090: 25cc a43e 708e 96bc 184b 943e 14f1 e63d
000000a0: 286f 08be 8e06 7cbe f05a afbd 7a03 303e
000000b0: 68c9 393d da4f 303e 2c7e eb3d 2ca3 703e
000000c0: e939 613e 822c 363e 8065 b7bc 3018 0b3e
000000d0: 5edc 233e d5fe 4bbe fa94 a1be 45bd a13e
000000e0: 872b b73d 5f2e a53e c285 93bd e5d3 85be
000000f0: a612 003d 18c9 9fbe a5e6 4fbd 4e46 11be
00000100: c75b 8dbe ce9f 6dbc 2e58 79be 70d3 8a3c
00000110: 2a3a 2a3e 9c98 6cbc b2d9 37be c6ff 3cbc
00000120: af86 ddbd 5cba 9dbd 897f 8d3e 136b 99be
00000130: 284c 5abe 73fa 4bbe eb74 7bbe b861 883d
00000140: abfe c53c a5d7 993d def8 583e 6768 113e
00000150: e0d7 18bc d0f1 6fbe 503e bdbd 5b7c 3c3d
00000160: 59f5 953e 8f40 6f3e d602 a9be 6fa4 91be
00000170: f027 bfbc 25e3 8bbe 1a4f a43e a08b 613d
00000180: ef08 9fbd c0e6 283e 523f e93d 5073 c33d
00000190: 787d 61be b21e 7abd e0d2 38bc 6831 343d
000001a0: e42e 0dbe 33f0 56be 6e54 3cbe 70b6 23be
000001b0: 06a2 60be 9461 36bd 5020 d83c 837c a33e
000001c0: e53d 6dbe b275 183e f2b5 503e 283f a3be
000001d0: 9bc6 7dbe fbc0 9e3e 2add 8bbe 4e57 003e
000001e0: ef2d 7ebe e879 413d 5a4d ecbd 3ede 693e
000001f0: e6a8 6f3e 64ab 78bd 84f7 53bc bf96 6c3e
00000200: 9809 5abd 96f8 453e 1685 743e ca21 533e
00000210: a06e e6bd fa13 773e 663a 8b3e 06b6 e2bd
00000220: af6c f4bb 1ba2 98be 05ba 933e c8b1 38bd
00000230: 686c 4fbd 8291 1a3e df9d 62bd 31fa 733c
00000240: 464f a2be 344e a83d 62d5 523e d3a8 8abe
00000250: b9ee efbc 7606 d0bd a57c 21bc 8467 0c3e
00000260: d549 4cbd 383c 173d a6ee 7bbe 6057 00be
00000270: 8c12 a5be 20c9 843e 2a4c 5f3e f013 f0bd
00000280: ad23 91bd 60fb 8abd 344d f4bd 075a 63be
00000290: f929 c73d f822 7cbe a559 963d 575c 44be
000002a0: f08e fc3d 1090 bcbc a5be 863c 88b4 193d
000002b0: 00aa 783d 3563 a5be 5b5b 64be abd4 70be
000002c0: 6e0a 5bbe 9139 9a3e 63bc a73e 6544 a2be
000002d0: dd39 71be 0657 a6be ba44 20bd 39d7 423e
000002e0: 8cff 453e dd98 b9bd d0e6 24be 9864 b8bc
000002f0: 2834 10bc c6e4 a0be d3b8 0ebe 976f 993d
00000300: 2ad2 7a3c f34b 153d 2398 53be dfd2 a6be
00000310: a5a7 56be 43cd 74bd d6f7 35be 7006 993c
00000320: 8a9c bc3d c358 65be b9da 823e 8ccc 60be
00000330: 4e1f 71be 8375 02be 0aa7 adbd 3ff2 a1be
00000340: 1a28 523d 4aa7 023e 1858 a2be 3cea 9e3d
00000350: bfbd 76be 8a88 94be af00 98be 0ef4 a0be
00000360: 3343 5abe 13c5 01be d561 863e 4ebd 6e3e
00000370: 583d 2c3d a7dc 0e3e edb3 8cbe c577 69bd
00000380: 32ce 8d3e 06a6 65be 2611 763e d827 6ebe
00000390: b10f a93e 4a12 343e 1849 563e d1f1 edbd
000003a0: 9a3b 343e 10db e2bc 03e4 45be a905 893e
000003b0: 60f5 5f3e d9ac 8d3e 731c 12be 0d6b 263c
000003c0: 625a 403e 089d 13be 267c 93be 8ef7 53be
000003d0: 83ff 4abe db4d 9cbe 77c6 4f3e 7468 aebb
000003e0: 6ce0 a7be 6877 173d af94 893e dba2 8cbe
000003f0: 0f3e 0a3e d3be 17be 606d 9fbd 1e31 11be
-0.1464014 -0.11832452 0.12284023 0.12444424 -0.07920237 0.09915355 0.1645014 -0.15586084
0.15590143 -0.045323182 -0.072267935 0.31192473 0.033257097 0.20640591 -0.015088402 0.25575134
-0.29650655 0.2505966 -0.053462625 -0.2058878 0.24332479 -0.22842924 -0.0023519578 0.30571732
0.2861674 -0.17541778 -0.15024772 -0.32344204 0.23394445 0.21374705 0.2702357 -0.10482137
0.23087314 -0.1072869 0.1582318 0.1072768 0.32187 -0.018378466 0.28963542 0.11276451
-0.13323653 -0.24611875 -0.08562267 0.17188826 0.04535809 0.17217961 0.11498675 0.23499745
0.21994747 0.17790416 -0.022387266 0.13583446 0.16002032 -0.1992143 -0.31558973 0.31589714
0.08943849 0.3226194 -0.07203247 -0.26138225 0.031267785 -0.3120811 -0.05075707 -0.14186975
-0.27609083 -0.014503432 -0.24350044 0.016946524 0.1662375 -0.014440682 -0.17954138 -0.0115355905
-0.108167045 -0.07701561 0.27636364 -0.29964504 -0.21318114 -0.19919758 -0.2455632 0.06659263
0.024169287 0.07511834 0.21188685 0.14199983 -0.009328812 -0.23432088 -0.09240401 0.046017032
0.29288748 0.23364471 -0.33009976 -0.28445765 -0.023334473 -0.27321735 0.320916 0.055064797
-0.07765376 0.16494274 0.113890305 0.095434785 -0.22020519 -0.06106443 -0.011280745 0.04399243
-0.13787419 -0.20990066 -0.18391582 -0.15987563 -0.21936807 -0.04452665 0.026382595 0.31930932
-0.23168142 0.14888647 0.20381907 -0.31884122 -0.24782793 0.31006607 -0.27317172 0.12533304
-0.2482221 0.0472354 -0.11538191 0.22838685 0.23404273 -0.060710326 -0.01293743 0.2310438
-0.053231806 0.1933311 0.23878893 0.20618358 -0.11251569 0.24128714 0.27192992 -0.110698745
-0.007459245 -0.29811177 0.2885286 -0.04509142 -0.050640494 0.1509457 -0.05532634 0.014891193
-0.31701106 0.08218041 0.20589212 -0.27081928 -0.029288637 -0.10157482 -0.009856378 0.13711363
-0.0498751 0.036922663 -0.24602756 -0.12533331 -0.32240713 0.25934696 0.21806398 -0.11722553
-0.07086883 -0.06786227 -0.11928788 -0.22202311 0.097248025 -0.24622715 0.07341317 -0.1917585
0.12331951 -0.023017913 0.016448328 0.037525684 0.060709 -0.3230225 -0.22300474 -0.23518626
-0.21390697 0.30122045 0.32760915 -0.31692806 -0.2355723 -0.3248827 -0.039128043 0.19027413
0.19335765 -0.090623595 -0.16103673 -0.022508904 -0.0088014975 -0.3142454 -0.13937692 0.07491987
0.015308896 0.036449384 -0.20663504 -0.32582757 -0.20962389 -0.059766065 -0.17770323 0.018679827
0.09209545 -0.22397141 0.25557497 -0.21953028 -0.23547098 -0.1274014 -0.08479126 -0.31630132
0.051307775 0.12759128 -0.31707835 0.077595204 -0.2409582 -0.2901042 -0.29688022 -0.314362
-0.21314697 -0.12672834 0.26246515 0.23314402 0.04205069 0.1395136 -0.27481022 -0.056998987
0.27696377 -0.22426614 0.24029979 -0.23257387 0.33019784 0.17585102 0.2092632 -0.116183884
0.17600861 -0.027692348 -0.19325261 0.2676213 0.21870947 0.27670935 -0.14268665 0.010157359
0.18784478 -0.14415371 -0.28805655 -0.20699903 -0.19824032 -0.3052815 0.20290552 -0.0053225104
-0.32788408 0.03697911 0.2687125 -0.27468 0.13500236 -0.14818887 -0.077845335 -0.14178893

fc2.weight f4 [256, 512]
00000000: 8f77 6abc a0da e73b 7a97 41bd 153c 0ebd
00000010: ae5e 3fbd a395 7c3c 07ea c7bc 6dc3 dbbc
00000020: 82f4 bd3c 2a35 6dbc 476b d4bc 688b ee3c
00000030: 2087 303b 8851 3ebc f7b8 b1bc 40bf d73a
00000040: b0d2 2abc 21d8 c8bc 2c2d 943c 9656 77bc
00000050: ca0b b93c 622c 33bd 7f55 083c e845 0abd
00000060: e269 c43c edac bbbc 74a0 0fbd 8175 1cbd
00000070: d961 30bd d2c5 7fbc 3095 8ebc af42 1f3d
00000080: b8db 083c a010 b2bb da75 41bc 5166 053d
00000090: b000 d6bb 5b62 143d ba34 31bc f8b1 35bc
000000a0: 89bc 9bbc bcbf 04bd b01d c7bb 7c39 8dbc
000000b0: 9c56 23bd 9965 a7bc aa28 24bd fb78 fd3c
000000c0: a439 893b 4152 dd3b 9336 c7bc 6166 02bb
000000d0: 83e3 123d b792 a83b 3686 88bc 56e6 dd3c
000000e0: 1189 d0bc 0af8 bb3c 05de 433c ce2b 86bc
000000f0: 36eb a6ba 24dd 1fbd 8331 bfbc b7d0 0a3d
00000100: f6b4 62bc 7430 bb3a 7072 113c b4e0 c4bc
00000110: 3e78 e5bc 19e3 cebc edad 6ebb 5b85 a2bc
00000120: 65a4 f73c c346 0b3d ceaf 26bd ca29 67bc
00000130: 62a5 19bd 4cd9 01bd 1ddb 1f3d e7bc 5fbb
00000140: e29d abbc 0af5 dd3c b57e 9bbc 3e22 433c
00000150: 3dca 223d 30de ea3b d85c 103d 2b32 c53c
00000160: f497 47bc 36a8 bf3c 9ae7 c23c 2592 52bc
00000170: 41ba 07bd 8c4c 4bbc b820 f8bc 60ff 7f3b
00000180: 58cf b33c 91bb 32bd 982e 6a3c b3cb 2abd
00000190: 4c94 2f3c f651 b53b e853 88bb 6453 03bc
000001a0: c79a 04bd 8aaf adbc 00bb 61bb b7f4 56bd
000001b0: 0014 ed38 0a57 02bd 92c4 b53c 7048 13bc
000001c0: 7e38 fcbb 8cc1 28bd afcf 9a3c 9b67 dc3c
000001d0: 9890 b2bb d89d 1ebd 0c5d 6d3c 3da9 ffbc
000001e0: 1319 20bd 67d9 8dbc 50b4 d03c 841c 34bd
000001f0: 388a a2bb 460c 3fbd a596 18bd 9a65 163d
00000200: 6e51 ac3c 6d83 a1bc c629 eebc 7241 c3bc
00000210: 20cf d9ba 8bb7 1bbc c2bc 92bc fc0f 153c
00000220: a5b9 09bd 8880 21bd a85d f83b 9065 1abb
00000230: 40a9 38bc becb 943c 5066 203d 655c a43b
00000240: 63b9 1fbd 5655 e6bc 509c 6b3c c85c 15bd
00000250: 1dc5 d139 74f0 0f3c 4947 f8bc 3693 0cbc
00000260: edd0 313c 40c1 e0ba 40b7 6cbb 43fe 9bbc
00000270: 9ca8 2cbd d8eb af3b 5e43 34bd b03e 4a3c
00000280: 767a afbb d164 253d a78f b73c 510f 96bb
00000290: 52a6 d53c eb30 ccbb a491 1fbd df50 be3c
000002a0: f4fc 30bb 0c9d 913c 5523 b33b 69dd 17bd
000002b0: 70bd ce3b fb3b 25bd bc49 92bc 14fe fd3c
000002c0: 7cec ff3c c0d1 8d3c 1bd3 1d3d 4ba0 663c
000002d0: fb76 7dbc 92c9 d2bc 6212 cbbb 37db a03c
000002e0: 268a 1f3d 3d28 3cbd c2a1 0dbd d7de e0bc
000002f0: a18e 7abc d0eb 37bd 5f7e 033d d57c 49bb
00000300: 5444 053d b7c9 fb3c a561 053d a261 8c3c
00000310: 1abb b83c ed60 f63c 8eac 3c3b b81c 223c
00000320: 80b8 213d 93ce c4bc aa08 e93c f315 113d
00000330: 12d0 ce3c 6e64 cd3c f444 703c ce82 b73c
00000340: bd16 dbbc bf59 133d 5064 353b e24a eb3c
00000350: 95b4 fe3c 93af c7bc bc50 dabc f622 29bd
00000360: 06d3 2a3c 40c3 7c3a b051 e7bb 80ce 67bb
00000370: 90be eebc de85 783c 8eaf 71bc b825 95bc
00000380: 9778 f43b 55f5 013d 55e2 0e3d 5031 4e3b
00000390: 3646 e83c 065b 01bd 045f c6bc 1d58 853c
000003a0: 54a4 3abc d2af 69bc e88e c3bc 423d a53c
000003b0: 371d e23b 3612 1abd 50f8 233c 7305 3b3a
000003c0: 32f1 94bc c216 ed3c b4bc edbc fabd 00bd
000003d0: fb4c a7bc f996 22bb 4f57 37bd 987c 30bc
000003e0: 8de1 6dbc 5c73 82bc 5124 2a3d 907c 32bb
000003f0: 1149 b23c aaeb c63c af8d 253d c5ed febc
-0.014310732 0.0070756227 -0.0472636 -0.034725267 -0.046721153 0.015416536 -0.024403585 -0.026826585
0.02318788 -0.014478007 -0.02593006 0.029119208 0.002693601 -0.011616118 -0.021694643 0.0016460195
-0.010426208 -0.02451712 0.018087946 -0.015096327 0.02258863 -0.0437435 0.008321165 -0.033758074
0.02397627 -0.022909606 -0.03506513 -0.038197998 -0.043062065 -0.015611129 -0.017405123 0.038881954
0.008353166 -0.0054341108 -0.011807883 0.03256828 -0.0065308437 0.03622661 -0.010815794 -0.011089794
-0.019010799 -0.032409415 -0.006076537 -0.017239325 -0.03987752 -0.020434188 -0.040077843 0.030941477
0.0041877795 0.00675419 -0.024318015 -0.0019897448 0.035861503 0.005144443 -0.01666556 0.027087372
-0.025455983 0.022945423 0.011954789 -0.01637831 -0.0012734893 -0.039029256 -0.023339039 0.033890452
-0.01383709 0.0014281408 0.008877382 -0.024032928 -0.028011438 -0.025254773 -0.0036419586 -0.01983898
0.030229757 0.03400303 -0.040695004 -0.014109084 -0.037511237 -0.03170137 0.039027322 -0.0034139694
-0.020949308 0.027094383 -0.018981317 0.011910019 0.03974365 0.0071676 0.035244793 0.024071774
-0.012182225 0.023395639 0.023792077 -0.012852226 -0.03313661 -0.012408387 -0.030289039 0.0039062127
0.021949455 -0.04363591 0.014293335 -0.04169817 0.010716509 0.005533452 -0.004160393 -0.008015487
-0.03237417 -0.021201868 -0.0034443736 -0.052479472 0.00011304766 -0.03182129 0.022188459 -0.008989438
-0.007697164 -0.041200206 0.01889786 0.026904872 -0.005449366 -0.03872475 0.014487516 -0.031208629
-0.039086413 -0.01731558 0.025476605 -0.043972507 -0.0049603246 -0.046642564 -0.03725304 0.03671799
0.021034922 -0.019715989 -0.029072654 -0.023834918 -0.0016617514 -0.009504209 -0.017912272 0.009098049
-0.03362431 -0.039429218 0.007579524 -0.002355907 -0.011270821 0.018163558 0.039160073 0.005015897
-0.038995158 -0.028116863 0.0143805295 -0.036465436 0.00040010447 0.008785356 -0.030307429 -0.00858002
0.010853034 -0.0017147437 -0.0036119968 -0.01904214 -0.042152986 0.005368691 -0.04400956 0.012344047
-0.0053551747 0.04037935 0.022407366 -0.0045794626 0.026080284 -0.0062314174 -0.038957253 0.023231922
-0.002700624 0.017775081 0.0054668584 -0.037076388 0.006309204 -0.040340405 -0.017857425 0.031004943
0.031240694 0.01731193 0.038531404 0.014076303 -0.015470262 -0.025730882 -0.0061972598 0.01963578
0.038950108 -0.04593681 -0.034578092 -0.027450008 -0.015292794 -0.044902623 0.03210294 -0.0030744572
0.032535866 0.030735834 0.032563824 0.017136399 0.022550154 0.030075515 0.0028789374 0.009894542
0.039482594 -0.024024284 0.028446514 0.035421323 0.0252457 0.025072303 0.014664877 0.02240124
-0.02674424 0.03597426 0.00276782 0.02872223 0.031091968 -0.024375712 -0.026649825 -0.041293107
0.0104262885 0.00096421316 -0.0070592985 -0.0035370886 -0.029143602 0.015168635 -0.014751328 -0.018206462
0.0074606645 0.031728107 0.034883816 0.0031462498 0.028353792 -0.031580947 -0.024215229 0.016277367
-0.011391718 -0.01426311 -0.023871854 0.020170812 0.0069004553 -0.037615024 0.010007933 0.0007134296
-0.018181417 0.028941516 -0.029020645 -0.031431176 -0.02042245 -0.0024809225 -0.044761 -0.010771893
-0.0145191075 -0.015924148 0.04153854 -0.002723489 0.021763356 0.024282295 0.040418323 -0.031119237

fc2.bias f4 [256]
00000000: 409b 49bc e0ff 913b 46c1 6bbc 5462 16bd
00000010: 9ca3 c63c f039 16bd 796b 42bc c359 f23c
00000020: 40cb 82ba 38ba 0cbd d18a 18bd a791 093d
00000030: bad5 383c bd85 32bd 0e9d 1bbd 25d1 cdbc
00000040: f9ac 4ebb a839 adbc ab1f 293d 71ee 123d
00000050: 33b2 093d 2cdf 1bbc 5478 e23c a7fa 80bb
00000060: 6ad0 ba3c e649 26bd def5 bfbc 454b 1abc
00000070: 15e1 5f3c bfcf 223d 6cee 05bd b09e 35bb
00000080: ac04 3ebc 8a37 31bd 8b94 12bd 405d 083c
00000090: c0d6 ca3a 90cc 2cbc f9e5 853c 74c1 393d
000000a0: 5c30 533c 8dc4 103d d7c9 c43c 10e7 08bc
000000b0: 8e8f e03c 61a7 39bd f5c5 e8bb 8e15 d73c
000000c0: cf81 8cbb 293b 2fbd a065 5fb6 332c 02bd
000000d0: 4e70 07bd 7101 85bc 7295 9f3c e259 f83c
000000e0: 7ac1 0b3d c448 30bc 6e38 803c 7040 ccbb
000000f0: c5b1 25bd a8c5 a4bb 106b 7cbc ecd5 2abc
00000100: c0ce c93a 08e0 e1bb 593f a3bc b394 d3bb
00000110: 6eb3 983c 3b80 10bb de6e b4bc 5657 e13b
00000120: 4490 233b be7c a43c 8019 cb3b d9bc e53c
00000130: 75a1 123d 936f 40bd 77e4 88bc 3646 0a3c
00000140: 9dd9 82bb 4e35 bb3c 5cb3 26bc 4cb4 1e3c
00000150: 3e67 233c 8cc9 1cbc 188a 7c3c 60f4 80ba
00000160: 3ad3 bd3c f62c ac3c 5409 18bc 3938 18bd
00000170: 920d ee3c f2b9 ecbc 6897 94bc d462 373d
00000180: 8219 97ba f0d5 583b 0cfe 3e3c 591f 9fbc
00000190: 08f6 b33c 4505 85bc 48ae 8c3c 0dd3 313d
000001a0: 99a5 93bc c8b9 063c 5214 d43c 5e5d d83c
000001b0: d008 0b3b 07ca 1c3d aac8 1b3d 932f 05bd
000001c0: 7ffc 1d3d 99f7 153d 1a94 b8bc 2058 5fbc
000001d0: 4b49 29bc 08f5 2ebc 6099 d9bc 3aa0 cabc
000001e0: f0d7 17bc d347 c2bc faf1 7ebc 307b 15bb
000001f0: 676e 313b ba91 4fbc ace9 debc 1f36 05bd
00000200: a08d 08bd c48a 433c d07a b23b dfc6 8fbc
00000210: 7863 b73c 66a6 c73c a6ba 593c c5a1 023c
00000220: a9da d7bc f235 703a 697e 033d 5016 343b
00000230: 2be5 023d d11c 33bb a51d f73c ecbf f0bc
00000240: cac5 753c acdc 0b3c 5a46 2b3d e25c 963c
00000250: 53ae 5e3c 747e 443c 2b97 25bd 8d52 0ebd
00000260: e115 823c 76b9 a63c a1df 1e3d 7b6e 2e3d
00000270: 4975 71bb 36ad 083d c250 c9bc a266 a8bc
00000280: 612f c63b bab0 ff3c 893f 34bd 54e9 10bd
00000290: 0aff 433c ee8a 26bd e603 01bd 9bd6 abbc
000002a0: d454 e53c 641a 263c 9207 db3c 54ad 81bc
000002b0: c0da 2b3a 5c58 32bd 28ea 93bc 04e7 51bc
000002c0: 886a 5c3b ab57 17bd 1d44 b5bc 0034 b93a
000002d0: 535b 04bd 1017 0bbc e0c7 9cba 41c7 efbc
000002e0: 0419 24bd e972 16bd cc9c 5cbc 3ea3 a8bc
000002f0: 81b4 eb3c 2847 8c3c 54fa 1f3b d702 ac3c
00000300: fe1f 28bd 44ab 03bd 7286 5bbc 0bf7 85bb
00000310: 0034 a6b9 4e03 fabc dca6 aebc a2e3 b63c
00000320: a8c4 07bd e986 083d 7ce5 df3c 1bce b4bc
00000330: a831 20bd d32a 003d f146 0cbd 45d7 d2bc
00000340: 7abe c53c b7aa c9bc 434c 283d 3056 2abc
00000350: f07a 193d adaa 2c3d 4940 c03c 622d d8bb
00000360: fadc 62bc d5f7 c5bc 505f a8bb 80c5 67bb
00000370: daf6 933c 2634 d0bc 0ce8 2cbc 6078 86bb
00000380: 62e6 de3c 84a4 32bc fe23 c13c fe19 38bd
00000390: 4ed8 c23c a10b d53c 3403 0abb 483c e6bb
000003a0: aa06 25bd da2b 0fbd 4fb2 13bd 8945 d53c
000003b0: 31ba c2bb f8b4 293d 413c 273d 73c3 d4bc
000003c0: 5c0f bb3a bcaa 2fbd 4b93 a63c de80 25bd
000003d0: 40ee cc3a 3c95 21bd 7b35 223d efb8 39bd
000003e0: 9a80 d23c 80d6 a13a 9735 b23c 8de7 8cbc
000003f0: 2645 d3bc 7271 ca3c 43ba 2bbd aa75 8d3c
-0.012305081 0.0044555515 -0.014389342 -0.036714867 0.024247937 -0.036676347 -0.011866444 0.029583817
-0.0009978786 -0.03435728 -0.03724176 0.03358617 0.011281425 -0.043584574 -0.037991576 -0.025124142
-0.0031536205 -0.021145657 0.041289967 0.035871927 0.03361721 -0.009513658 0.027645268 -0.00393613
0.022804458 -0.04059782 -0.023432668 -0.00941736 0.013664504 0.039748903 -0.03269808 -0.0027712993
-0.011597794 -0.043265857 -0.035786193 0.008323014 0.0015475377 -0.010546818 0.016345011 0.045350507
0.012889948 0.035343695 0.024022026 -0.008355871 0.027412202 -0.04532564 -0.0071036764 0.026255395
-0.0042879353 -0.04278103 -3.3288743e-06 -0.031780433 -0.033066086 -0.016236039 0.01948044 0.030316297
0.03412006 -0.010759536 0.015651908 -0.0062332675 -0.040452737 -0.0050284453 -0.015406385 -0.0104269795
0.0015396699 -0.0068931617 -0.019927667 -0.0064569353 0.018640246 -0.0022049088 -0.022025522 0.0068768663
0.0024957815 0.020079013 0.006198108 0.028044151 0.03579851 -0.046981405 -0.016710503 0.008439591
-0.0039932267 0.022852566 -0.010174599 0.009686541 0.009973345 -0.009569537 0.0154137835 -0.0009838454
0.02317201 0.021017533 -0.009279568 -0.037162993 0.029059205 -0.02889726 -0.018138602 0.044771984
-0.0011527988 0.00330865 0.011657249 -0.019424127 0.021967903 -0.016237864 0.017172948 0.043414164
-0.018023299 0.008223005 0.025888596 0.026411708 0.002121497 0.038278606 0.038033165 -0.032516073
0.038570877 0.03661308 -0.022531558 -0.0136318505 -0.010332416 -0.010678537 -0.026562393 -0.024734605
-0.009267792 -0.02371589 -0.015560621 -0.0022809021 0.0027073862 -0.012669021 -0.027211033 -0.032522317
-0.03333819 0.01193494 0.0054467693 -0.017550884 0.022386298 0.024371337 0.013289129 0.007973139
-0.026349382 0.0009163312 0.032102976 0.002747912 0.031956833 -0.0027330408 0.030165503 -0.02938839
0.01500077 0.008536499 0.04181514 0.018354837 0.013591367 0.011993039 -0.040427368 -0.034746695
0.015879573 0.020352107 0.038787488 0.04258583 -0.003684359 0.03336831 -0.024574641 -0.020556752
0.0060481285 0.0312122 -0.044005904 -0.03537877 0.0119626615 -0.040659837 -0.03149786 -0.020976355
0.02799455 0.010138128 0.026737008 -0.01582972 0.00065557286 -0.043541297 -0.01805599 -0.012811426
0.0033632834 -0.03694884 -0.022127206 0.0014129877 -0.032313656 -0.008489385 -0.0011961423 -0.029269816
-0.04006292 -0.03673068 -0.013465118 -0.020585652 0.028772594 0.017123774 0.0024410682 0.020997448
-0.041046135 -0.032145754 -0.0133987535 -0.0040882877 -0.0003170073 -0.030519154 -0.0213198 0.02232534
-0.03314653 0.033331785 0.027331106 -0.022070935 -0.039109856 0.03129084 -0.034247342 -0.025737414
0.024138678 -0.024617536 0.041088354 -0.010396525 0.037470758 0.042154957 0.023468154 -0.006597207
-0.01384663 -0.024166027 -0.0051383153 -0.0035365522 0.018062044 -0.025415491 -0.010553371 -0.0041037053
0.027209464 -0.010903481 0.023576733 -0.044946663 0.023784783 0.026006522 -0.0021059038 -0.007026229
-0.04028956 -0.03495393 -0.03605872 0.026034134 -0.005942606 0.04143235 0.040828947 -0.025972104
0.0014271545 -0.042887434 0.020333907 -0.0404061 0.0015634969 -0.03944896 0.039601784 -0.045342382
0.025696088 0.0012347251 0.02175407 -0.017200256 -0.025789808 0.024712298 -0.04192568 0.01726802

fc3.weight f4 [128, 256]
00000000: 98b6 41bc 1484 673d 3eea 24bd 5ec9 05bd
00000010: 7e35 69bd 34ab cc3c 0cdc ddbc 28cd 0fbc
00000020: b0e9 9cbb b03f cc3c c413 283d 00e0 073b
00000030: c4a9 c93c 0875 6d3d b8b5 ebbc a0cb 783c
00000040: 8ca5 db3c 5025 10bd 0003 a83b c00f 5fbc
00000050: 4297 18bd 8084 51bd cc4a b9bc 8835 00bd
00000060: 5802 41bd ccf0 26bd e8dd 4ebc 8865 19bd
00000070: 5c65 c93c c0e1 5e3d 7421 6e3d 8cbe 7bbd
00000080: 14f3 61bd 9cfd e63c 1826 dd3c c26d 0f3d
00000090: dedb 1cbd 00f1 a5b9 6014 cdbb 785a 8c3c
000000a0: 2464 253d aeec 223d e0bc e7bb 0057 563a
000000b0: 727a 0f3d e407 513d d053 07bd 84eb cb3c
000000c0: a011 783d e45c 63bd 7a7e 1b3d 1e86 3e3d
000000d0: c49d e1bc 3444 32bd 846e ffbc 7874 973c
000000e0: 80bf c2bb f0ca 40bd 3a5a 4fbd 00a8 bdb8
000000f0: 2884 f8bc 3894 7dbd ec6f 6a3d b052 d0bc
00000100: 3a78 3f3d 60d9 93bc 003e 23bc aa2e 7abd
00000110: a816 c9bc 2675 0ebd a861 1f3c 0ac2 7d3d
00000120: a6b4 5abd 68b0 f2bc 28a0 233c 2eeb 193d
00000130: 0c46 2e3d f415 b83c f8e9 763c a0f9 3dbd
00000140: 941a 31bd a2e9 613d 600e 32bb 260e 08bd
00000150: 7070 b73b 20de 853b 700b 1e3d 6228 303d
00000160: 7214 57bd 5eba 303d ec4c 9d3c 543e 1dbd
00000170: 1849 5b3d 2032 013d 563c 1d3d 3089 eb3c
00000180: 78ca 55bc c4c8 93bc b01e 703c 2890 53bc
00000190: 4071 b6bb f076 aabc 003a 2239 b093 a8bb
000001a0: 8040 d53c c06f bfbb 28d9 753c 304e 8d3b
000001b0: 64bb 603d 7844 313c e058 933c a489 67bd
000001c0: 4c58 d3bc d83a 33bd c06a f63b f45d d4bc
000001d0: eefd 523d f8f8 213d 98d4 d3bc e8c2 0b3d
000001e0: b0cc 0e3c 5c2e d4bc 6063 653b c6dc 4bbd
000001f0: 6ce5 9cbc c66d 273d 10d7 f93b 8054 423d
00000200: 7e86 2cbd dc0d 5f3d ccc8 99bc 20ec 6d3b
00000210: a07d fbbc 3c9f 6bbd a033 91bb 46ae 673d
00000220: d0fb 37bc 40fa 1cbc 2206 51bd 70de 243d
00000230: c0e3 1bbd e8b9 86bc acd8 20bd c04d 2bbd
00000240: 980f 133d 7a01 17bd dc1d 2ebd 001a 513c
00000250: 0e89 033d e682 2dbd 8ae1 12bd 7886 27bc
00000260: 1021 a1bc 6cb4 c1bc 00b8 d2ba a012 1bbc
00000270: 0889 34bd a093 603c c88c c83c 1491 86bc
00000280: 62ae 64bd b43d 56bd 8a06 2d3d f01b d93c
00000290: 385a 31bc 7c5f 953c 8234 1b3d 9042 4a3c
000002a0: 8040 50bd f44e 6f3d 5052 d73c 50e9 93bc
000002b0: 62dd 343d 9c12 df3c cc6b ddbc 447e 65bd
000002c0: d81b 0e3d 50ca f1bc 3071 b43b 700e 98bc
000002d0: b085 783c b4f9 92bc 9275 583d 6867 66bd
000002e0: e449 893c e464 373d 284e 5b3d 60e7 dabc
000002f0: 1ab5 073d ea23 293d 8058 efba 40b9 ebbb
00000300: 901c 37bc c0d3 efbc 9044 d2bc 2437 fb3c
00000310: b41a 62bd 28bf 273c ea5e 763d 58d2 52bd
00000320: 70ce 303c 147f a7bc f22e 583d d065 613d
00000330: e832 edbc 2eab 193d 30ab e0bb 50fe 43bd
00000340: 1ce3 dc3c 8035 4e3b 24ab a7bc e8f9 53bd
00000350: 02ba 2bbd c07a 7ebd 4890 37bd 403e 9bbb
00000360: 5a75 703d 0006 acb9 bc8b ccbc 0050 a5b7
00000370: 18e3 31bc c048 cdbb 008f c9bb b805 413d
00000380: a8e3 1dbd 645c a8bc 4420 be3c f44d 7b3d
00000390: b883 3bbc ace6 733d 700a 58bd 1cb1 9a3c
000003a0: 9a9e 16bd 7ce6 d33c 300e ecbc a2a2 73bd
000003b0: 38d5 fcbc 3097 bfbc fc52 b4bc 3237 6c3d
000003c0: 207f e33b d0f7 04bc 8077 24bd e036 60bc
000003d0: 009f 16ba 6adb 28bd 94e5 67bd 2868 dabc
000003e0: ee12 7c3d 2052 c1bb 10fe 91bc 9ca8 19bd
000003f0: dab2 34bd 64d8 883c 080c 003c 7482 23bd
-0.011823319 0.056522444 -0.040262453 -0.03266274 -0.05693578 0.02498398 -0.027082466 -0.00877694
-0.0047886 0.024932712 0.041034475 0.002073288 0.024617083 0.057972938 -0.028773174 0.015185267
0.026812337 -0.035191834 0.0051273108 -0.013614595 -0.037253626 -0.051151752 -0.022618674 -0.03130105
-0.047121376 -0.040756986 -0.012626149 -0.037450343 0.024584465 0.05441451 0.058137372 -0.061461017
-0.055163458 0.028197102 0.026995704 0.035016783 -0.03829562 -0.0003165081 -0.0062585324 0.017132983
0.040378705 0.039776497 -0.007072076 0.0008176416 0.035028882 0.051032916 -0.033038914 0.024892576
0.060563684 -0.05550851 0.037962414 0.046514623 -0.027541049 -0.043522075 -0.031180628 0.018488154
-0.0059432387 -0.047068536 -0.050623156 -9.043515e-05 -0.030336455 -0.06190893 0.057235643 -0.025430053
0.046745516 -0.018047988 -0.009963512 -0.06107966 -0.024546936 -0.03477969 0.009727873 0.06195263
-0.053394936 -0.029625133 0.009986915 0.0375778 0.04254727 0.022471406 0.015070431 -0.04638064
-0.043238238 0.05515445 -0.0027169213 -0.033216618 0.0055981204 0.0040853173 0.038585126 0.043007262
-0.052509733 0.043146484 0.019201718 -0.03838952 0.053536505 0.031541944 0.03838762 0.02875194
-0.013048761 -0.018040068 0.014655754 -0.0129127875 -0.0055676997 -0.020808667 0.0001547113 -0.005144559
0.026031733 -0.005842179 0.015005387 0.004312299 0.05486621 0.010819547 0.017986715 -0.05652775
-0.02579894 -0.04375729 0.00752005 -0.025923707 0.051511697 0.039544076 -0.025858209 0.034121424
0.0087157935 -0.025901012 0.003500186 -0.049771093 -0.019152366 0.040876172 0.0076245144 0.047443867
-0.04212045 0.054456577 -0.018772505 0.0036304072 -0.030699551 -0.057524905 -0.004431203 0.056562684
-0.01122947 -0.009581149 -0.05103124 0.040251195 -0.038058996 -0.016446069 -0.039269134 -0.041822195
0.035903543 -0.036866643 -0.042508945 0.012762547 0.032113127 -0.042361163 -0.035859622 -0.010224931
-0.019669086 -0.023645602 -0.0016076565 -0.00946489 -0.044075996 0.013707072 0.024481192 -0.0164266
-0.055830367 -0.05230494 0.042242564 0.02650258 -0.0108247325 0.018234007 0.037891872 0.012344971
-0.050842762 0.058424905 0.026284367 -0.018055588 0.04415644 0.027230553 -0.02702894 -0.05602862
0.034694523 -0.029515415 0.005506657 -0.018561572 0.015168592 -0.017941333 0.0528465 -0.05625096
0.016758867 0.04477395 0.053541332 -0.026721656 0.033131696 0.041294016 -0.0018260628 -0.0071937144
-0.011176243 -0.029275775 -0.025667459 0.030665942 -0.055201247 0.010238446 0.06014911 -0.05147013
0.010791406 -0.020446338 0.052779146 0.055028737 -0.028954938 0.037516765 -0.0068563446 -0.047849953
0.026963763 0.0031464994 -0.020467348 -0.051752 -0.041925438 -0.062128782 -0.04481533 -0.0047376454
0.058705665 -0.00032810867 -0.024968974 -1.9706786e-05 -0.010857366 -0.006264776 -0.00615108 0.047124594
-0.038547188 -0.020551868 0.023208745 0.06135364 -0.011444978 0.059546158 -0.05274433 0.01888328
-0.036772348 0.02586674 -0.028815359 -0.05948127 -0.03086339 -0.023387522 -0.022012226 0.057669826
0.0069426447 -0.008115724 -0.040153027 -0.013684958 -0.0005745739 -0.041224875 -0.056615427 -0.026660994
0.06154149 -0.0058996826 -0.017821342 -0.037514314 -0.04411588 0.016704746 0.0078153685 -0.03991933

fc3.bias f4 [128]
00000000: 2680 0d3d a18e b0bb dd02 1cbd 7479 ba3b
00000010: 3cd3 c03c 0e55 833c c105 cabb ea9d e43c
00000020: 40e8 c43a 6386 913c 6ef4 ea3a 4663 32bd
00000030: 1e2c cebc 9b82 1bbc 204c 4a3c a37e 61bd
00000040: 98a8 e1bc d67b 423d f787 0ebc e355 42bd
00000050: 6f93 463d 8602 be3c 979d 41bd 217f 443d
00000060: 657e aebb 70da e2bc 40be 58bd c3d0 adbc
00000070: 3ac4 143d f4f5 96bc bb9c 4dbc 8c07 8a3c
00000080: 001a 3f3d 3f34 58bc d11a 353d 9239 293d
00000090: c006 72bc b4be 453d 69bc 21bd 3001 37bc
000000a0: e7da a33b 4418 b73c b609 69bc 4ca2 32bb
000000b0: 926e 3b3d 1f1d 25bd 9f75 03bc b258 77bd
000000c0: 9914 a8bc 68f2 0cbc 1fef 703d d83b 68bd
000000d0: 7894 663d a638 06bd 4862 6e3d 7191 9f3c
000000e0: 3cae 613d c103 12bd 0c78 a0bc 0a4e 053d
000000f0: 4f2a 633d 04ec 79bd c080 1b3d 9df6 c5bb
00000100: 0484 d6bc 66a9 2cbd f452 243d 61dd 51bd
00000110: d3fa 533d 5ec0 5cbd f50f 1c3d af38 85bc
00000120: 84cb b63c 0b3d 66bd 09df dbbc 84e0 d33c
00000130: b5a7 593d c49c c3bc fe2c 71bd baad 07bd
00000140: a962 58bc 5323 9fbb a2b7 7c3d d478 7dbc
00000150: f0cc 263d 7581 3cbd 1f46 173d cf8b 76bd
00000160: 001a 07b9 d6a9 e3bc fa03 13bd 705e 2f3d
00000170: 5a26 e2bc e89d 25bc 3048 f5bc 1832 683c
00000180: 74ea 42bd 0078 b8b8 709b 2dbd 097c 37bd
00000190: b9fa f7bc 879c 09bd 1f08 cebc ba76 443d
000001a0: 8816 87bc a166 50bd a595 543d 3a5f 3e3d
000001b0: c0dc dfba 4934 2bbd 842e 5f3d 8f0a 203d
000001c0: 02c0 4bbd b332 7e3c 7005 413d 8409 c0bc
000001d0: e784 d33c 8dfd e83c c7aa 53bd 91fa 483d
000001e0: c4b7 80bc 40e9 fe3b c6b4 233c 962c 463c
000001f0: 46dd 673c 8eae 6f3b 7b47 9dbc 30b1 d5bb
0.03454604 -0.0053880964 -0.03808867 0.005690748 0.023538224 0.016031768 -0.0061652367 0.02790733
0.0015022829 0.017764276 0.0017925629 -0.043551706 -0.025167521 -0.009491588 0.012347251 -0.05505241
-0.027546212 0.04748138 -0.008699409 -0.04744519 0.048480447 0.023194563 -0.04726943 0.047972802
-0.005325126 -0.02769205 -0.05291581 -0.02121771 0.03631995 -0.018427826 -0.0125495745 0.016849302
0.046655655 -0.01319605 0.044215027 0.04131467 -0.014772117 0.04827757 -0.039486323 -0.011169717
0.0050004604 0.022350438 -0.014223507 -0.002725738 0.045759745 -0.040310975 -0.0080236485 -0.06038732
-0.020517634 -0.008602716 0.058821794 -0.056697696 0.056293935 -0.032768868 0.058199197 0.019478532
0.055097803 -0.03564811 -0.019588493 0.032545127 0.05546027 -0.061016098 0.037964582 -0.0060413615
-0.026185997 -0.04215374 0.040118173 -0.051236514 0.051752876 -0.053894393 0.038101155 -0.01626238
0.02231384 -0.05621056 -0.02683975 0.025863893 0.053138454 -0.023878463 -0.0588808 -0.033124663
-0.013207116 -0.004856506 0.061698563 -0.015470702 0.040722787 -0.046021897 0.036932107 -0.060191926
-0.00012884289 -0.027790945 -0.035892464 0.042814672 -0.027606178 -0.010108449 -0.029941648 0.0141720995
-0.047586873 -8.7961555e-05 -0.042384565 -0.044796024 -0.030270921 -0.03359654 -0.025150357 0.04796479
-0.016490236 -0.050879125 0.051900525 0.046477534 -0.0017079338 -0.04179791 0.05448772 0.03907257
-0.04974366 0.015515017 0.047124326 -0.023442037 0.025820209 0.028441215 -0.051676538 0.049067084
-0.015712626 0.0077792704 0.00999183 0.012095591 0.014151877 0.0036572549 -0.019199124 -0.0065213665

out.weight f4 [7, 128]
00000000: 12fa 423d 541e 95bd 8666 3c3d 2695 35bd
00000010: b4f5 6bbd 9b22 45bd ac4d ab3d 603e 933d
00000020: db80 81bd de79 5bbd 31df 6fbb 3b1b 7ebd
00000030: d8bd 473d e6ec 70bc 8030 be3c 59c8 483d
00000040: 2a58 e83c 48a3 073c 347d 1fbd 0691 3dbd
00000050: 1c7b 893d a23d 9ebd 142b c53a 5ba5 913d
00000060: 7cc0 7b3d 4889 433d 5469 80bc 5f63 e93c
00000070: b45f 2bbd 9434 9ebc 72c8 cd3c b432 94bc
00000080: 5080 833c feda 2a3d 8612 d4bc f5ed 593d
00000090: a0d9 7a3b 80f5 0f3a a589 4f3d 10bd 4fbc
000000a0: 70e1 57bd 6f03 1cbd 20d0 1e3d d728 43bd
000000b0: 9c65 a4bd 2e23 2e3d 5ef5 573d 6d82 9fbd
000000c0: b6e4 8f3c 8ecd 223d 197b 89bd 32f5 23bc
000000d0: e851 0c3c e3a0 c83c e377 013c da96 14bd
000000e0: cd49 b13d 6386 5d3a 4ded f3bb 2ca3 65bd
000000f0: ee30 24bd 9c8d c3bc 42b8 543d 7c77 023d
00000100: 2b40 ac3d f0d5 fabc fafb 833d e688 a63d
00000110: 7d6a 9ebd 4b91 af3d 941e 5dba 6b5d 5abd
00000120: 1415 87bd e31c 8cbd 1f70 6e3d e1a1 af3d
00000130: 0401 edba e92f 103d d8c0 4e3d 81b2 643d
00000140: 4a5c 3f3d 664a 2dbd b5b2 8d3d cfe8 8f3d
00000150: 1f28 943d 64ed bd3c d898 54bd 6498 183d
00000160: 3a20 5a3d b00b 8cbc 998a 9d3d 7e6a 3b3d
00000170: 47b1 003d 5e05 6e3d 34fd 743d 6029 2e3c
00000180: 7fba 123d cf2c ae3d 85b8 853d 3251 d53c
00000190: 2962 303d d379 89bd a361 03bc 1e4f e6bc
000001a0: 106a 97bb 733c af3d c352 803d 3fab 2ebd
000001b0: 87f2 983d 6223 26bd a02a 603c 7a51 6e3d
000001c0: 724b f03c d48c b73d 7bb3 39bc 03a8 a8bc
000001d0: 4293 6b3d c3d0 2cbd 1acb 613d 9212 fd3c
000001e0: 7eca a7bd c6f3 103d 1457 df3c 3968 9d3d
000001f0: 3de2 6c3d 63f6 363c 5b2e 62bd 1abd 423d
00000200: 4cea 76bd e984 18bc a31a 833d 7b66 1cbc
00000210: d8a5 3abc 7609 aa3d 0da5 0abd 4f25 8ebc
00000220: 0231 4c3d 8622 e33b 054c 8bbd 54f2 1d3d
00000230: 6578 a63d 24a1 813d 449c ca3c 902b 25bd
00000240: a007 52bd 08af d6bc 720e ee39 2042 c3bc
00000250: 3e21 61bb cff1 953c b6e2 093d 12b6 95bd
00000260: e10b 6b3b 5e45 55bb 7007 943b d252 9f3b
00000270: ecfe 25bd f9bf 8e3d 7e53 85bc 94ec dd3c
00000280: c080 8dbb c473 0d3d aac9 88bd 58d5 6b3d
00000290: 3260 6cbd 89d3 0bbd bac0 c83c c801 3dbc
000002a0: 3127 babc b07d b6bc 5050 453d 978e 8c3d
000002b0: 60e8 063b c0eb ca3b 3d3f 993c eb0c 23bd
000002c0: 96f4 d5bc 4e69 713d cf4d 863d e44e b43d
000002d0: 5928 b3bd 1bc8 59bd b4ea a83c 9fe6 06bd
000002e0: 52ef 003d bf0c e9bc f397 4e3d 8516 043d
000002f0: c443 eabc 381c 61bc 0080 7d38 a024 5bbd
00000300: 930b 1dbd ad61 0a3d caf9 203d 22aa f93c
00000310: 0e30 043d b513 16bd 6296 61bd 2dca 973d
00000320: d06b babb 70bf 963d b1b0 d7bc 2663 5abd
00000330: 9967 cf3c 6847 c73c 7599 7fbc 2388 703d
00000340: 2930 a23b 53c8 8e3c 3281 75bd 129b acbd
00000350: 7622 b2bd 67b6 803c 2b2e 0cbc a188 023d
00000360: 106a 893b 5a76 193c 6a48 313d c0a0 e83c
00000370: db48 6a3d 2b7b 42bd efe6 413d 2d0c 8cbd
00000380: c1e3 823c 925f 473d e565 743d 2201 8abd
00000390: 32c4 aabc 4d66 80bc 4973 58bd 5eb0 37bd
000003a0: 525c 2a3d dcf6 653d 05b1 933d 1830 08bb
000003b0: 2d42 a5bd d00f 6fbc b683 613d ed87 9d3d
000003c0: cc33 9e3d 3712 68bd 62a2 a83d 1df5 44bd
000003d0: f854 4bbc f971 38bd 7039 c5bb a206 f33c
000003e0: e003 84bc d8e2 143d 983b dc3c 4c70 92bd
000003f0: d103 ae3d 80eb a4bd 5868 d0bc 405f 783b
0.047601767 -0.07281175 0.04599621 -0.044331692 -0.057607368 -0.048128705 0.08364424 0.071896315
-0.06323405 -0.05358302 -0.0036601538 -0.062037688 0.048765033 -0.0147049185 0.023216486 0.04901919
0.028362352 0.008278675 -0.038937762 -0.046280883 0.067129344 -0.07726599 0.0015042746 0.07111617
0.061462864 0.047738343 -0.015675224 0.028489767 -0.041839316 -0.01931218 0.025119994 -0.018090583
0.016052395 0.041712753 -0.025887739 0.05320545 0.0038276687 0.00054915994 0.050668377 -0.012679353
-0.05270523 -0.038089212 0.038772702 -0.04764637 -0.08027193 0.04251402 0.052724235 -0.077885486
0.017565113 0.039746813 -0.06712932 -0.01000719 0.00856445 0.02449078 0.007902118 -0.036276676
0.086566545 0.0008450506 -0.00744406 -0.056063816 -0.040085725 -0.023871236 0.051933534 0.03185223
0.084106766 -0.030619591 0.06444545 0.0813158 -0.07735155 0.08572634 -0.00084350375 -0.053311747
-0.06595817 -0.06841447 0.058212396 0.08575798 -0.0018081968 0.03520194 0.05047688 0.055834297
0.046718873 -0.04230728 0.06918851 0.070268266 0.07234215 0.023184486 -0.051903576 0.037254706
0.05325339 -0.017095417 0.07692451 0.045755856 0.031419065 0.058110587 0.059811786 0.010629982
0.035822388 0.0850464 0.06529335 0.026039694 0.043062363 -0.06712689 -0.008018884 -0.028113898
-0.004620798 0.08556452 0.062657855 -0.04264378 0.074681334 -0.040561087 0.013682038 0.05818317
0.02933285 0.08962408 -0.011334295 -0.020587927 0.057513483 -0.04219128 0.055125333 0.030892644
-0.08192919 0.03538873 0.027263202 0.076858945 0.057832945 0.011167142 -0.05521999 0.047543623
-0.060282037 -0.009309032 0.06401565 -0.009545918 -0.011392079 0.08302586 -0.03384881 -0.017351774
0.049851425 0.0069316057 -0.06801609 0.03856118 0.08128432 0.06329563 0.024732716 -0.040324748
-0.051276803 -0.026206508 0.0004540566 -0.023835242 -0.003435209 0.01830378 0.033663474 -0.07310118
0.0035865235 -0.0032542567 0.004517488 0.004862168 -0.040526316 0.0697021 -0.016275164 0.027090348
-0.0043183267 0.03453423 -0.06679089 0.057576507 -0.057708926 -0.034137283 0.024505962 -0.011536069
-0.022723766 -0.02227673 0.048172295 0.06863134 0.0020585284 0.0061926544 0.018706912 -0.03980724
-0.026117604 0.058938317 0.065578096 0.0880411 -0.0874793 -0.05316935 0.020619728 -0.03293478
0.031478234 -0.02844846 0.05043788 0.03224804 -0.028596766 -0.013739638 6.043911e-05 -0.053501725
-0.038341116 0.033784557 0.039300717 0.030476633 0.03227239 -0.036639888 -0.055075057 0.07411609
-0.005689122 0.073607326 -0.02632937 -0.05331721 0.025317954 0.024326041 -0.015600552 0.05872358
0.004949589 0.017429506 -0.059937663 -0.08428015 -0.08697979 0.015711976 -0.008555929 0.03186858
0.004193552 0.009366596 0.04328195 0.028396964 0.057198387 -0.047480743 0.047339376 -0.0683826
0.015977742 0.048675127 0.059667487 -0.06738497 -0.020845506 -0.01567378 -0.05284432 -0.04484593
0.04159195 0.056143627 0.07211498 -0.002078062 -0.08069263 -0.014591172 0.05505725 0.076919414
0.07724723 -0.056657996 0.08234097 -0.04808532 -0.012410395 -0.045030568 -0.00601881 0.029666249
-0.016115129 0.036349148 0.026883885 -0.07150325 0.08496822 -0.080527306 -0.02544038 0.003789857

out.bias f4 [7]
00000000: dc78 543d fe93 b93b 1f2d c43c 24bc 463d
00000010: 0dd0 493d 755c 6dbd aa2d 8a3d
0.051873073 0.005663394 0.023947297 0.04851927 0.04927068 -0.057949502 0.06746991
