trained_models/dqn_shooter_850.pt (torch, 686304 bytes, 8 tensors)

fc1.weight f4 [512, 10]
000000 23 c4 fd bd 5d cd b4 3b 98 01 35 3d c1 ce 19 3d
       -0.12390926 0.0055176453 0.044190973 0.03755069
000010 32 1a 7f bd 8e e0 90 be fa b3 1c c0 83 da 90 be
       -0.06228084 -0.28296322 -2.448485 -0.2829171
000020 44 8d c1 be 79 3d e7 3d 31 66 a8 3d 02 fe 92 3c
       -0.3780309 0.11291022 0.082226165 0.017943386
000030 e8 6e 94 be 73 b4 56 be a3 1b a8 3d 7b 7b 59 3f
       -0.28990865 -0.20967273 0.08208396 0.8495404
000040 aa 93 e6 bb 9f 06 36 bd f1 f5 de be f2 98 46 be
       -0.007036646 -0.044439908 -0.43547013 -0.19394282
000050 38 d1 9d be b0 c2 d7 3c 17 e7 81 be df b3 5c be
       -0.30823684 0.026337951 -0.2537162 -0.2155299
000060 c4 9e 8d bd 81 47 64 be 41 05 90 3e 7e 7f f7 bd
       -0.06915048 -0.22292902 0.28129008 -0.12084864
000070 d0 5d 88 3d 80 42 27 bb 12 17 48 be 34 f9 04 be
       0.06658518 -0.0025521815 -0.1954005 -0.12985688
000080 61 f3 9b 3c 15 15 9c 3d 3b 56 b3 3d 98 c9 88 be
       0.01903695 0.076212086 0.087566815 -0.26716304
000090 4e 92 22 40 ec e0 b0 3f ad 4f cc be 24 81 15 be
       2.5401797 1.3818641 -0.39904538 -0.14600044
0000a0 f5 6a 4c 3e 47 a2 12 be 62 54 76 be a9 eb d2 be
       0.19962676 -0.14319716 -0.24055627 -0.4119542
0000b0 fd 41 4d be 61 3b f7 3e b5 0f 47 3e be 91 c6 3e
       -0.20044704 0.4828749 0.19439586 0.38783067
0000c0 89 e3 b1 bd 3a 88 c7 be 03 8b 9a 3c f8 29 86 3e
       -0.08685977 -0.3897112 0.018865114 0.26203895
0000d0 f4 c2 46 3d 1d d6 21 3d 5e 04 32 be 69 2d 9f 3e
       0.048525766 0.039510835 -0.17384478 0.31089333
0000e0 c3 2f a4 bf c3 23 1e c0 e9 5c 07 be 9d 3d ea bb
       -1.2827076 -2.4709327 -0.13219036 -0.007148458
0000f0 f4 bc ef 3d 7a c1 36 be b3 56 a1 be 48 da 86 be
       0.11705962 -0.17847243 -0.3151146 -0.2633841
000100 b5 3d e6 bd 3a 2f 83 3f 53 0d 04 3e 7e e0 09 3d
       -0.112422384 1.0248787 0.12895708 0.033661358
000110 2b be 39 3d 72 43 cd 3d a2 ab 85 be bc 7c 5e 3d
       0.045347374 0.1002263 -0.26107508 0.054318175
000120 0c 2c 24 3f 24 e1 f8 3d e0 eb dd bd 42 c7 51 bf
       0.6412971 0.12152317 -0.10836005 -0.8194467
000130 02 fd 36 bf 85 80 2c 3f bf 25 b7 be 9f c6 91 be
       -0.7147981 0.67383605 -0.35770985 -0.28471848
000140 83 9e b7 3d 61 41 a1 3d 16 e3 c7 bc 79 b1 3f be
       0.089657806 0.07873798 -0.024400275 -0.18720044
000150 5b 4f c9 3c 01 4c 54 3f 41 05 e9 3e 8e 6a 8c 3e
       0.024573972 0.8292847 0.4551182 0.27425045
000160 84 61 16 3d ab 76 0d be 47 7f 05 be 3e 03 74 3e
       0.036714092 -0.138148 -0.13036834 0.23829362
000170 14 e6 2e 3e 9e cd c6 bd e0 9b b4 bd 58 57 18 3d
       0.17079955 -0.09707187 -0.08818793 0.037192672
000180 c0 96 3c 3c cc 23 0a 3e cd 4c 8d 3e c8 4b 14 3d
       0.011510551 0.13490218 0.27597657 0.036205083
000190 66 33 67 3e b3 e5 2c be e5 24 8e 3e bd c0 1e bd
       0.225782 -0.16884498 0.27762523 -0.03875803
0001a0 d6 17 67 3e a6 63 8e 3f 5a 62 1c bf 4e de 0b be
       0.22567686 1.112416 -0.6108757 -0.13659021
0001b0 ef 59 0a bf 4c 68 1c be dd 7e a3 be a9 98 4b 3e
       -0.5404348 -0.15274161 -0.31932727 0.19882454
0001c0 68 3b eb be 61 06 c4 3d c4 e6 57 3e 2b de 5d 3d
       -0.4594376 0.09571529 0.21084124 0.054166954
0001d0 bc e6 5e be 60 a9 78 40 51 e6 fa 3e bb 6d 82 3d
       -0.21767706 3.8853378 0.49003842 0.06368586
0001e0 42 ff 8e bd 38 dd fb bd 4e 92 91 be 39 ba 0b be
       -0.0698228 -0.122980535 -0.28431934 -0.13645257
0001f0 2c b5 75 be 90 90 25 be 0e 0c 47 3e 10 c5 35 bd
       -0.23994893 -0.16168427 0.19438192 -0.044377387
000200 27 49 83 3e 00 26 3b be e0 5a 68 bd 08 0f 04 3e
       0.25641748 -0.18276215 -0.05672729 0.12896359
000210 51 0d 08 bf e6 f8 29 3d f5 57 8f be d1 a0 8e 3f
       -0.5314532 0.041497134 -0.27996793 1.1142827
000220 e2 6c dd be 56 1d 02 c0 10 e1 af 3d 5b a7 67 3d
       -0.43247133 -2.0330405 0.08587849 0.056556087
000230 38 8a a2 bd cf 4c c7 3e 6f f4 51 3e 6b 0d 2c 3d
       -0.079365194 0.38925788 0.205034 0.042004984
000240 41 2b a1 be 03 ed 06 bf d3 7d 23 40 33 aa 03 c0
       -0.31478313 -0.527054 2.5545547 -2.0572631
000250 0c 05 a0 3e 2e b8 bb bd 60 a1 79 bc aa 7a 56 3e
       0.3125385 -0.09165989 -0.015236229 0.2094523
000260 c0 e9 fb 3c 60 4b 3d bd 38 71 5c 3d 4c 42 18 3e
       0.03075111 -0.04621446 0.05381891 0.1486904
000270 6a 17 ba bd 70 7c d5 3d 6f 17 8f 3e 06 c7 1a be
       -0.09086497 0.10424125 0.27947566 -0.15114984
000280 2d 5a 18 3e f7 ce ba bd ab 28 39 bf 66 bf 8d be
       0.1487815 -0.09121507 -0.7232768 -0.27685088
000290 f1 2c 15 be 1c ba 4d 3f 28 e7 e9 be a6 2c 06 be
       -0.14567925 0.80362105 -0.4568417 -0.1310297
0002a0 a9 c6 da 3d 63 f8 5f 3d 60 b9 0a bc 78 21 29 3d
       0.10682423 0.05468024 -0.008467048 0.041291684
0002b0 90 ad 7a bd ab 65 04 be ea cc 0a be a0 e4 aa 3d
       -0.06120068 -0.12929408 -0.13554731 0.08344388
0002c0 a4 a3 38 3e bc 51 32 3e 89 a7 9e 3e 4c d3 81 bd
       0.18031174 0.17413992 0.30987194 -0.0633913
0002d0 bd 14 92 be 40 2b b2 3c 84 38 4b be 42 34 26 be
       -0.28531447 0.021749139 -0.19845778 -0.16230872
0002e0 d4 0c fe 3d b2 de e6 bd 00 59 80 3a 80 9d 58 bd
       0.124047905 -0.112729445 0.0009792149 -0.05288458
0002f0 4e 7a 54 3e d8 0a 8a be a5 67 3b be 1f 00 83 3e
       0.2074978 -0.26961398 -0.18301256 0.2558603
000300 ba 88 01 3e 40 8c 2b be 1d bc 9c 3e 98 44 9b be
       0.12649813 -0.1675272 0.3061227 -0.3032577
000310 80 21 c7 bc 71 f2 1e be b8 41 2a bd 66 d0 58 3e
       -0.024307966 -0.15522172 -0.04156658 0.21173248
000320 0b fc b7 3d b4 96 49 be 0a b0 e9 be 92 20 e0 3d
       0.0898362 -0.19686395 -0.4564212 0.10943712
000330 ca 7b 8e bd d2 c4 13 3f e3 91 cd bf 17 e6 05 c0
       -0.06957205 0.577222 -1.6060146 -2.0921686
000340 09 06 96 3c c4 be cf be 77 37 8e bd 1f fa 63 be
       0.018313425 -0.4057523 -0.06944173 -0.22263382
000350 be b0 6b bf 3b 5c 06 3e f8 a0 35 be d2 79 c9 bd
       -0.9206656 0.1312112 -0.17737186 -0.098376885
000360 f2 5c e8 3f ca 9b cc bf e5 8d 91 bd db ca 28 3d
       1.8153365 -1.5985043 -0.07107142 0.041209083
000370 df f1 08 be fe f1 d1 bd bc f3 b8 bd a6 bf 5f be
       -0.13373516 -0.102512345 -0.09030864 -0.21850452
000380 a4 14 86 3d a0 bb 33 3c 31 a4 82 3e 00 35 97 bb
       0.06546906 0.010970026 0.25515893 -0.0046144724
000390 3a e4 a2 bd 5f 5c 4d be 56 49 48 be 30 f2 c7 bd
       -0.07953687 -0.20054768 -0.19559225 -0.097629905
0003a0 0d ff 9a 3e 3a f9 48 be 8c df 83 be a8 cf 84 3d
       0.30272713 -0.19626322 -0.2575649 0.0648492
0003b0 67 c4 84 be b0 6c f2 bd 54 e4 09 3e 9a 23 b9 bd
       -0.25931093 -0.11837137 0.13466007 -0.090399936
0003c0 2b c1 0e bb 8c 44 c7 bd db ad d7 3d fa 19 ac 3d
       -0.0021782618 -0.09729871 0.10531207 0.08403392
0003d0 08 bf f9 bc e8 d0 40 bf 34 f0 11 c0 8c 3d 5e c0
       -0.030486599 -0.75318766 -2.2802858 -3.4725065
0003e0 4d ee 98 3d 7e fe 35 be f7 4f ef 3b 38 96 6a bc
       0.07467327 -0.17772862 0.0073032337 -0.0143180415
0003f0 1d 9d 78 bf 59 70 e9 3c 0d 34 25 3e d5 02 87 3f
       -0.97114736 0.028495954 0.16133137 1.0547739

fc1.bias f4 [512]
000000 0c 06 af be 40 ea 35 be a8 17 16 3e 42 21 4a be
       -0.341843 -0.1776514 0.14657462 -0.1973925
000010 73 8f 8e be c0 e5 90 be 7b 68 34 be 5d c0 31 be
       -0.27843818 -0.28300285 -0.17617981 -0.17358537
000020 d9 38 44 3e e4 72 14 3e a9 6d 3e be d1 38 50 be
       0.1916231 0.14496952 -0.1859652 -0.20334174
000030 62 2b 9d be 0d 97 c4 be 6f f4 d5 3d eb 72 84 3e
       -0.3069716 -0.38396493 0.10447013 0.25868925
000040 31 4b 45 3e 30 f1 0a bd b1 af 1f be ee 40 35 3e
       0.19266964 -0.03392142 -0.15594365 0.1770055
000050 e2 08 4f be 04 df 66 be c0 0e 72 be 62 77 6e be
       -0.20218232 -0.22546011 -0.23638439 -0.23287728
000060 f1 f6 6e be dd a5 98 be 60 d2 1f bd 5b 6b 02 be
       -0.23336388 -0.29814044 -0.03901899 -0.12736265
000070 cb 10 2d be 71 fc dd be bf 00 0c bd 32 06 78 be
       -0.16900937 -0.4335666 -0.0341804 -0.24221113
000080 9b 56 8e 3d 7c 45 72 be 58 bc 20 bd c2 ec 04 3e
       0.069501124 -0.23659319 -0.03924212 0.12980941
000090 55 be e1 bc c2 ae bf 3d 18 03 f0 bd 3b 02 f7 3d
       -0.027556578 0.09359504 -0.1171934 0.12060972
0000a0 30 6d 94 be f2 ad 22 3d 80 25 77 be d7 ad 0c be
       -0.28989553 0.03971667 -0.24135399 -0.1373819
0000b0 41 53 d9 3d a0 bf bd 3d 2d 49 9a be 92 5e 44 3e
       0.106115825 0.09265065 -0.30133954 0.191767
0000c0 d8 f9 53 bd e9 c2 f9 3d 50 61 e5 bc df a2 35 3e
       -0.05175194 0.12195379 -0.028000504 0.17737912
0000d0 96 97 88 be bc 0e 3f 3d c1 65 c7 be 84 ff 0b 3e
       -0.2667815 0.04664491 -0.3894482 0.1367169
0000e0 d3 62 3d be e5 0f 8d 3b 98 09 2e 3e b1 0c 6c be
       -0.1849473 0.0043048733 0.16995847 -0.23051716
0000f0 94 9c a7 3d 7c 94 61 3e 54 7b a3 be 41 cb 2d 3c
       0.08184162 0.22029299 -0.3193003 0.010607542
000100 4f 46 1d 3e 28 c9 5d bd a8 2a 83 bd 10 14 de 3d
       0.15358852 -0.054146916 -0.064046204 0.1084367
000110 58 13 e7 3d 80 22 21 3b 08 03 c6 be b4 35 67 3e
       0.112829864 0.0024587214 -0.38674188 0.2257908
000120 f8 00 d0 bd 44 18 9e be 4d c2 6d 3e 6f 7d 5b 3d
       -0.10156435 -0.30877888 0.23218651 0.05358642
000130 e9 51 a4 3d ee bc e7 bd 12 78 f2 3d 1c b5 3d 3e
       0.080234356 -0.11315332 0.11839308 0.18526119
000140 31 ba a6 bd 00 dc 80 3d 97 62 60 be 0d 89 80 be
       -0.08140982 0.06291962 -0.21912609 -0.2510456
000150 36 32 c7 3d bb fb 9b be 02 52 3f 3e 60 cd 3b bc
       0.09726374 -0.30465493 0.18683627 -0.011462539
000160 e8 25 5b be f8 2a 9b be 63 7e a2 be 3c ef bc bd
       -0.21401179 -0.3030622 -0.3173705 -0.09225318
000170 9a ce 70 3e 7f 3a 7f 3e e3 c6 13 3e 9e 8a 03 bd
       0.23516312 0.24924658 0.14431338 -0.032114618
000180 64 6f cb bd 83 4c bd be f0 40 bc 3e 45 a0 9a bd
       -0.099333555 -0.36972436 0.36768293 -0.075501
000190 ed b8 0c bd fa b3 bc be 60 35 2d bd 12 f6 da bd
       -0.034356046 -0.3685606 -0.04228723 -0.106914654
0001a0 e0 ca 34 3e 49 b7 37 bd 31 2c a6 bd dd 99 aa be
       0.17655516 -0.04485253 -0.081138976 -0.33320513
0001b0 64 69 56 3e ee ff 67 be a2 4a 95 3d ae 4d b2 bd
       0.20938641 -0.22656223 0.07289626 -0.087062225
0001c0 b0 a2 2d be a0 54 6c bd dc 27 c4 be cc d9 23 be
       -0.16956592 -0.057697892 -0.3831166 -0.16001052
0001d0 62 30 17 3e 16 c0 64 be 25 65 0b bd 10 be 00 3e
       0.1476455 -0.223389 -0.034032006 0.12572503
0001e0 62 b4 0e 3e ca 86 9f 3d 10 e7 22 bd a3 88 82 3c
       0.13935998 0.07789381 -0.03977114 0.015934294
0001f0 cf 6e a7 be 03 f8 e8 bd ba 6e b4 3d 35 e2 4a bd
       -0.32701728 -0.113754295 0.08810182 -0.049532134
000200 96 44 64 3e 7d 8b 9f be cd 60 14 3e 23 dc 2b be
       0.22291788 -0.3116111 0.14490052 -0.16783194
000210 b8 7b a4 bd 69 75 87 be 3f f9 a0 3e b6 86 84 be
       -0.0803141 -0.26456764 0.3144016 -0.25884026
000220 d8 ab d4 3d 6a 11 79 3e a7 ef b0 3d f6 cc 81 be
       0.10384339 0.24323049 0.0863946 -0.25351685
000230 cc b1 0e 3e 10 3e 3d 3d 20 a9 98 3c 8b 7a 8e 3e
       0.13935012 0.046201766 0.018635333 0.27827868
000240 66 09 ba bc 93 56 84 be ce fd a2 be 00 6f 55 3c
       -0.02270956 -0.258473 -0.31834263 0.013026953
000250 dc 27 36 3e 2b f9 47 be a2 b4 66 3e ac 34 a2 be
       0.17788643 -0.19528644 0.22529843 -0.3168081
000260 26 f7 7b 3e f0 4c a7 bc 7b 2e 6e bb 45 23 14 be
       0.24605998 -0.020422429 -0.0036343622 -0.1446658
000270 31 30 46 3e b0 1d 9a 3d 97 c1 c3 bd c8 18 7c 3d
       0.19354321 0.07525194 -0.09558409 0.06154707
000280 bd 9c c7 bd f7 4e 21 3e a3 28 52 3e d8 7c 75 bd
       -0.09746692 0.15752779 0.20523314 -0.059933513
000290 03 61 e7 3c a8 c1 7b 3d 0a cf a1 bd 12 f1 05 3e
       0.028244501 0.061463982 -0.07900818 0.13080242
0002a0 f1 c5 7a be c1 03 17 be 77 9c 87 be 87 66 e3 bd
       -0.24489571 -0.14747526 -0.2648656 -0.1110354
0002b0 bc 6e 37 be 94 f0 8c 3c 84 83 0d be 62 2c 26 3d
       -0.17913336 0.01720456 -0.138197 0.04056967
0002c0 94 af 07 bd a6 a8 5b be 2c 56 a0 3d 12 17 e6 bd
       -0.03312643 -0.21451053 0.07828936 -0.11234869
0002d0 07 89 88 3e 20 86 19 3d 04 8f 2b 3e 19 e9 83 3e
       0.26667044 0.037481427 0.16753775 0.25763777
0002e0 dd b6 1f be 1f 64 bb be ad 4b be be 1b f9 5f bd
       -0.155971 -0.36599824 -0.3716711 -0.054680925
0002f0 54 aa 81 be fb f7 be be ea a3 22 3e 10 af 06 bd
       -0.25325263 -0.3729857 0.15882841 -0.032881796
000300 66 10 85 3c f0 2d 9e be 4f 2d da be ad a6 43 be
       0.016243171 -0.30894423 -0.42612693 -0.1910655
000310 d7 f2 15 be 0d 54 14 3e 00 db af 3d 76 12 3a be
       -0.14643417 0.14485188 0.08586693 -0.18171105
000320 f9 dd ad be 60 30 f2 3c 98 c5 88 3d e8 d4 27 3e
       -0.33958414 0.029564083 0.06678313 0.16389811
000330 af 1a e5 3d 47 69 69 bd ee a5 a7 be 90 61 af bd
       0.1118673 -0.056985166 -0.32743782 -0.085635304
000340 a1 73 6d be 78 f4 2c 3d 85 ed 85 3e e3 14 85 3e
       -0.2318864 0.04222533 0.26157776 0.25992498
000350 0b 2e df bd c6 5b 51 3e 1f c5 71 3c c2 84 23 be
       -0.10897454 0.20445165 0.01475647 -0.15968612
000360 58 85 73 be cb ef 6e be d1 a7 90 be a6 7c 37 3e
       -0.23781335 -0.23333661 -0.28253034 0.17918643
000370 29 b7 3d be 6c 20 f9 bc c6 6f 00 bd b0 61 bc 3d
       -0.18526901 -0.030410968 -0.031356595 0.0919832
000380 f7 7c 14 bd 65 05 b6 bd 85 82 00 bd 63 d1 22 be
       -0.03625199 -0.08887748 -0.031374473 -0.15900187
000390 3d f3 af bd 75 8e 6c 3d 1b 4d aa bd 0e fa 04 3e
       -0.08591316 0.057753045 -0.08315488 0.12986013
0003a0 5c d7 96 be 11 52 f9 bd 98 1e 0b bc 51 3f ce bd
       -0.2946118 -0.12173856 -0.008491181 -0.100706704
0003b0 da aa 82 bd 97 96 8f be 2c cc f9 3d 68 37 3c be
       -0.063802436 -0.28044578 0.12197146 -0.18380511
0003c0 3c ae 92 be 44 05 d7 bc 26 35 80 be 1e 07 87 3e
       -0.28648555 -0.026247628 -0.2504055 0.26372617
0003d0 36 fd aa bd 9f f5 19 3e 4c b5 75 be 74 eb 1c be
       -0.083490774 0.15035103 -0.2399494 -0.15324193
0003e0 dd 12 a2 be 87 c3 be bd 88 c4 16 3e 8c c0 a0 be
       -0.31655017 -0.09314638 0.14723408 -0.31396902
0003f0 d7 96 0a be 01 e5 8e 3e a1 1e 20 3e e0 e2 bb bd
       -0.13534103 0.2790909 0.15636684 -0.09174132

fc2.weight f4 [256, 512]
000000 07 03 1b 3b bc 11 61 bc fa 0a b5 3c 03 0f ed 3c
       0.0023652927 -0.013737138 0.02209996 0.028937822
000010 ba 40 f3 3c 83 f0 fa bc a5 2e ad bc 79 0a de bc
       0.02969395 -0.030632263 -0.021140406 -0.027104603
000020 45 df 26 bd cc e6 59 3c f2 39 0a 3d b9 cb fc 3c
       -0.04074027 0.013299655 0.033746667 0.030858861
000030 82 aa 0b bd 69 dd 16 3d 29 03 0a bd 92 eb eb bc
       -0.034098156 0.036832247 -0.03369442 -0.028798852
000040 40 34 c1 bc bb fe 08 3d b0 5b 00 bc 98 fc 3c 3c
       -0.023584485 0.033446055 -0.00783436 0.011534832
000050 60 7b 69 3c 6a 59 9c 3c bb 9f 0e 3d 22 df e7 3c
       0.014250606 0.019085605 0.0348203 0.02830464
000060 3e 9c c3 3c 67 50 06 3d fe f8 5b bc fb fa d8 bc
       0.023878213 0.03279152 -0.013426064 -0.026486864
000070 71 60 13 3d 01 88 66 3b 14 eb 12 3d 3b 6f a3 bc
       0.035980646 0.003517628 0.03586872 -0.0199505
000080 70 f0 b4 bb ea 62 23 bd 66 3b 92 bc 4c 28 82 bc
       -0.0055218264 -0.039889254 -0.017850589 -0.015888356
000090 54 94 1e 3c 4b 43 d7 3c ea b3 0e ba 28 b9 fc 3c
       0.009678919 0.026277205 -0.00054436794 0.030850008
0000a0 4d 16 e2 bc a3 8b 28 bd a2 10 a3 3c 5a 66 39 3c
       -0.027598524 -0.041148793 0.019905392 0.011315906
0000b0 ea c7 03 bd 58 be 43 bc c0 58 ad 3c d3 0b 0b 3d
       -0.032173075 -0.011947237 0.021160483 0.033946823
0000c0 00 e9 3f bc 36 6b e1 bc 51 83 0e bd a7 10 d5 bc
       -0.011713266 -0.027516942 -0.0347932 -0.026008917
0000d0 85 0a 13 3d 20 47 f7 bc ec d2 09 3d 7c 76 9b 3c
       0.035898704 -0.030185282 0.033648416 0.018977396
0000e0 18 f1 07 3c d5 c0 98 bc f8 a7 94 bb 4d c2 b2 bc
       0.008297227 -0.018646637 -0.004536625 -0.021821165
0000f0 00 9b fd bc a9 31 18 3d a3 b5 4a bd 7a 92 e0 3b
       -0.030957699 0.037156735 -0.04948963 0.006853399
000100 ac 25 6d 3c 98 f8 f6 bb 96 b1 44 bd 48 25 8a 3c
       0.014474314 -0.007536959 -0.04802092 0.01686348
000110 a2 b8 e3 3c a2 3a c7 3c 14 9b d8 bc 7b 0b e4 bc
       0.027798 0.02431995 -0.026441135 -0.027837506
000120 ae f9 c8 ba 5b 3c 15 3d 47 aa 0a 3d f3 6c 23 bd
       -0.0015333199 0.036434513 0.033853795 -0.039898824
000130 51 f4 32 bd 9c 90 f7 bc bd cd 2a bd b0 f2 16 bd
       -0.04369003 -0.030220322 -0.041700114 -0.03685254
000140 4a d1 24 bd 19 ce c7 bc a2 99 3f bc 49 24 2c 3d
       -0.040238656 -0.024390267 -0.011694344 0.04202679
000150 e2 75 03 bb 6e 30 a0 3c 1a 1e 82 3c 6b 7f d1 bc
       -0.0020059277 0.019554343 0.015883494 -0.025573453
000160 b4 9c d2 bc 22 72 f2 3b 88 0f b1 bb c9 bb 06 3d
       -0.025709487 0.0073988596 -0.005403463 0.03289393
000170 48 46 ad 3b 99 d5 26 bd 86 52 9f 3c 40 46 ac 3a
       0.005287919 -0.040731046 0.01944853 0.0013143495
000180 28 04 67 3c 96 7c c9 3b 66 7e 1b 3d 1d 14 dd 3c
       0.014100112 0.006148885 0.03796234 0.02698713
000190 f0 10 b7 3c d6 65 ea 3c aa ad db 3c 89 f0 86 3b
       0.022346944 0.028613012 0.026816208 0.0041180295
0001a0 13 a2 09 bd f6 67 e0 3c 09 0a f2 bc db 7c d2 3c
       -0.03360183 0.027393322 -0.0295458 0.025694301
0001b0 3c 83 23 3c bf 9a 12 3d b0 f9 80 3c fa 2f 9e 3c
       0.009980019 0.03579211 0.01574406 0.019309986
0001c0 d8 2c 2e 3d a5 cf 1f 3d 67 42 3b bd 4a 44 06 bd
       0.042523235 0.039016385 -0.045717623 -0.03277997
0001d0 fb c9 14 3d 98 46 32 3c da b8 f2 39 70 69 9c 3c
       0.036325436 0.010881089 0.00046295562 0.019093245
0001e0 b8 e3 a5 bb 20 23 18 3c 80 69 a5 3b a6 5f 54 bc
       -0.0050625466 0.009285718 0.005047977 -0.0129622575
0001f0 e8 ba 3e bd 3a 98 ed 3c 4c db 37 3c ca cd 50 bc
       -0.046564966 0.029003251 0.011221718 -0.012744376
000200 40 f3 7e ba 10 4a 01 bc ae 3e 95 3c 93 62 17 3d
       -0.0009725578 -0.007891193 0.018218365 0.036959242
000210 65 fc 28 3d 0c ec 84 bb e4 7d 0f bc a0 22 ef 3a
       0.041256327 -0.0040564593 -0.008758042 0.0018244572
000220 2b 90 0f 3d 88 02 91 bb e5 ea 62 bc 3f 02 2a 3d
       0.0350496 -0.0044253506 -0.0138499485 0.04150605
000230 f2 43 2e bd 19 2b 20 3d 6d 51 25 3d 5b 38 14 3d
       -0.042545266 0.0391036 0.040360857 0.036186557
000240 39 61 13 3d c0 85 bc bc 55 90 68 3c 40 9b c4 bb
       0.03598139 -0.023012996 0.014194568 -0.0059999526
000250 32 01 39 3c e8 17 a6 3c b8 87 1f bd 03 18 7f bc
       0.011291789 0.020275071 -0.03894779 -0.01556969
000260 f0 d2 dc 3b b6 91 e6 3c 65 72 6e bc 37 53 24 3d
       0.006739013 0.028145652 -0.014553641 0.040118422
000270 7c 6c e4 3c 57 a2 bd bc 52 6d 27 bd fd e7 97 bc
       0.02788376 -0.023148699 -0.04087574 -0.018543238
000280 1b bf ad bc 82 33 15 3b 34 eb 40 bc 7e fc 2f bd
       -0.02120929 0.0022766297 -0.011774827 -0.042965405
000290 bf ea b5 3c 08 3b db 3c f4 2c 36 bd 65 1b 03 3d
       0.022206662 0.026761547 -0.044476464 0.032008547
0002a0 31 80 06 3d 9d cc d2 3c b8 9a 1e bc c5 b8 66 3b
       0.032837097 0.025732333 -0.0096804425 0.0035205346
0002b0 40 01 58 ba 1b 71 6a 3c 9e 27 e0 3c 1f fa 9b bc
       -0.00082399324 0.014309193 0.027362641 -0.019040165
0002c0 a5 19 f9 bc dc 01 91 3c 90 f2 34 3c 62 2f a8 3c
       -0.030407736 0.017701082 0.0110441595 0.020530406
0002d0 d1 ba 09 3d 70 9b 00 3b 45 25 1b 3d 5c 1b 01 3c
       0.033625428 0.0019623898 0.03787734 0.007880058
0002e0 0c 29 2e bc 00 a3 12 39 75 29 ab 3c 3e ae 00 bd
       -0.0106299035 0.00013984367 0.020893792 -0.03141617
0002f0 39 52 89 bc 25 76 9f 3c e2 77 19 3d 48 ad 46 bc
       -0.01676284 0.019465515 0.037467845 -0.012126274
000300 9d 2b 0d 3d 72 d4 db bc 3c cb 10 3a 84 78 03 bd
       0.03446542 -0.0268347 0.00055234483 -0.032097355
000310 b6 4e e2 3c 39 7a 1b 3d 18 4a fe 3b 6f ca 06 bd
       0.027625423 0.037958357 0.0077602975 -0.0329079
000320 ac 20 40 3c 59 f9 02 3d fb a9 06 3d fb 6e 6e 3b
       0.01172654 0.031976078 0.03287695 0.0036382067
000330 68 6d 39 bd 88 82 fc 3c dd 37 f3 3c 0b 7a df bc
       -0.045270354 0.03082396 0.029689724 -0.027279874
000340 5e a7 e2 bc 37 ac d2 bc 00 f6 29 bc 4b 04 24 bd
       -0.027667698 -0.025716884 -0.010373592 -0.040043157
000350 8e bf b1 3c 91 04 15 3d 27 5f 0e bd cb b5 bb bc
       0.021697786 0.036381308 -0.034758713 -0.022913834
000360 c8 6a 24 3c e4 71 28 bd 9e d8 c0 3c e8 a6 50 3c
       0.010035224 -0.04112424 0.023540791 0.012735106
000370 40 54 1c bc 2d 3f 1f bd a7 f2 2d bd 67 93 78 3c
       -0.009541571 -0.03887861 -0.04246774 0.015171862
000380 86 3d 25 3c ba 15 a9 3c 3d 29 5a 3c 2b 85 04 bd
       0.010085469 0.020640243 0.013315496 -0.03235356
000390 b3 f4 0f bd e0 4d b9 ba aa 42 21 bd 04 5f ea 3c
       -0.035145473 -0.0014137588 -0.039370216 0.02860976
0003a0 68 29 f7 bb f6 36 b1 bc b6 c2 eb 3b 39 06 16 3d
       -0.007542778 -0.021632653 0.007194842 0.03662703
0003b0 4a e2 fd 3c ee e2 fc bc bc 01 db bc e0 06 63 bb
       0.030991692 -0.030869927 -0.026734225 -0.003464155
0003c0 ba e8 b9 bc f6 0d be bc 89 56 58 bc 6b 22 1b 3d
       -0.02269398 -0.023200016 -0.013204225 0.03787462
0003d0 3b 25 fc 3c 73 39 c2 3c 50 39 4b 3c 11 d4 26 bd
       0.030779472 0.023709035 0.012403801 -0.040729586
0003e0 0c c5 3d bd e6 90 cd 3c 90 7f 67 bb 04 64 a1 bc
       -0.046330497 0.025093507 -0.0035323836 -0.019701011
0003f0 0d 58 13 3d d8 54 0f bd 4c d7 6c bc 00 c8 36 3c
       0.035972644 -0.034993023 -0.014455628 0.011156082

fc2.bias f4 [256]
000000 61 1b fa bc 30 56 c5 3c 7b 48 cc bc 9d a8 c5 bc
       -0.030530633 0.024088949 -0.024936905 -0.024128253
000010 c5 5f 36 bd c0 ae 99 ba b1 11 00 bc 62 eb f5 3c
       -0.044524927 -0.0011725053 -0.007816718 0.030019466
000020 a2 81 dc bc af f2 f1 bc cc 7f dd bc a4 d6 fb 3c
       -0.026917282 -0.029534666 -0.027038477 0.030741997
000030 74 1d d4 3c c8 b5 05 bd d1 0c a2 bc fb ed 48 bb
       0.02589295 -0.032644063 -0.019781502 -0.0030659426
000040 5d d4 a8 3c 1c 5e a6 3c a0 fb 51 bc 37 35 e1 3b
       0.020609075 0.020308547 -0.01281634 0.006872799
000050 8e 1a 2f 3b 5d 2f 6e bc 4c 08 22 bd f7 cb d9 3c
       0.0026718709 -0.0145376595 -0.039558694 0.026586516
000060 7a f1 6a 3c d3 c1 4e bc 12 3a d2 3b 93 eb d7 bc
       0.014339799 -0.0126194535 0.006415614 -0.026357448
000070 ed 4b 8b 3c a0 03 08 bd d0 02 3e 3d 52 82 97 bc
       0.017003978 -0.033206582 0.0463894 -0.018494759
000080 6d b4 65 bc 71 92 04 3b 92 09 66 bc 01 36 36 3c
       -0.014020068 0.0020228887 -0.014040368 0.011121274
000090 4e 5a 80 bc 83 74 2f bd 9c 0b 9b bc 42 46 23 3d
       -0.01566806 -0.042835724 -0.018926434 0.039861925
0000a0 5c 34 09 3d 43 8c d2 3c 35 3d 12 3d 45 43 32 3d
       0.0334972 0.025701648 0.035702903 0.043521184
0000b0 83 46 23 bd 0b a7 71 3c 8c a6 30 bd 6c ed a0 3c
       -0.039862167 0.014749299 -0.04312758 0.019644462
0000c0 af ed 1e 3d c9 4c 39 bd ae e1 fd 3c 07 1b 18 bd
       0.03880089 -0.045239244 0.030991402 -0.03713515
0000d0 6d 91 fc 3c f6 07 03 3c 0d 11 c3 3c 30 60 21 3c
       0.030831063 0.0079975035 0.023811841 0.009849593
0000e0 28 f0 e3 bc b0 4e bf bc 28 6a 89 bd 9e 16 87 3c
       -0.027824476 -0.02335295 -0.06709701 0.016490277
0000f0 2e a3 44 bb 84 6d 86 3c 59 bb d4 3c de f8 e6 bb
       -0.003000449 0.016409643 0.02596824 -0.0070487102
000100 92 ac 9d 3c 7e ae b3 3c 05 54 fa bc cb 11 2b bd
       0.019247327 0.02193379 -0.030557642 -0.041765016
000110 3a 35 cd 3c 38 6a d7 bc e9 a2 88 3b 99 26 fb 3c
       0.025049794 -0.026295766 0.004169811 0.030658053
000120 df e1 3b bc 9a dd c2 3c 20 fb 91 3b 54 c2 01 bb
       -0.011467426 0.023787308 0.0044549853 -0.0019799666
000130 23 1b 11 3b 77 36 24 3d 0d db 08 3d 55 35 43 bd
       0.002214142 0.040091004 0.033412028 -0.047658283
000140 f0 90 40 3b 28 a5 e9 bb 1c a5 7f bc 95 ef ce bc
       0.0029383264 -0.007130284 -0.01560333 -0.025260726
000150 85 08 b7 3b 20 b5 dd 3d b8 04 23 3d 16 c3 f3 bc
       0.0055857324 0.108255625 0.039799422 -0.02975611
000160 00 8e a7 bb 0b 13 25 3c aa 7e 0f 3c 21 17 df 3c
       -0.0051133633 0.010075341 0.008758226 0.027232708
000170 b0 7b 92 3c 82 45 ea 3c 79 5b 08 3d 0b f5 e8 bc
       0.017881244 0.028597597 0.03329036 -0.028437158
000180 3d 4c 49 3d 1c d1 0b bb c5 b5 2f bd 4b 68 d8 bc
       0.049144972 -0.0021334356 -0.04289796 -0.026416918
000190 55 d3 b3 3c 61 9a ae bb cc af c0 bb 98 7b ea 3c
       0.021951357 -0.005328462 -0.0058803316 0.028623387
0001a0 98 4d 49 bd fd 33 22 bd ed c5 99 3c 6f c3 f7 b8
       -0.049146265 -0.03960036 0.018771136 -0.0001181428
0001b0 cb 9b 21 3d 51 15 67 3b 7d d8 31 bd a1 08 14 3d
       0.039455216 0.0035260508 -0.04341935 0.03614104
0001c0 5e c7 9e 3c 75 07 48 bd 7b 47 85 bc 84 e8 20 bc
       0.019382175 -0.048835237 -0.016269436 -0.009821061
0001d0 d6 77 a6 3c f7 62 bd 3c 71 f9 8c bc 48 ac 58 bc
       0.020320814 0.02311848 -0.017208787 -0.013224669
0001e0 14 d4 8e bc fc a7 c7 bc 16 8b 04 bd b6 b9 3b 3c
       -0.017435111 -0.024372093 -0.032359205 0.011457851
0001f0 f1 40 1b 3d 46 3f 29 bd 11 02 e6 bc 8f e9 88 3c
       0.03790373 -0.041320108 -0.028077157 0.016712932
000200 9c 1b 38 bc 06 74 93 bc 18 6b 98 bb b0 f5 7d 3b
       -0.011237051 -0.01799966 -0.0046514384 0.0038751177
000210 d8 87 12 bd 27 25 2c bd 99 ec b6 bc b4 47 06 3d
       -0.035774082 -0.04202762 -0.022329615 0.032783225
000220 8f 60 0e 3d 5d 57 3d bd 80 6a a0 bb 59 b2 2d bc
       0.034760054 -0.046225894 -0.0048955083 -0.010601603
000230 b5 9c e3 3c ea c7 a9 3c d4 b9 bb bc 85 40 07 3d
       0.027784685 0.02072521 -0.022915758 0.033020515
000240 9a fc ff 3c ee 84 b3 bc 93 17 19 bd 5d d5 f0 bc
       0.03124838 -0.021913972 -0.037375998 -0.029398615
000250 d0 b5 26 bb 64 d8 32 bd 8b 23 ee bb 58 6a 82 3b
       -0.0025437959 -0.043663397 -0.0072674206 0.0039799623
000260 0d 7f b1 bc a5 44 29 bd a1 6f 9b bc a3 a3 70 bc
       -0.021667028 -0.04132523 -0.018974127 -0.0146874515
000270 00 10 3e 3c f3 32 a7 3c 98 c2 0d bd b7 9e 12 bd
       0.011600494 0.020410037 -0.034609407 -0.035795894
000280 65 36 07 bd 1b 2b 99 3c 60 9e b7 3b 14 aa d3 bc
       -0.03301086 0.018697312 0.0056035966 -0.025837936
000290 49 de 17 bb dc 9c 18 3d 0a 4e f1 ba 59 81 16 3d
       -0.0023173264 0.037258968 -0.0018410098 0.03674445
0002a0 a9 64 32 3d 1e 6b 0c 3d 02 97 10 bc 57 c6 31 bc
       0.04355303 0.034281842 -0.008825066 -0.010850511
0002b0 9c 15 8f 3c 70 80 9d 3c bc e8 bc 3b 9b 3d b3 3c
       0.017466359 0.019226283 0.005765049 0.021879962
0002c0 03 88 e7 bc 3a 7d 03 bc f5 09 0d 3d 5e 2c 40 3c
       -0.028263098 -0.008025462 0.034433324 0.011729328
0002d0 e2 fd a8 3c 6f f1 f8 3c a6 ee 99 bc 68 fe b3 3c
       0.020628873 0.030388562 -0.018790554 0.021971896
0002e0 fe f8 7b 3c 5b af 32 3c 7a db 83 3c 9e c6 55 3c
       0.015379189 0.010906066 0.016095866 0.013047842
0002f0 ff 3a 6e bc 28 78 af bb 7a 5b 9c bb e1 9e cc 3c
       -0.014540433 -0.0053549 -0.004771647 0.024978103
000300 1d eb c2 bc a0 02 08 3c bf 2d 9c bb 91 b9 92 bc
       -0.023793751 0.008301407 -0.0047661955 -0.01791075
000310 c7 94 e8 bc 20 20 0f bb d9 3e ea 3c 5e e1 5c bd
       -0.028391255 -0.0021839216 0.028594421 -0.053925864
000320 79 9d d2 3b 63 e5 65 3c 07 14 08 3d 8f 33 87 bc
       0.0064274636 0.014031741 0.033222225 -0.016504077
000330 32 52 ec 3c 52 4e 2e 3c c9 0d 6d 3b 05 3d 8b b9
       0.028847788 0.01063879 0.0036171547 -0.0002655761
000340 e0 f8 94 bd 36 7f 81 bc fe bf e5 bc 4f 03 98 bc
       -0.07274032 -0.01580773 -0.02804565 -0.018556265
000350 93 95 28 3d 0f 87 b2 3c 5c a3 53 3c 1a 97 1d bd
       0.04115827 0.021792917 0.012917366 -0.03847418
000360 20 b0 82 3c d9 24 72 3d b6 ca ca bc 36 20 8e 3c
       0.015953124 0.059117172 -0.024754863 0.017349344
000370 5c fe 08 3c 2a 97 62 3b 7e 9f 81 3c 01 d5 1f bd
       0.008361425 0.0034574964 0.015823122 -0.039021496
000380 cc a2 1e bc f9 2a 5b bc 74 44 c9 bc 9a a8 4d bd
       -0.0096823685 -0.013376945 -0.024568774 -0.05020962
000390 df 5e 4e bb 94 a1 1a bd 50 73 20 bc f9 03 52 3c
       -0.0031489653 -0.03775175 -0.009793118 0.01281833
0003a0 16 1d ca bc de b3 ab ba 12 59 05 3d 81 5b 4d 3b
       -0.024672072 -0.0013099869 0.032555647 0.0031335058
0003b0 a4 35 92 bb 6b 98 2b bd 07 42 cf 3c 05 c3 0d bc
       -0.004461961 -0.041893404 0.025300039 -0.008652453
0003c0 0f c3 67 bc 13 bd 1a 3d 10 df 59 bc 90 56 16 3c
       -0.014145627 0.03777797 -0.013297811 0.009175912
0003d0 ee c8 8f bc cf f0 88 bc 83 56 0d 3d 75 8d 17 3c
       -0.017551865 -0.016716389 0.034506332 0.009250035
0003e0 18 67 39 bd 5b c6 cc 3c 43 21 1c 3d a2 bd e7 3c
       -0.045264333 0.024996927 0.03811766 0.028288666
0003f0 e4 e9 c6 3c 15 8c 31 bd e0 ac 05 bd fa fe 77 3c
       0.02428145 -0.043346483 -0.03263557 0.015136475

fc3.weight f4 [128, 256]
000000 59 d7 19 bc 70 8f ba 3b 1c ff f4 3c a8 01 90 3c
       -0.009389722 0.0056933686 0.029906802 0.017578915
000010 00 2b e3 bb 68 cc 48 bd c0 42 65 bd 14 06 a7 3c
       -0.0069326162 -0.049023062 -0.05597186 0.02038864
000020 40 2c 42 3c a0 86 59 3d e9 8c 69 bd 60 6f 93 3b
       0.01185137 0.053106904 -0.057019148 0.004499361
000030 c2 2c 47 bd 98 4a 0a bd 28 80 06 bd ef b9 32 3d
       -0.04862667 -0.033762544 -0.032837063 0.04363435
000040 8a 30 1f bd 00 1f 4b 3d e0 a0 e5 3c 2a fe 36 3d
       -0.03886465 0.04959011 0.028030813 0.044675983
000050 90 59 d7 3b 48 90 85 bc cc a2 7a bd 40 36 d2 bc
       0.006571956 -0.01630415 -0.06119041 -0.025660634
000060 a8 e2 09 bd f0 fa bc 3c 37 b3 17 3c 22 09 37 3d
       -0.033663422 0.023068875 0.009259037 0.044686444
000070 94 27 d4 3c f4 71 35 3d 3f a9 22 bd 38 a1 1c 3d
       0.025897779 0.044298127 -0.039712187 0.038239688
000080 14 75 ba bc b0 7b af 3b cb 83 88 bd a2 c7 fb 3c
       -0.022760905 0.005355321 -0.066657625 0.03073484
000090 2d e0 4a 3d c0 a2 4b bd 48 43 33 3c 78 cd 9b bc
       0.049530197 -0.049715757 0.010941334 -0.019018874
0000a0 cc f5 2f 3d 7c d4 00 3d 72 2d 28 3d 00 8f 91 3a
       0.04295902 0.03145264 0.041058965 0.0011105239
0000b0 10 02 0d bc 26 c6 13 3d 60 fa 2d 3b a0 d0 4a 3c
       -0.008606449 0.03607764 0.002654694 0.012378842
0000c0 2a d5 2f bd b9 4c 48 bd f6 38 45 3d 9a 1d 2e 3d
       -0.0429279 -0.048901293 0.048150025 0.0425087
0000d0 ac 2a 64 3d 80 86 e7 bc 00 1c 3c ba 50 89 e9 3c
       0.055704758 -0.028262377 -0.0007175803 0.028507859
0000e0 88 bf 73 bd 55 af 3b 3d 17 ca 2d bd 38 63 57 3d
       -0.05950883 0.045821507 -0.042429056 0.052584857
0000f0 c0 70 e1 bb 8a cb 01 3d c8 1b 1c bd 00 d4 50 bb
       -0.006879896 0.03168825 -0.03811243 -0.0031864643
000100 2e e6 39 bd ee 39 3b bd dc 62 33 bd 20 10 c5 bc
       -0.045385532 -0.045709543 -0.04379545 -0.02405554
000110 28 5f 00 bd a6 5d 4a bd b0 19 64 3c 88 d4 33 3c
       -0.031340748 -0.049405716 0.01392214 0.010975964
000120 84 8e 93 bc 4e ef 6a 3d e4 38 fb bc 4c d2 1c bd
       -0.018012293 0.057357125 -0.030666776 -0.038286492
000130 69 3a 38 bd f6 77 04 bd be 35 81 bc 4c 8a 4e bd
       -0.04497758 -0.032340966 -0.015772697 -0.05042486
000140 1c e2 cb 3c b8 d5 ee 3c 4a 00 b7 3b 3e d0 33 bd
       0.02488809 0.029154643 0.0055847513 -0.043899767
000150 34 b7 d5 bc 95 fc 8e bb 54 d0 14 bd d0 50 2a 3d
       -0.026088335 -0.004363606 -0.03633149 0.041580975
000160 48 78 4b bd d0 26 79 3d e8 05 61 3c 2c 6f 90 3c
       -0.049675256 0.06082803 0.013734318 0.017631136
000170 23 0b ea bc 24 3f 7b bd ce 15 36 3d f8 8c 04 bc
       -0.028569764 -0.061339512 0.04445439 -0.00809025
000180 18 ac dd bc e9 84 c8 bc 90 13 0c bd 4c df 13 bd
       -0.0270596 -0.024477439 -0.034198344 -0.036101624
000190 ca 21 09 3d d0 ac 6a bc a0 1b 76 bd 14 e8 bd 3c
       0.03347949 -0.014323428 -0.06008494 0.023181953
0001a0 62 03 82 bd e6 7f b8 bc 97 34 7a 3c 63 1c c8 3b
       -0.063483015 -0.022521924 0.015271327 0.0061068996
0001b0 6a 5f 2f 3d 00 b6 91 3a c2 ca 7e 3d f0 9f 29 3d
       0.042815603 0.0011116862 0.062205084 0.041412294
0001c0 4c b8 1c bc 09 ae fe bc 00 7a 05 ba ec 44 59 bd
       -0.009565424 -0.031088846 -0.0005091727 -0.053044245
0001d0 5a 77 f6 bb a4 2d 0d bc d0 1a cf 3b ce d5 3b bd
       -0.007521552 -0.008616839 0.006320335 -0.045858197
0001e0 c8 c0 c5 bc ec 7c b5 3c 4c b8 07 3d 10 af 62 3d
       -0.024139777 0.022154294 0.033134744 0.055342734
0001f0 19 99 54 3c dd ae 69 3d f8 58 16 3c 50 f5 bc 3c
       0.012975954 0.05705153 0.009176485 0.023066193
000200 84 99 e2 3c 84 c3 bf 3c 88 8d 5f bd d4 32 09 3d
       0.027661093 0.023408659 -0.054578334 0.03349574
000210 f0 92 fb bb 6a 60 72 bd 9e 63 7e 3d 20 ce 2d 3d
       -0.0076774284 -0.05917398 0.06210672 0.042432904
000220 84 ca f6 3c bc ff 27 bd 16 c7 09 3c a8 a5 eb bc
       0.030125864 -0.04101537 0.008409282 -0.028765514
000230 2e 0e 52 bd 0b 5e 20 bd 60 55 a8 3c 15 95 0e 3c
       -0.051283054 -0.039152186 0.020548522 0.008702536
000240 90 55 79 3d d8 00 07 3c 66 98 6c bd 3d 7f 29 bc
       0.060872614 0.008239947 -0.057762526 -0.010345277
000250 f0 ca 30 3c f0 a5 cd 3c a8 cc 59 3d 10 99 07 bd
       0.010790572 0.02510354 0.05317369 -0.033104956
000260 28 68 a0 bc d6 be 87 bd f2 0e 0d bd 94 5f 05 3d
       -0.019580916 -0.06628196 -0.03443808 0.032561854
000270 de b5 4f bd c0 6e 10 3b 17 d7 73 3c 1e 20 41 3d
       -0.05071055 0.0022038668 0.014882824 0.04714977
000280 32 8c 48 bd c8 c0 0f 3d e0 42 1b 3b 24 a5 ee bc
       -0.048961826 0.03509596 0.0023690984 -0.02913148
000290 0c 56 dd bc 68 c5 e3 bc 41 e3 d3 ba 68 dd c1 bc
       -0.02701857 -0.027804092 -0.0016165749 -0.023665145
0002a0 7c fe c9 3c 2e 77 23 3d f0 34 bf bc 30 bc 87 bc
       0.02465748 0.03990858 -0.023340672 -0.016569227
0002b0 2b b2 86 bd 25 8d 83 bd 9b 17 e0 bc 20 65 3a bc
       -0.065769516 -0.064234056 -0.027355006 -0.011376649
0002c0 40 9c 58 3b 66 d7 7d bd 54 46 cc 3c 6e 93 78 bd
       0.0033052117 -0.061972998 0.024935879 -0.060687475
0002d0 34 4d e3 3c bc 3e 27 bd 24 01 eb 3c e8 97 87 bc
       0.027746774 -0.040831313 0.028687067 -0.016551927
0002e0 f2 6c 51 3d 00 4c 31 bc 50 b8 c5 bb 70 90 7c 3d
       0.05112929 -0.0108213425 -0.0060339347 0.061661184
0002f0 ab cc 4d bd 22 27 57 bd 18 c8 14 3d dc 84 d4 3c
       -0.050244015 -0.052527554 0.036323637 0.025942259
000300 3c b8 bb 3c 14 2c 0d bd 54 6f db bc fc 74 10 3d
       0.022914998 -0.034465864 -0.026786484 0.035267815
000310 6c 33 58 3d 9a 99 6a bd 9a d3 0d bd 63 ee 96 bb
       0.052783415 -0.057275392 -0.034625627 -0.0046060546
000320 0d a0 b2 bc 70 0c 7c bd 42 1a 57 3d da 41 73 bd
       -0.021804834 -0.0615353 0.052515276 -0.059388973
000330 04 11 26 bd 48 ca 76 3d 2e 96 0c 3d 0a 6a 71 bc
       -0.04054357 0.060251504 0.03432291 -0.014734754
000340 88 84 cc bc 68 dc 01 3c 58 0f 82 bc d5 ae d1 3c
       -0.02496554 0.007926084 -0.015876457 0.025596062
000350 8a 28 53 3d 8e 5d 2a bd 64 a2 4f bd 0c 96 9a 3c
       0.051552333 -0.041593127 -0.050691977 0.018870376
000360 97 1b 61 bd af 80 3b 3d cd 50 29 3d 00 a3 a3 bc
       -0.054957952 0.04577702 0.041336823 -0.019975185
000370 1c 0e 2e 3d 2e de 5e bd fd e9 7e 3c e4 90 2f 3d
       0.042493924 -0.054411106 0.015558717 0.042862788
000380 61 c5 b2 3c d0 44 6e bd a0 8d 78 bb e4 3b de bc
       0.021822633 -0.058171093 -0.0037926212 -0.027128167
000390 2a 48 30 3d d7 a2 6b bc ea 1a 16 bd b0 a4 12 bc
       0.04303757 -0.014382086 -0.03664676 -0.008950397
0003a0 36 8b aa 3c 50 72 ff bc 50 f6 6b bd 5b 11 21 bd
       0.020818334 -0.031182438 -0.05760795 -0.039323192
0003b0 0c e5 3a bd 22 07 71 bd b0 14 fb 3c f8 f5 33 bc
       -0.045628592 -0.058844693 0.030649513 -0.0109839365
0003c0 78 cc e4 3c 34 2f b9 3c 22 b0 48 3c a3 9d f7 bb
       0.02792953 0.022605516 0.012249025 -0.0075566336
0003d0 0c 34 a6 3c 9e bc 56 bd 35 c7 51 3d 00 a8 82 bb
       0.02028849 -0.052425973 0.05121537 -0.0039873123
0003e0 f4 2d 6f 3d 68 c0 13 3c de 7a 49 3d 48 70 2f 3d
       0.058393434 0.009018041 0.04918944 0.04283169
0003f0 c0 2a 51 3d f8 11 1e 3d 0e 0f 7d bd 4c 10 8c bd
       0.05106616 0.038591355 -0.061781935 -0.06839046

fc3.bias f4 [128]
000000 e5 89 08 3d 79 ce 6f bd 9c 0e 99 3c 91 29 ff 39
       0.03333463 -0.058546517 0.018683724 0.0004866836
000010 c4 56 d7 bc ae 14 0d 3d 86 d5 28 3d c3 ca 95 bd
       -0.02628649 0.03444355 0.041219257 -0.07314064
000020 2c c5 3a 3c 67 c2 d9 bc 8e 29 ec 3c f0 a7 9f 3c
       0.0113995485 -0.026581956 0.028828409 0.019489259
000030 25 be 84 bd 9b 09 33 3d 05 b2 a5 bd d0 d4 0a 3d
       -0.0648158 0.043710332 -0.08090595 0.03389436
000040 78 39 8b bd e1 78 c7 3d 87 d4 41 3d b9 ed 6e bd
       -0.06798071 0.09739853 0.047321822 -0.05833218
000050 0b e0 38 3d ee 5e 35 3d 53 63 12 bd 4b 43 23 bd
       0.04513554 0.044279985 -0.035739254 -0.039859097
000060 69 57 95 3d cb b2 1e 3d 18 ed 51 bc 50 a6 9e bd
       0.07292063 0.03874473 -0.012812875 -0.07746565
000070 0b e7 41 bd 27 c2 9f bc 68 45 15 bb 5c a0 91 bc
       -0.04733948 -0.019501759 -0.0022776965 -0.01777666
000080 8a 1c 24 bd 1e 83 39 bb ce 70 80 3b 44 66 0c 3d
       -0.04006628 -0.0028306912 0.0039196974 0.034277216
000090 a5 31 f5 3c 17 a4 f3 3c ce df 1a bd 57 84 b5 bc
       0.029930899 0.02974133 -0.037811093 -0.022157831
0000a0 92 2a 54 bd c7 ec 6f bd ee db 00 3d ee 5e 11 bd
       -0.05179841 -0.058575418 0.03145974 -0.035490923
0000b0 9d 27 22 bd bb 5f 9e bd ed 1f 0a 3b 53 c1 5b 3b
       -0.03958856 -0.07733103 0.0021076158 0.0033531978
0000c0 08 1c f2 3c a0 1a 19 bb 47 35 e2 bc 73 ce 07 be
       0.029554382 -0.0023361817 -0.027613295 -0.13262348
0000d0 5b a0 92 bc 12 f6 e4 3d 8a 52 5a 3d 4f 23 85 3c
       -0.01789873 0.11179747 0.05330137 0.016252188
0000e0 aa c6 82 bd f3 86 a0 bb 2d 50 13 bd 03 f5 cb bd
       -0.063855484 -0.0048988997 -0.035965133 -0.09958842
0000f0 1a 6b 17 3d 37 7c 70 bd e2 59 50 3d 87 bf 39 bd
       0.036967374 -0.05871221 0.05086697 -0.04534867
000100 dc cf ab 3d a4 3f 61 bd 02 91 16 3d 22 e9 91 bd
       0.083892554 -0.054992333 0.036759384 -0.07124545
000110 07 50 5f bd 43 30 15 bd 93 a0 ee bc ec 8b 36 bd
       -0.05451968 -0.03642298 -0.029129302 -0.044567034
000120 a1 16 27 bd 88 0d b8 3d 2d 0f d6 3d 2c ec ed ba
       -0.040793065 0.08986956 0.10452113 -0.001815205
000130 05 d7 0d 3e 0d 14 81 bc 29 27 86 bd 3f c8 7e 3d
       0.13851555 -0.015756631 -0.06550438 0.06220269
000140 00 4d 8c 3c c9 59 22 bd 70 8f 90 bd b8 d5 c5 bc
       0.01712656 -0.039636407 -0.070586085 -0.02414976
000150 e3 2d 87 bc b7 63 4f 3c 71 0f 0a bd 3d 72 95 bd
       -0.016501373 0.012658051 -0.033706132 -0.0729718
000160 14 db 37 3d 0e dc 9f bc 3d 51 cd bd b2 2d 1c bd
       0.044886664 -0.01951411 -0.100252606 -0.038129516
000170 d9 19 bb 3c c7 97 53 bd 8e a8 40 3d e3 77 77 3d
       0.022839474 -0.051658418 0.047035746 0.060417067
000180 5c c4 29 bc 22 fd 90 bc da 75 3d bd 8f 2a 7e 3b
       -0.010361757 -0.017698828 -0.04625497 0.003878269
000190 b6 fb 75 bd 9e f9 95 bd 16 ef 82 bc f3 80 da 3d
       -0.060054503 -0.07323001 -0.015983146 0.10669126
0001a0 73 fe 86 bd d1 f6 2d bd 75 5f 64 3d e6 92 12 3d
       -0.06591501 -0.04247171 0.055755097 0.035784625
0001b0 89 89 09 3c a3 03 00 3e 39 63 19 bc ab 2c 10 bd
       0.008394607 0.12501387 -0.009362035 -0.03519885
0001c0 20 be cf bd fc 4a 74 3b a6 09 77 bd 5c 96 83 bd
       -0.10143685 0.003727614 -0.060311936 -0.06425163
0001d0 b1 8b 90 bd 42 ba 9c 3d e0 80 88 3c 7f 49 07 3b
       -0.07057894 0.07652713 0.016663015 0.0020643172
0001e0 d9 d1 32 bd 13 cc 2d 3d 7a 70 14 3e 1d 66 66 3b
       -0.043657158 0.04243095 0.14496031 0.003515608
0001f0 54 5e 3b bd 63 f0 03 3d 78 fa 47 bd be 5d 71 3d
       -0.045744255 0.032211673 -0.04882285 0.05892729

out.weight f4 [7, 128]
000000 e1 77 31 3d 45 27 50 3d 3c 96 9c bd 5c 41 c2 bc
       0.043327216 0.0508187 -0.076458424 -0.023712806
000010 c8 6c ce 3c 30 4a 83 bb 6e 62 2b 3f cf af 89 be
       0.025198355 -0.0040066466 0.66947067 -0.26891944
000020 08 82 bf 3c 5a 2a cb 3e 60 3e 6e 3d 7a 81 85 bd
       0.023377433 0.3968075 0.058164954 -0.06518836
000030 12 5b 76 be be 61 77 be ef 11 18 bc b0 21 8f bd
       -0.24058178 -0.2415838 -0.009281619 -0.06988847
000040 cf 7f e4 be e6 9b 87 3d f1 65 2a 3e 4c 3e c6 bd
       -0.4462876 0.06621532 0.1664045 -0.09679851
000050 c4 1c ac 3c 2c bd ba 3d 04 34 da 3c 23 76 92 3b
       0.02100981 0.09118113 0.026636131 0.0044696494
000060 12 27 b5 3e bf ec e7 3d 94 c4 82 be 4f e5 18 3c
       0.3538137 0.113244526 -0.25540602 0.009332015
000070 04 ca b5 bd 5e 05 20 3e e5 eb 28 be f9 00 5e 3f
       -0.08876422 0.15627047 -0.16496237 0.86720234
000080 18 a6 05 bc 9b dd af bc 64 ed 33 3d 74 82 a1 bb
       -0.008157276 -0.021467974 0.043927565 -0.0049288813
000090 b5 d9 83 3e d2 ca 24 3d 17 4b 35 bd 17 7e ee bc
       0.25752035 0.040232487 -0.044261064 -0.029112859
0000a0 eb 92 ba bc e3 d3 92 39 02 df d2 3d 21 ac f5 3c
       -0.022775134 0.00028005158 0.102964416 0.029989304
0000b0 d7 4d 41 3d 17 dc 68 be b7 3f d4 3d ab 1e 70 3d
       0.047193374 -0.22740208 0.10363715 0.058622997
0000c0 01 28 06 bd ea bb 22 bd 65 7a 57 bb 3c 80 ef bc
       -0.032752994 -0.03972999 -0.003287935 -0.029235952
0000d0 d0 f3 be bb 93 15 a1 3d ab 5f 83 3d 73 79 79 ba
       -0.0058274046 0.07865443 0.064147316 -0.00095166935
0000e0 f7 66 13 bd f3 11 03 3c 73 8a 81 3d ca 8e 5a 3e
       -0.035986867 0.007999885 0.06325235 0.21343532
0000f0 25 1b b1 3d d8 5f 11 3e 68 7a 2a bc 77 c1 67 bd
       0.086477555 0.14196718 -0.0104051605 -0.056580987
000100 70 56 00 3f de da 29 3a 80 d9 19 3c 81 e8 8a bd
       0.50131893 0.0006479452 0.009390235 -0.06782628
000110 e9 30 c3 bc 9f a1 23 bc 43 96 54 3d 3c 06 68 be
       -0.023827033 -0.009987264 0.051901113 -0.22658628
000120 ac fb 5c bd 2e 85 0e 3f 95 3d ef 3d ae 84 1e bf
       -0.05395095 0.55671966 0.11681668 -0.61921203
000130 f2 75 7d 3d 20 43 dd bc 1f 8c 8b bd 90 37 a3 3d
       0.06188006 -0.027009547 -0.06813835 0.07969582
000140 27 a4 49 3d b7 9f 9a be 65 46 03 3f f1 b5 64 bd
       0.049228813 -0.30199978 0.5127929 -0.055837575
000150 b4 2b f6 bd 79 3d 90 3d b2 7f 9e be dd 8c ed be
       -0.120200545 0.07042975 -0.309568 -0.46396533
000160 60 6c b1 3c 33 23 05 be 65 18 b8 bc 72 d7 7d 3d
       0.021658123 -0.13001709 -0.02247257 0.061973043
000170 35 28 b0 3b ee e9 3d 3d 41 a3 54 bd c4 15 03 3e
       0.005375887 0.04636567 -0.051913504 0.12801272
000180 9d 5d c8 bc ed 98 46 be 1e 56 c0 3b 10 5f 67 bc
       -0.0244587 -0.19394274 0.005869641 -0.014121786
000190 83 bc 84 bd f7 fc 76 be 43 cd 13 bf 8d 9e 02 3e
       -0.06481268 -0.24119936 -0.5773508 0.12755795
0001a0 84 87 51 bd d6 19 90 3d cc 49 cc 3d 82 ca de be
       -0.05115463 0.07036178 0.09975013 -0.43513876
0001b0 93 c3 aa 3d 20 95 7e 3e e1 a8 2f 3d 71 ee 20 3e
       0.08338084 0.24861574 0.042885665 0.15715958
0001c0 c8 9d 0d be 7b 64 fe 3b dc 66 51 bd 87 a9 94 bc
       -0.1382972 0.007763443 -0.051123485 -0.018147243
0001d0 11 df 29 bc 59 ca 01 3e be 92 55 bd 90 11 bf 3d
       -0.010368125 0.12674846 -0.052141897 0.09329522
0001e0 6b e7 4c be 76 b6 ab 3d c9 5d bd 3e f5 ea f8 3e
       -0.20010154 0.08384411 0.36985615 0.48616758
0001f0 93 ea 86 be 9a 49 c5 3d 63 58 51 bc 00 0a 7c ba
       -0.2635084 0.09633179 -0.012777421 -0.0009614527
000200 e4 59 96 3d c1 60 97 bc 2f 39 90 bd 52 46 43 3d
       0.07341364 -0.018478753 -0.07042157 0.047674485
000210 0b df b3 3d da 9f 65 bd 90 37 13 3f f0 82 39 be
       0.087827764 -0.05606065 0.57506657 -0.18116355
000220 27 fa 90 3d 0e 1f f2 3e a8 b6 a3 3d 57 59 54 bd
       0.07078963 0.47289318 0.07993823 -0.051843014
000230 98 48 e8 be 5b 8d a8 be 6b 70 c7 3c b4 f0 97 bc
       -0.45367885 -0.32920346 0.024345597 -0.018547393
000240 3b 6e 9a be af 39 e5 3d 3d 2e 03 3e c0 42 f0 3c
       -0.30162224 0.11192643 0.12810607 0.029328704
000250 98 d9 2a 3c 91 ae 26 3e 83 14 d1 3a db c1 d7 3c
       0.010427855 0.1627753 0.0015951548 0.026337555
000260 47 e7 68 3e 78 ea 0c 3d 7e 05 98 be 78 ed 5b bd
       0.22744475 0.034403294 -0.2969169 -0.053693265
000270 10 f7 d2 bd 8a 77 0b 3e e4 00 c7 bd 43 49 45 3f
       -0.1030103 0.1361982 -0.09716967 0.77064914
000280 35 00 d5 bc de a0 f1 bc 7d c2 d7 bc 2d 3f 87 bd
       -0.026001075 -0.029495653 -0.026337856 -0.06603847
000290 3f b3 97 3e 92 af 2d 3d 78 6e 46 bd 2e fe 90 3c
       0.2962894 0.042403765 -0.048445195 0.017699327
0002a0 17 4d e5 bc b7 ae 1e bd bb 3c f8 3d 28 49 c7 3d
       -0.02799086 -0.03874084 0.121209584 0.0973075
0002b0 64 35 69 bd 6b fd 22 be 05 bf b8 3d 35 2c 5d 3d
       -0.056935683 -0.15916984 0.09020809 0.053997237
0002c0 3b 22 9e bd f5 92 a3 3d 9c e1 1b bd a8 9f 24 3d
       -0.07721373 0.07987014 -0.038056955 0.040191323
0002d0 66 b5 88 bd 5c 47 03 3e 80 59 8c bb 3e 18 22 bd
       -0.06675224 0.1282019 -0.00428313 -0.0395739
0002e0 cc 61 56 3d c8 a4 0a bd 3f 4f c7 bb f3 c7 83 3e
       0.05233936 -0.033848554 -0.006082445 0.25738487
0002f0 04 83 6f 3d 9e 06 98 3c d6 2c 5e 3d f1 d8 64 bd
       0.058474556 0.018557843 0.054241978 -0.055870954
000300 48 21 aa 3e 03 28 80 bb 3c dc 89 bd ec 6b 1d 3d
       0.33228517 -0.00391102 -0.067314595 0.038433
000310 19 fa 22 bc fd 36 39 bc 84 55 48 3d 86 94 50 be
       -0.009947323 -0.011304614 0.04890968 -0.20369157
000320 94 74 17 bd 98 e0 09 3f 69 91 8d 3d 0b ae e1 be
       -0.036976412 0.5385833 0.069125004 -0.44078097
000330 30 60 b4 3d 89 71 1c bd ba fd 30 3c bd 7e 87 bb
       0.08807409 -0.038194213 0.010802681 -0.0041349814
000340 bf 07 15 bd 9e ba d0 be b0 28 b7 3e 34 9c b0 bd
       -0.03638434 -0.40767378 0.3577323 -0.086235434
000350 78 3f 4d be de 8e aa 3d 7a dc a5 be 09 9d dd be
       -0.20043743 0.08328031 -0.32394773 -0.4328387
000360 55 eb 88 39 8b 9d f3 bd ee 0a be bc 53 cf 0b bc
       0.00026115277 -0.11895283 -0.023198571 -0.008533317
000370 76 a0 a4 bd ff 8a 93 3b 33 bc 98 3d 91 2b df 3d
       -0.08038418 0.0045026536 0.07457771 0.108969815
000380 fa 01 88 bd 56 ab 3b bd bf 15 51 3b b1 9f 2e 3d
       -0.06641002 -0.045817696 0.003190383 0.042632762
000390 96 0f 1e bd 15 29 3f be 8c d0 21 bf 81 72 85 3d
       -0.038589083 -0.18668015 -0.6320884 0.065159805
0003a0 3d c6 02 3d f5 e3 8a bd ad c1 6a 3d c8 40 f2 be
       0.031927336 -0.067817606 0.05731361 -0.4731505
0003b0 4f 6a 09 3e a5 65 89 3e 4f 57 33 3d fd 7c a3 3d
       0.1341946 0.2683536 0.043784436 0.07982824
0003c0 63 e1 4d be aa d3 57 bd eb 84 8e 3d c6 0f 4c 3d
       -0.2010551 -0.052692093 0.06958946 0.04981973
0003d0 a0 8a 34 3c 3f 46 0b 3e b6 65 23 ba f0 7e c4 3d
       0.011019379 0.13601016 -0.00062331127 0.09594524
0003e0 35 a2 ac be 7b 2d 81 3e 90 ad de 3e 06 3e 0e 3f
       -0.33717504 0.2523001 0.43491793 0.5556339
0003f0 71 aa 91 be e1 5a e5 3d 13 00 26 39 d8 08 da 3c
       -0.2845035 0.111989744 0.00015831021 0.026615545

out.bias f4 [7]
000000 8a fa 62 3b ca c4 fb 3b 60 f0 6b 3d 8c 8b 87 bc
       0.0034634196 0.007683371 0.057602286 -0.016546033
000010 e4 67 46 3e 4f 68 01 3e ad 50 50 3e
       0.19375569 0.12637447 0.20343275
