trained_models/dqn_shooter_50.pt (torch, 684180 bytes, 8 tensors)

fc1.weight f4 [512, 9]
0	0x3e1d90a9	0.15387215
1	0xbe1044eb	-0.1408879
2	0x3ce25bbf	0.027631639
3	0x3dd44f4c	0.10366687
4	0xbe44f3c1	-0.1923361
5	0x3f99ee41	1.2025834
6	0x3f5ae227	0.8550133
7	0xbdd86736	-0.10566561
8	0xbe61ed26	-0.22063121
9	0xbcfa9676	-0.030589323
10	0xbeacbda7	-0.33738443
11	0xbe426dda	-0.18987218
12	0x3e856491	0.2605329
13	0xbea36ad7	-0.3191745
14	0xbf4d7185	-0.8025134
15	0xbf3a5165	-0.7278045
16	0xbd76e6d6	-0.060278736
17	0x3d1c728b	0.038195174
18	0x3e732858	0.23745859
19	0x3e9b7f45	0.30370536
20	0xbda1cc84	-0.079003364
21	0x3e939194	0.28822005
22	0xbe8b6a78	-0.27229667
23	0xbf24205c	-0.64111876
24	0xbf06f066	-0.5271057
25	0xbe802233	-0.25026092
26	0x3d9412a3	0.07230117
27	0x3df2c9db	0.11854907
28	0xbd2aa80b	-0.041664165
29	0x3d343020	0.043991208
30	0xbe2b1623	-0.16707663
31	0x3e832d63	0.25620565
32	0xbe85a5de	-0.2610311
33	0xbdbe7a16	-0.0930063
34	0x3c867316	0.0164123
35	0xbe99bcdf	-0.3002691
36	0xbeeac317	-0.45851967
37	0xbe7c7211	-0.24652888
38	0xbe30b744	-0.1725741
39	0x3d926a45	0.071491756
40	0x3e02db45	0.12778957
41	0xbf4217b5	-0.75817424
42	0xbf14993b	-0.5804631
43	0xbe84b256	-0.2591731
44	0x3c1585b3	0.009126115
45	0xbee8c7d8	-0.4546497
46	0x3e33c782	0.17556575
47	0x3da06873	0.07832422
48	0x3e865123	0.26233777
49	0x3e9097bc	0.28240764
50	0x3f6c965b	0.92416924
51	0x3f0e72f7	0.5564417
52	0x3e3cdb16	0.1844295
53	0xbdd09426	-0.10184507
54	0x3ea8878b	0.3291591
55	0x3e7a3fc1	0.24438383
56	0x3e7897f4	0.24276716
57	0x3cb9a2c4	0.02266062
58	0xbe6c6282	-0.23084453
59	0xbefecfe5	-0.49767986
60	0xbf48915d	-0.78346807
61	0x3e974068	0.29541326
62	0xbe17e786	-0.14834413
63	0x3ea59b00	0.32344818
64	0xbe744c03	-0.23857121
65	0xbee5e8a6	-0.4490406
66	0x3d9d4635	0.076794066
67	0xbe24fa4b	-0.16111104
68	0xbf66f6d1	-0.9022036
69	0xbf22987f	-0.6351394
70	0xbdd7979b	-0.10526963
71	0xbe93063d	-0.28715697
72	0x3e829c86	0.25510043
73	0xbd9532d1	-0.07285083
74	0xbd473b62	-0.048640616
75	0x3db0664a	0.0861326
76	0xbe827ba1	-0.25484946
77	0xbf5a18ad	-0.851939
78	0xbf26e4a0	-0.65192604
79	0xbc6b03d6	-0.014344176
80	0xbe74cc24	-0.23905998
81	0x3d932cb0	0.07186258
82	0x3d2e7f40	0.042601824
83	0xbd9b2e36	-0.075771734
84	0xbd8211d6	-0.06351058
85	0x3bbd17ab	0.0057706437
86	0x3d8e6f6b	0.06954845
87	0x3e41a6d3	0.18911295
88	0xbe915c53	-0.2839075
89	0x3e89907b	0.26868042
90	0xbde486db	-0.11158534
91	0xbcb16deb	-0.021658858
92	0xbe10f550	-0.1415608
93	0xbe9772b3	-0.29579696
94	0x3df0bcbb	0.117547475
95	0x3cb218eb	0.021740397
96	0x3e039e9e	0.12853476
97	0xbe31e1e8	-0.17371333
98	0xbe31c788	-0.17361271
99	0x3edd2fe6	0.43200606
100	0x3eb455ca	0.35221702
101	0x3cc01257	0.023446245
102	0x3e071525	0.1319166
103	0x3e42dc0f	0.19029258
104	0x3f551131	0.83229357
105	0x3f497985	0.7870105
106	0x3e8f354c	0.2797035
107	0xbe00faa1	-0.12595607
108	0x3e897092	0.26843697
109	0xbe98a9b2	-0.29816967
110	0x3e6653a6	0.22492847
111	0xbe7c68ab	-0.24649303
112	0x3e967ac6	0.29390544
113	0x3e98ba8c	0.29829824
114	0x3d95222b	0.07281908
115	0x3e4c90e6	0.1997715
116	0x3ea0be6e	0.31395286
117	0xbe714cfe	-0.23564526
118	0xbe1293db	-0.14314215
119	0xbd7150f6	-0.0589151
120	0xbe8c68b8	-0.27423644
121	0xbde02b56	-0.10945766
122	0x3e0bcecb	0.13653104
123	0xbc962180	-0.01832652
124	0xbe97783b	-0.29583916
125	0x3ea39482	0.3194924
126	0x3e4d7b4b	0.20066564
127	0xbd00bb60	-0.031428695
128	0x3e5561f6	0.2083815
129	0xbea446ff	-0.32085416
130	0xbdc3e936	-0.09565966
131	0xbd2db3c0	-0.04240775
132	0x3dc927f0	0.098220706
133	0xbb2b1556	-0.0026105247
134	0xbd51e480	-0.051243305
135	0xbec75f2a	-0.38939792
136	0x3e63566e	0.22200939
137	0x3d900184	0.07031539
138	0x3e4976c2	0.19674209
139	0xbd879195	-0.066195644
140	0x3f47df42	0.7807504
141	0x3ed3f475	0.41397443
142	0xbe4b7490	-0.19868684
143	0x3da6e9c6	0.081500575
144	0xbe30795e	-0.17233798
145	0x3e4faf73	0.20281772
146	0x3e588550	0.21144605
147	0xbe5c9f68	-0.21545184
148	0xbd91b4d6	-0.0711457
149	0xbe8ee87f	-0.27911755
150	0x3de1bc76	0.11022274
151	0x3e1cc378	0.1530894
152	0x3b9d2456	0.0047955913
153	0xbdd829a0	-0.10554814
154	0x3ea182b8	0.31545043
155	0x3cfc84eb	0.030825099
156	0xbe4f2513	-0.20228986
157	0xbdc490eb	-0.095979534
158	0xbe0a5d28	-0.13512099
159	0xbea75ec4	-0.32689488
160	0xbbaa6556	-0.0052000685
161	0x3df6d186	0.12051682
162	0x3d322356	0.04349073
163	0xbe4bb353	-0.19892626
164	0x3cc3eed6	0.023917597
165	0xbe4ce4ce	-0.20009157
166	0x3e7deb2e	0.24796745
167	0xbdf43a7b	-0.11925217
168	0x3e37db56	0.17954764
169	0xbdfc7626	-0.123272225
170	0xbe6cb273	-0.23114948
171	0x3ee5a882	0.44855124
172	0x3e9e4df1	0.3091884
173	0xbea7d4f3	-0.32779655
174	0x3d70204b	0.058624547
175	0x3c852d80	0.016257048
176	0xbf7d65a3	-0.9898321
177	0xbf876f6a	-1.0580876
178	0x3e264998	0.16239011
179	0xbd12e947	-0.035867
180	0x3d5f5720	0.05452645
181	0x3e7439de	0.238502
182	0x3df3e506	0.11908917
183	0xbe51b146	-0.2047778
184	0xbbef3dab	-0.0073010526
185	0xbdd72a06	-0.10506062
186	0x3e81a98a	0.2532466
187	0x3e1880b0	0.1489284
188	0xbe230620	-0.15920305
189	0xbefa574f	-0.48894736
190	0xbe925fe6	-0.2858879
191	0x3e8d63eb	0.27615294
192	0x3e874434	0.26419222
193	0xbeac544e	-0.3365807
194	0x3f683463	0.90704936
195	0x3f4acfac	0.7922313
196	0x3d529b6b	0.05141775
197	0x3e4acde5	0.19805105
198	0x3e22962b	0.15877597
199	0xbe878f4c	-0.26476514
200	0xbe2faecb	-0.17156522
201	0xbe0cdd46	-0.13756284
202	0xbe085f48	-0.13317597
203	0xbe8e9d5c	-0.2785443
204	0x3e254ee0	0.1614337
205	0x3e4dab80	0.20084953
206	0x3d94be50	0.07262862
207	0xbf1c649e	-0.6109103
208	0x3ea574d0	0.32315683
209	0xbe9f46bb	-0.3110865
210	0x3ce4c39e	0.027925309
211	0x3e3114d8	0.17293108
212	0x3ec6fdba	0.38865453
213	0x3f3721a7	0.71535724
214	0x3e27a21b	0.16370432
215	0x3cc90fb0	0.024543613
216	0xbe990c6b	-0.29892287
217	0x3d9081fe	0.07056044
218	0x3db1c797	0.08680647
219	0x3e194fab	0.14971797
220	0x3e2bd1a2	0.16779187
221	0x3f33bd65	0.7021087
222	0x3ef38bac	0.475675
223	0xbe81e292	-0.25368172
224	0x3dc52e10	0.09627926
225	0x3ec154cc	0.37760007
226	0xbe484a14	-0.19559509
227	0x3d83a1ea	0.06427367
228	0x3d7a259d	0.061071027
229	0xbd909c5d	-0.07061074
230	0xbf062482	-0.52399457
231	0xbf5ec208	-0.8701482
232	0x3e362bb8	0.17790115
233	0x3e82d5e6	0.25553817
234	0xbe52c6a0	-0.20583582
235	0xbd649500	-0.05580616
236	0xbc9e8d40	-0.019354463
237	0xbda3ac80	-0.07991886
238	0xbea0e3e0	-0.31423855
239	0x3e35795e	0.17722079
240	0xbea03654	-0.3129145
241	0xbe9d2f8f	-0.30700347
242	0x3e17b8a0	0.14816523
243	0xbdfe35aa	-0.12412579
244	0x3d3b4596	0.04572066
245	0x3e9985a2	0.29984766
246	0x3e75676c	0.23965234
247	0x3d69fe7a	0.057127453
248	0xbe22ba2b	-0.1589133
249	0x3e434c08	0.19071972
250	0x3df42516	0.11921136
251	0x3e594738	0.21218574
252	0x3da0f5fd	0.078594185
253	0xbd2f92b1	-0.042864505
254	0xbd141809	-0.036155734
255	0x3da27956	0.07933299

fc1.bias f4 [512]
0	0xbea2300a	-0.31677276
1	0xbe1d2bce	-0.15348741
2	0x3d6df7ae	0.058097534
3	0xbe7b7e70	-0.24559951
4	0xbe8d0d92	-0.27549416
5	0xbe99c765	-0.30034938
6	0xbe808060	-0.25097942
7	0xbe0ca3ad	-0.13734312
8	0x3e0ee89d	0.13955922
9	0xbd25c7d6	-0.04047378
10	0x3e81300c	0.2523197
11	0xbe8eb230	-0.2787032
12	0x3d90e99b	0.07075807
13	0x3dda2c16	0.1065294
14	0xbe22afeb	-0.1588742
15	0xbc3ca264	-0.011513326
16	0x3e35b1ce	0.17743608
17	0xbe743f26	-0.23852214
18	0xbe8c1c0f	-0.27365157
19	0xbe2d378f	-0.16915725
20	0x3e7d8bf8	0.24760425
21	0xbe2e773b	-0.1703767
22	0x3e4050c6	0.18780813
23	0x3d36e9aa	0.044656433
24	0xbdc99598	-0.09842986
25	0x3e33e761	0.17568733
26	0x3e31546e	0.17317364
27	0xbddde823	-0.10835292
28	0xbe70ad5b	-0.2350363
29	0x3e66ecd3	0.22551279
30	0x3c479600	0.012181759
31	0x3e892e62	0.267932
32	0x3eaa0f8b	0.33214983
33	0x3e880038	0.26562667
34	0x3deb388a	0.11485393
35	0xbdb6934b	-0.08914813
36	0x3e75fab6	0.2402142
37	0xbdf570fb	-0.1198444
38	0x3e608a8b	0.2192785
39	0xbdb89a40	-0.09013796
40	0x3dc00f85	0.0937796
41	0x3e317be3	0.17332415
42	0xbe063e85	-0.13109787
43	0xbe02abce	-0.12760851
44	0xbdaf9e34	-0.08575097
45	0x3e593650	0.21212125
46	0x3e5be198	0.21472776
47	0xbe8457e0	-0.25848293
48	0xbe37097f	-0.17874716
49	0x3e25ef56	0.1620458
50	0xbd42ca36	-0.047556125
51	0x3e801f15	0.25023714
52	0x3e9f9a0c	0.31172216
53	0x3e15a90b	0.14615266
54	0x3e17f67e	0.14840123
55	0xbe9d0cdb	-0.3067387
56	0xbe2d8970	-0.1694696
57	0x3e625d55	0.22105916
58	0x3e48ae03	0.1959763
59	0x3ddb6ed0	0.10714495
60	0x3d94bdc0	0.072627544
61	0x3cee950b	0.029123804
62	0xbcea42ee	-0.028596368
63	0xbe904f16	-0.28185338
64	0xbe832a18	-0.25618052
65	0xbcdde116	-0.027084868
66	0x3dcdf830	0.10057104
67	0x3e0fe120	0.14050722
68	0x3d057aa2	0.032587655
69	0x3e872eab	0.26402792
70	0xbd4c913e	-0.0499432
71	0xbd94c536	-0.072641775
72	0x3e53008f	0.20605682
73	0x3e04e42a	0.12977663
74	0x3e895c6b	0.26828322
75	0xbe92a866	-0.28644103
76	0xbdefef8b	-0.11715611
77	0x3eaef9b6	0.3417489
78	0xbe8c5555	-0.27408853
79	0x3e2799d6	0.16367278
80	0x3d38adc0	0.045087576
81	0x3e13ae86	0.14422044
82	0xbcd24296	-0.025666516
83	0x3e9f5848	0.3112204
84	0x3dda0226	0.10644941
85	0xbe86deac	-0.2634176
86	0xbe9ce440	-0.3064289
87	0xbe16fbd8	-0.14744508
88	0xbe20076b	-0.1562783
89	0x3e8f3ab2	0.27974468
90	0xbdcc3582	-0.09971143
91	0x3e51b3c3	0.2047873
92	0x3ce47416	0.027887385
93	0xbe454e43	-0.19268136
94	0x3cc549ac	0.024082981
95	0x3e0cf90e	0.13766882
96	0xbe9e7ebc	-0.30956066
97	0x3e9b67f7	0.30352756
98	0xbe8687fe	-0.2627563
99	0xbe3d8afb	-0.18510048
100	0x3eaa1eef	0.33226725
101	0x3d2e0db5	0.04249354
102	0xbd3ec36b	-0.046573084
103	0x3e9ce8ec	0.30646455
104	0x3d3435e2	0.0439967
105	0x3d03b4c0	0.0321548
106	0xbe1e1970	-0.15439391
107	0xbd8a4be0	-0.06752753
108	0x3e3fab63	0.18717723
109	0xbe4b591b	-0.1985821
110	0xbeb11236	-0.34584206
111	0x3e5386d0	0.20656896
112	0x3d04b9a4	0.032403603
113	0x3dcc6730	0.09980619
114	0x3ded3059	0.11581487
115	0x3b89c84a	0.0042047845
116	0xbe7de92e	-0.24795982
117	0x3ca338cc	0.019924544
118	0xbe3ff8eb	-0.18747298
119	0xbe0f1f4e	-0.13976786
120	0x3ced5adb	0.028973987
121	0xbd47c94b	-0.048775952
122	0x3cb4cd78	0.022070631
123	0xbd107739	-0.03526995
124	0x3e3af326	0.18256816
125	0x3e1489b8	0.1450566
126	0x3e59f5ee	0.21285221
127	0xbe93c19e	-0.28858656
128	0xbe2272f0	-0.15864158
129	0x3e972262	0.2951842
130	0x3e3fed78	0.18742931
131	0x3ea07ede	0.31346792
132	0x3dc9be3f	0.0985074
133	0x3e717f88	0.23583806
134	0x3e35addf	0.17742108
135	0xbcb62516	-0.02223448
136	0xbe1f543b	-0.15559475
137	0x3def4920	0.11683869
138	0x3e7b7bc9	0.24558939
139	0xbdda3a16	-0.1065561
140	0x3e29beb0	0.16576648
141	0x3d3b14b9	0.04567406
142	0x3e6c7f50	0.23095441
143	0x3d80da67	0.06291657
144	0x3e19f276	0.15033898
145	0xbdecea86	-0.11568169
146	0xbe61989e	-0.22030875
147	0x3e32af08	0.17449582
148	0x3e1b34ac	0.15156811
149	0xbdbe084b	-0.092789255
150	0xbddb1ebe	-0.10699223
151	0xbdf41046	-0.119171664
152	0xbe8e7631	-0.27824548
153	0x3b5a1800	0.0033278465
154	0xbe9f247b	-0.3108252
155	0xbe6ba846	-0.2301341
156	0x3e848233	0.25880584
157	0x3e8137ff	0.25238034
158	0xbeb667e5	-0.3562614
159	0x3c9f999e	0.01948243
160	0x3d04c6c3	0.032416116
161	0x3d998af6	0.07497208
162	0xbe91c6bd	-0.28471938
163	0x3e8f6a64	0.28010857
164	0xbe578403	-0.21046452
165	0x3ea028f6	0.3128125
166	0xbe7a9b7e	-0.24473378
167	0xbd17658f	-0.03696209
168	0x3e7ce504	0.24696738
169	0xbe76b55b	-0.24092619
170	0xbe727f4b	-0.23681371
171	0xbe95c9d7	-0.29255554
172	0xbe8fd1b0	-0.28089666
173	0xbebcbdaa	-0.36863452
174	0x3dc6b91b	0.09703275
175	0x3e96f58d	0.29484215
176	0x3e62595d	0.22104402
177	0xbd9e18e5	-0.07719592
178	0x3e2552bb	0.1614484
179	0x3df24346	0.11829238
180	0xbde99473	-0.114052676
181	0xbe515fbb	-0.20446675
182	0x3e951a23	0.29121503
183	0xbe52c80e	-0.20584127
184	0xbe391a90	-0.18076539
185	0xbdb164d6	-0.08661811
186	0x3e60584b	0.21908681
187	0xbe786a5b	-0.24259321
188	0xbcd06e6b	-0.025443276
189	0x3e371619	0.17879523
190	0x3d5bdaea	0.05367557
191	0x3e05fa11	0.13083674
192	0x3e05f06f	0.1308
193	0x3b6f8800	0.0036549568
194	0x3e4d2611	0.20034052
195	0xbc21c254	-0.009872992
196	0xbd93c8eb	-0.072160564
197	0x3e928dc3	0.2862378
198	0x3d7f76eb	0.06236927
199	0xbe81d29e	-0.25356
200	0xbe7fb57b	-0.24971573
201	0x3e91be27	0.28465387
202	0x3e89111c	0.26770866
203	0x3e7029e0	0.23453474
204	0x3d1d0ec0	0.038344145
205	0xbe98ae63	-0.29820547
206	0xbda0dc5f	-0.078545325
207	0xbe124648	-0.14284623
208	0xbdf2c3e6	-0.11853771
209	0xbc0bc7b7	-0.008531502
210	0x3c3bb12b	0.011455814
211	0x3e37930b	0.17927186
212	0xbe3d4d6c	-0.18486565
213	0x3e63d083	0.2224751
214	0xbb56f800	-0.0032801628
215	0xbd4b5f10	-0.049651206
216	0x3e90cd9e	0.28281873
217	0xbcc1cc21	-0.023656907
218	0xbe179891	-0.14804293
219	0xbe9e1cdc	-0.30881393
220	0xbeab25c3	-0.33427247
221	0x3da6e8ab	0.08149847
222	0x3e0130e4	0.12616307
223	0x3e36b3ab	0.17841975
224	0xbbd1d991	-0.0064041098
225	0xbda2c0db	-0.079469405
226	0xbe135b58	-0.14390314
227	0xbe52d826	-0.20590267
228	0xbe34dd40	-0.17662525
229	0xbde5a7e7	-0.112136655
230	0x3e2af353	0.16694383
231	0x3e47d338	0.19514167
232	0x3ea5481b	0.32281575
233	0x3ddfdc75	0.10930721
234	0x3e7148f1	0.23562981
235	0x3e8d8d50	0.27646875
236	0xbc6d43ab	-0.014481465
237	0xbe0def4d	-0.13860817
238	0xbe8b895b	-0.2725323
239	0xbcc48500	-0.0239892
240	0x3e04dd95	0.12975152
241	0xbe98ad20	-0.29819584
242	0xbd44a632	-0.04801006
243	0xbd2688ed	-0.040657926
244	0x3e143e93	0.14476995
245	0xbe2f8d00	-0.17143631
246	0x3dac35b9	0.08408684
247	0xbe87dbfe	-0.26535028
248	0x3db9ba20	0.09068704
249	0x3ea41e8f	0.32054564
250	0xbd33cf7d	-0.043899048
251	0x3e96c623	0.2944804
252	0x3cae19a9	0.02125247
253	0x3e809b62	0.25118548
254	0x3d52e0e0	0.05148399
255	0xbc3338d6	-0.010938844

fc2.weight f4 [256, 512]
0	0xbcef3d50	-0.02920404
1	0xbc8c0429	-0.017091827
2	0x3cb21b32	0.021741483
3	0xbd33f8f5	-0.043938596
4	0xbc1f25f8	-0.009713642
5	0x3b8470b5	0.004041756
6	0x3d01930b	0.03163437
7	0x3cd3cb17	0.025853677
8	0x3cd43210	0.025902778
9	0x3b993d00	0.004676461
10	0x3d25d8f5	0.04049011
11	0x3b8329d9	0.0040027914
12	0x3c99fb3c	0.018796556
13	0xbd31979d	-0.04335748
14	0xbd301fa8	-0.04299894
15	0xbcf5f228	-0.030022696
16	0xbc7af8e4	-0.015318129
17	0xbc771fa6	-0.015083229
18	0xbca0359e	-0.019556817
19	0xbcd201ea	-0.025635678
20	0x3c46aaf1	0.012125717
21	0xbcae69a6	-0.021290611
22	0x3ca7ab9d	0.020467574
23	0xbd04ae59	-0.032392833
24	0xbd34f099	-0.044174764
25	0xbd2aab43	-0.041667234
26	0xbb956439	-0.0045590666
27	0x3cd607fb	0.026126852
28	0x3cdbab5d	0.02681511
29	0xbc94d528	-0.018168047
30	0xbc3ee06a	-0.011650184
31	0x3a71d552	0.00092252076
32	0x3d28291d	0.041054834
33	0xbcd20ea4	-0.025641747
34	0xbc8687b4	-0.01642213
35	0x3c91fb1d	0.017819935
36	0x3d1057c7	0.03523996
37	0x3bcd63cc	0.006268
38	0x39149072	0.0001416819
39	0x3d2c43f2	0.042056985
40	0xbcad238a	-0.02113511
41	0x3c5f153c	0.0136159025
42	0xbcda1625	-0.026621887
43	0xbd25f731	-0.040518943
44	0xbbdf9fe5	-0.006824481
45	0x3cb76add	0.022389824
46	0x3a1b19d0	0.0005916627
47	0xbc7d8089	-0.01547254
48	0xbd11ad0b	-0.035565417
49	0x3c323a3e	0.010878144
50	0xbc92e850	-0.01793304
51	0x3d03551f	0.0320636
52	0xbc721ee7	-0.0147778755
53	0x3d22dfcf	0.03976422
54	0xbd01d8de	-0.03170096
55	0x3d0e08e8	0.034676462
56	0xbccced55	-0.025015512
57	0x3ca919da	0.02064221
58	0x3d06e17a	0.032929875
59	0xbc4f0015	-0.012634297
60	0xbcbb2791	-0.022846015
61	0x3d068e08	0.032850295
62	0x3cc7f0ee	0.024406876
63	0x3d17312a	0.03691212
64	0x3bee766d	0.007277301
65	0xbd326208	-0.04355052
66	0x3ca9601c	0.020675711
67	0x3c64fc42	0.013976159
68	0x3c92a4b8	0.01790081
69	0x3baf65db	0.0053527183
70	0xbcc49c8b	-0.024000427
71	0x3bae6ea2	0.005323247
72	0x3d1067e0	0.035255313
73	0x3bb2d743	0.00545779
74	0x3ced4d9c	0.028967671
75	0x3cc1c018	0.023651168
76	0x3cfa0a1f	0.030522404
77	0x3d0e5710	0.034750998
78	0x3c4705b7	0.012147359
79	0x3a46f15d	0.00075890665
80	0xbcab2050	-0.020889431
81	0x3ce8246c	0.02833768
82	0xbbc9f625	-0.006163376
83	0xbbc6a4e9	-0.0060621393
84	0x3ce0fcc3	0.027464276
85	0x3c953f7d	0.01821875
86	0xbd0be7ad	-0.03415649
87	0x3cf439f9	0.0298128
88	0xbcdf02d4	-0.027223028
89	0x3c2eb0e7	0.010662294
90	0x3c8fb9a3	0.017544573
91	0xbd0926f2	-0.033484407
92	0x3c8c26d7	0.017108364
93	0xbd1f5bb8	-0.03890583
94	0x3cff33e7	0.031152679
95	0x3d16bc16	0.036800466
96	0xbbcc7aac	-0.0062402096
97	0xbb8c9c05	-0.00429106
98	0x3d2cbe6d	0.04217379
99	0x3d169aed	0.036768842
100	0xbc35d783	-0.011098745
101	0xbd33eb22	-0.043925412
102	0xbc5dfcfa	-0.013549084
103	0x3c250864	0.010072801
104	0xbced8a41	-0.028996589
105	0xba4a3c97	-0.0007714717
106	0xbc6f240b	-0.014595996
107	0xbce86ca9	-0.028372126
108	0x3b0a49a7	0.002110103
109	0xbc4622cd	-0.012093258
110	0xbce2b8d6	-0.027676027
111	0x3b2d1f27	0.0026416273
112	0xbd1f0679	-0.038824532
113	0xbc972b78	-0.018453345
114	0xbc9b640f	-0.01896861
115	0x3c7dbf78	0.015487544
116	0xbd2de354	-0.042453125
117	0xbc99b5b2	-0.018763397
118	0x3c04f731	0.008115576
119	0xbd1b1a1a	-0.03786669
120	0x3cd914a9	0.02649911
121	0xbc3fbd4c	-0.011702847
122	0xbd024fa1	-0.03181422
123	0x3d028927	0.03186908
124	0xbc962c61	-0.018331708
125	0xbc80c781	-0.01572013
126	0x3c6ab819	0.014326119
127	0xbd1fe7b7	-0.03903934
128	0x3bebce8b	0.0071962527
129	0xbc99a3f7	-0.018754942
130	0xbd06ceb6	-0.03291198
131	0x3cd42d34	0.02590046
132	0xbb42fce0	-0.0029752776
133	0x3c7bd2cb	0.015370081
134	0x3d231c56	0.039821945
135	0xbcde20cc	-0.027115248
136	0x3cc0e1e8	0.02354522
137	0xbbef5065	-0.007303285
138	0x3ca77c29	0.020444946
139	0xbcc9e042	-0.024643067
140	0x3c81177f	0.015758274
141	0xbc8fcebe	-0.017554637
142	0x3c939dee	0.018019643
143	0x3cb14a77	0.021641953
144	0xbc8707ff	-0.016483305
145	0xbb6aa4cf	-0.00358038
146	0xbd269881	-0.040672783
147	0x3d043f96	0.032287203
148	0xbc80ec60	-0.015737712
149	0x3c974306	0.018464576
150	0xbd037548	-0.03209427
151	0xbc8c5c13	-0.017133748
152	0xbb25684b	-0.0025239165
153	0x3bc1b462	0.005911396
154	0x3b42f06a	0.0029745349
155	0xbc6c4244	-0.014420096
156	0xbca67403	-0.02031899
157	0xbc4915cb	-0.012273262
158	0xbd0c97f5	-0.034324605
159	0xbb99eb7b	-0.004697261
160	0xbcdcb08d	-0.026939655
161	0x3bf1b49e	0.0073762676
162	0xbd2c8fa6	-0.04212918
163	0xba3efeaa	-0.00072858727
164	0xbd2f8437	-0.0428507
165	0x3d076e46	0.03306415
166	0xbcc88a76	-0.024480086
167	0xbced8775	-0.028995255
168	0xbb86250a	-0.004093771
169	0x3d323c21	0.043514375
170	0x3d2569c5	0.040384073
171	0xbb350153	-0.0027619197
172	0x3c7d626b	0.015465359
173	0x3cee377c	0.029079191
174	0x3cce1088	0.025154367
175	0x3ca9d835	0.020732978
176	0x3d33b285	0.04387142
177	0xbc67831b	-0.014130379
178	0xbcd11ff6	-0.025527935
179	0x3ce92f12	0.028464828
180	0x3d1ddeaf	0.038542446
181	0xbb956642	-0.004559309
182	0x3cc128a9	0.023578959
183	0xbcea971c	-0.028636508
184	0xbd274259	-0.04083476
185	0xbced94d7	-0.029001636
186	0x3d1fbdd3	0.03899939
187	0xbd1b388e	-0.03789573
188	0xbca26e22	-0.019827906
189	0x3796867e	1.7944021e-05
190	0xbc89ec6a	-0.016836364
191	0x3b92cf4d	0.0044802786
192	0x3ce6be3b	0.02816688
193	0xbc5ce9f5	-0.013483514
194	0xbca6b3d7	-0.020349426
195	0x3cdd0ccb	0.02698364
196	0xbbbe25fb	-0.0058028675
197	0xbb519880	-0.0031981766
198	0x3d2f61ed	0.042818
199	0x3d00fe73	0.03149266
200	0xbc9dbc1e	-0.01925474
201	0xbb3900b0	-0.002822917
202	0x3cce7449	0.025201933
203	0xbcde09ba	-0.027104247
204	0xbc601a50	-0.013678148
205	0xbbf5d212	-0.007501849
206	0xbcaec6bc	-0.021334998
207	0x3bfaa4f2	0.0076490575
208	0xbd31c9f2	-0.04340548
209	0x3cc12049	0.023574965
210	0xbcbd471c	-0.023105197
211	0xbd0fb267	-0.035082247
212	0xbd3471d9	-0.044053886
213	0x3c14940c	0.0090685
214	0xbcf8e726	-0.030383658
215	0x3c5e5251	0.01356943
216	0xbc06ec9e	-0.008235125
217	0xbcfe3cbd	-0.031034822
218	0xbc98e5f3	-0.018664336
219	0xbc9bdbe7	-0.019025756
220	0x3c636157	0.013878188
221	0xbcaf3483	-0.021387344
222	0x3b89322c	0.004186889
223	0xbd038aaf	-0.03211468
224	0x3d16a85b	0.03678165
225	0xbb3cd8fa	-0.0028815852
226	0x3d241220	0.040056348
227	0xbce59627	-0.0280257
228	0xbcf011fc	-0.02930545
229	0xbc0252e3	-0.007954332
230	0x3b9ebab0	0.004844032
231	0x3ba09664	0.0049007405
232	0xbca7534d	-0.020425463
233	0x3d248780	0.040168285
234	0x3c5b20fd	0.013374564
235	0xbd33a41c	-0.04385768
236	0xbc8330d2	-0.01601449
237	0xbceb6387	-0.028733982
238	0xbc97b875	-0.018520573
239	0x3cdfc696	0.027316373
240	0x3c53b79a	0.012922192
241	0x3cd2b79e	0.025722321
242	0xbc6a396b	-0.014295916
243	0xbcd5ff40	-0.02612269
244	0x3b3c4340	0.0028726608
245	0x3d2e183d	0.042503584
246	0x3ce651b6	0.028115135
247	0xbc5d1ddd	-0.0134958895
248	0x3c90ff46	0.017699849
249	0xbcdf54d5	-0.02726213
250	0x3ac4eab4	0.001502356
251	0xbc954010	-0.018219024
252	0x3bcc2917	0.006230484
253	0x3ba55c7e	0.0050464263
254	0xbc55a81f	-0.0130405715
255	0x3d26c2b7	0.04071304

fc2.bias f4 [256]
0	0xbb3fedd8	-0.0029286053
1	0x380f8111	3.421406e-05
2	0xbcdf8d70	-0.027289122
3	0xbd1f3f5d	-0.038878787
4	0xbcee1f5d	-0.02906769
5	0x3c4b6708	0.012414701
6	0xbcc7a723	-0.02437169
7	0x3d01ebb6	0.031718932
8	0x3cd0ff79	0.025512444
9	0xbd0ce840	-0.03440118
10	0x3d041859	0.032249782
11	0xbd29662e	-0.04135721
12	0x3d239c02	0.039943703
13	0x3c8a4e6d	0.0168831
14	0xbcef221f	-0.029191075
15	0x3ce2276b	0.027606687
16	0x3c7ab8c4	0.015302841
17	0x3d1560ac	0.036469147
18	0xbc3fdca1	-0.011710317
19	0xbcd55a8d	-0.026044155
20	0xbcd68748	-0.026187554
21	0x3d069895	0.032860357
22	0xbcaaeb48	-0.020864144
23	0x3cd1d44e	0.02561393
24	0xbc691201	-0.014225484
25	0x3d15c564	0.0365652
26	0x3c77a6f3	0.015115487
27	0xbcab2563	-0.02089185
28	0x3d230600	0.039800644
29	0xbc65f52a	-0.014035502
30	0xbc5ee75c	-0.013604965
31	0x3caed8e9	0.021343665
32	0x3c2b2faa	0.010448376
33	0xbc936869	-0.017994123
34	0xbcfd4be1	-0.030919971
35	0x3c725757	0.014791331
36	0x3d05d8c9	0.032677446
37	0xbc536401	-0.012902261
38	0x3c48ad6e	0.01224838
39	0xbc97ee5a	-0.018546272
40	0xbcda8db4	-0.026678897
41	0x3ce440cd	0.02786293
42	0xbd449a4f	-0.047998723
43	0x3c2971cc	0.010342073
44	0xbc2c01af	-0.010498448
45	0x3d1dfc19	0.038570497
46	0x3b0026c2	0.0019554351
47	0xbc8744f2	-0.016512368
48	0xbca88d9e	-0.02057534
49	0x3c771f19	0.015083098
50	0xbbf765be	-0.0075499704
51	0xbbf8df3f	-0.0075949724
52	0x3c4c176f	0.012456759
53	0xbc182403	-0.00928593
54	0xbd0b62aa	-0.03402964
55	0x3b73373a	0.0037111775
56	0xbb98b192	-0.00465984
57	0x3be872f8	0.0070937835
58	0xbc6ba583	-0.014382723
59	0xbbeab56d	-0.007162741
60	0xbd37c3ef	-0.04486459
61	0x3d1d324b	0.03837804
62	0x3cfa9297	0.030587478
63	0x3d00c4e4	0.03143777
64	0x3cd9da02	0.026593212
65	0x3cb1f12a	0.021721441
66	0xbd45a938	-0.048257083
67	0x3cd98363	0.026551908
68	0xbcb7d0c5	-0.022438416
69	0x3c2aa308	0.010414846
70	0x3cf95459	0.030435728
71	0xbd09d1da	-0.033647396
72	0xbca0d5f7	-0.019633276
73	0xbd25738a	-0.04039339
74	0xbcba9068	-0.022773936
75	0xbb20c1b4	-0.0024529519
76	0xbccc459e	-0.02493554
77	0x3b67b0fe	0.0035353298
78	0x3d180a4a	0.037119187
79	0x3d0d5ee2	0.034514315
80	0x3c4830ff	0.012218713
81	0x3cd1e3b2	0.025621269
82	0xbbac414d	-0.005256808
83	0x3cf31c1d	0.029676491
84	0x3d19fdb9	0.037595484
85	0xbd396058	-0.045257896
86	0xbcf23ef6	-0.029571038
87	0xbce08f43	-0.027412063
88	0xbd2b2f3d	-0.041793097
89	0xbd0b8034	-0.03405781
90	0xbca52e1a	-0.020163585
91	0xbaac1137	-0.0013127689
92	0x3d160e2c	0.03663461
93	0xbd176cc0	-0.036968946
94	0x3d134566	0.035954855
95	0x3c16d3a7	0.009205735
96	0x3d1879e2	0.03722561
97	0xbcb2ce10	-0.021826774
98	0x3c68bcbe	0.014205156
99	0x3c82b5e9	0.015955882
100	0x3b7eee38	0.0038899314
101	0xbd229e00	-0.03970146
102	0x3d152f7e	0.036422245
103	0xbcdbbc8b	-0.026823303
104	0x3d1f32f4	0.038866952
105	0xbc756c18	-0.014979385
106	0x3c5acdba	0.013354713
107	0x3bb22d80	0.005437553
108	0x3c9ee679	0.019397007
109	0xbd2083fb	-0.039188366
110	0x3c862ae2	0.01637787
111	0xbc98b372	-0.018640254
112	0xbd191ddf	-0.037382003
113	0x3d174c41	0.036937956
114	0xbd2661d2	-0.040620632
115	0x3d0a8565	0.03381862
116	0x3cd3843a	0.025819886
117	0x3c0ed774	0.00871836
118	0x3cc93991	0.024563583
119	0x3ce451f4	0.02787111
120	0xbd00caba	-0.031443335
121	0xbd23a6a5	-0.039953846
122	0x3a223040	0.00061869994
123	0xbd2a8ffe	-0.041641228
124	0xbd1d8605	-0.03845789
125	0xbb95facd	-0.004577017
126	0xbd0ddb43	-0.034632932
127	0x3cb5e9b0	0.022206157
128	0xbd2653f8	-0.040607423
129	0x3d01ceee	0.031691484
130	0xbd11b7b8	-0.0355756
131	0xbd19205e	-0.037384383
132	0x3cb40053	0.02197281
133	0xbcd98ebf	-0.026557324
134	0x3cb3dcf5	0.021955946
135	0x3ce65f77	0.028121693
136	0xbb95826b	-0.004562666
137	0xbca4a612	-0.02009872
138	0x3cc9eb83	0.024648434
139	0x3c7058e3	0.01466963
140	0x3cb30b86	0.02185608
141	0xbcd53f84	-0.026031263
142	0xbaf194f9	-0.0018431238
143	0x3ceb3c05	0.028715143
144	0xbcb4bbba	-0.022062171
145	0xbce32b88	-0.027730718
146	0x3d2da364	0.04239215
147	0x3b440b9c	0.0029914146
148	0x3cf51ad5	0.029920021
149	0x3c6ae27b	0.014336224
150	0xbd227ad0	-0.039667904
151	0xbcbbe66d	-0.022937024
152	0xbc2f8068	-0.010711767
153	0xbd1e596c	-0.038659498
154	0xbd0fd08f	-0.035111006
155	0x3cdb3a39	0.026761161
156	0xbd358a63	-0.04432143
157	0xba11b130	-0.0005557714
158	0xbcfe350c	-0.031031154
159	0x3ca97062	0.020683471
160	0xbbc431e8	-0.0059873946
161	0x3c2bc95a	0.010485018
162	0xbca2aba0	-0.019857228
163	0xbc8ef63f	-0.017451404
164	0xbc7c328f	-0.0153929135
165	0x3b865870	0.004099898
166	0x3c95b5ff	0.018275259
167	0xbc9ee6ed	-0.019397223
168	0x3c8ba801	0.017047884
169	0xbbb5de8e	-0.005550212
170	0x3c480317	0.012207768
171	0x3cddb1e7	0.02706237
172	0xbc6c9c83	-0.014441612
173	0xbcfc9424	-0.030832358
174	0x3d248886	0.04016926
175	0xbca714e1	-0.020395698
176	0x3d11ddc9	0.0356119
177	0xbd3acebb	-0.04560731
178	0x3c2c289c	0.010507729
179	0x3b98d640	0.0046642125
180	0xbcae0248	-0.021241322
181	0x3d2261b7	0.03964397
182	0x3d343ead	0.044005085
183	0x3cc13fbe	0.023589965
184	0xbc2218c2	-0.009893598
185	0x3d28f0fb	0.041245442
186	0x3b13fc75	0.0022580896
187	0x3d1c8bc9	0.038219247
188	0x39163096	0.00014323214
189	0x3ca78fa3	0.020454234
190	0x3c5f1b6c	0.013617378
191	0x3d0f7c7f	0.035030838
192	0xbd1f300b	-0.038864177
193	0xbc39a0d7	-0.011329851
194	0x3c7a14a5	0.015263711
195	0xbcb4b9be	-0.022061225
196	0xbd14beda	-0.036314823
197	0x3d141c75	0.03615995
198	0xbce88fb2	-0.028388832
199	0x3bd4db32	0.0064958567
200	0x3ca4b25b	0.020104578
201	0x3cbef48d	0.02330997
202	0x3cbb3b0b	0.022855302
203	0x3c8dfb5d	0.017331773
204	0xbbc6b209	-0.006063704
205	0xbc88855f	-0.016665159
206	0x3c17acd9	0.009257519
207	0x3cfc612a	0.03080805
208	0xbc468433	-0.01211648
209	0xbb903b04	-0.0044015665
210	0x3b770ac8	0.0037695635
211	0x3d074331	0.033023063
212	0xbd145a40	-0.03621888
213	0x3a715e57	0.0009207478
214	0xbcb55ca6	-0.022138905
215	0x3c44d98d	0.012014759
216	0x3c494427	0.012284315
217	0x3cd64087	0.026153816
218	0x3cf12748	0.029437676
219	0xbcdec8a4	-0.027195282
220	0x3ba757aa	0.005106886
221	0xbc792a79	-0.01520788
222	0xbb4bbf61	-0.0031089413
223	0x3d09cb36	0.033641063
224	0x3d27d973	0.04097886
225	0xbd059157	-0.03260931
226	0xbc03ad18	-0.008036874
227	0xbcf8598f	-0.030316142
228	0xbd0b1fae	-0.03396576
229	0x3d28e440	0.0412333
230	0xbc8de519	-0.017321156
231	0x3d020820	0.03174603
232	0xbcc41e97	-0.023940368
233	0xbc310f72	-0.010806905
234	0xbcbe62da	-0.023240495
235	0x3d0b551b	0.03401671
236	0x3cf09e60	0.029372394
237	0xbcaec6c1	-0.021335008
238	0xbca03ef2	-0.019561265
239	0x3c8dd5fb	0.017313948
240	0xbcb9bc77	-0.022672875
241	0xbc4d85f0	-0.01254414
242	0xbd2b83b1	-0.041873638
243	0x3c8bde73	0.017073845
244	0x3c0dacb1	0.00864713
245	0xbcdda869	-0.027057843
246	0xbb349074	-0.002755192
247	0x3d036554	0.032079056
248	0x3cdb1f93	0.026748454
249	0xbd0d50f8	-0.034501046
250	0x3a34a8a0	0.0006891582
251	0xbb97e000	-0.004634857
252	0xbb21abee	-0.0024669128
253	0x3d0b2d41	0.033978704
254	0xbd2e0fd9	-0.042495582
255	0x3d2a26ba	0.04154084

fc3.weight f4 [128, 256]
0	0x3beb2910	0.007176526
1	0xbcce4a6e	-0.025181975
2	0x3d1f88d2	0.03894884
3	0xbc6fed58	-0.0146439895
4	0xbc0b7328	-0.008511342
5	0xbd255f46	-0.040374063
6	0xbcc3c140	-0.02389586
7	0xbc674a38	-0.014116816
8	0xba9b2ebc	-0.001183949
9	0xbd311e5e	-0.04324185
10	0x3d5482c2	0.051882513
11	0xbd4b43ee	-0.04962533
12	0x3ca94ef9	0.02066754
13	0x3c129e78	0.008948915
14	0xbd517a3c	-0.051141962
15	0xbc80488e	-0.015659597
16	0xbc5e1a88	-0.01355613
17	0x3d6649a8	0.056222588
18	0xbd796fc4	-0.060897604
19	0xbd14c048	-0.036316186
20	0xbcf6a680	-0.03010869
21	0x3c650d15	0.01398017
22	0xbcd17280	-0.025567293
23	0x3d4df4e6	0.05028238
24	0x3c3e5950	0.011617973
25	0x3c0cf49a	0.008603239
26	0xbd4d3a7a	-0.050104596
27	0xbd286d3e	-0.041119806
28	0x3d3b0384	0.04565765
29	0xbd844127	-0.06457739
30	0xbd461596	-0.04836043
31	0xbd0fced0	-0.03510934
32	0x3bd8320e	0.006597764
33	0x3d46a0c4	0.04849316
34	0x3ca7b7f0	0.02047345
35	0x3c47b9f0	0.012190327
36	0xbca2a7a4	-0.019855328
37	0xbc99274d	-0.018695498
38	0x39fef400	0.0004862845
39	0xbbe1d640	-0.0068919957
40	0x3c8c555c	0.017130546
41	0x3c84ba9e	0.016202267
42	0x3d3d3870	0.0461964
43	0x3bcad7a4	0.006190257
44	0x3ccc5408	0.024942413
45	0xbc6cdc47	-0.014456815
46	0x3b84c267	0.004051495
47	0x3cc8f210	0.024529487
48	0x3c791faf	0.015205308
49	0x3bbba580	0.0057265162
50	0xbd485700	-0.048911095
51	0xbd54538a	-0.05183748
52	0xbcaa3f84	-0.02078224
53	0x3c94dfbd	0.018173093
54	0x3cd41a4c	0.025891446
55	0x3d4003a4	0.046878472
56	0x3a6d6c1e	0.0009056943
57	0xbd68abc2	-0.056804426
58	0xbd29c406	-0.04144671
59	0xbb8df343	-0.0043319776
60	0x3cc46b03	0.023976808
61	0xbbe922c0	-0.007114738
62	0x3d26d0d8	0.040726513
63	0xbcfa7c54	-0.030576862
64	0x3d386dea	0.045026697
65	0xbd69d204	-0.057085052
66	0xbc9cf9c3	-0.019162064
67	0xbd444a06	-0.047922157
68	0xbd54f9f6	-0.051996194
69	0xbc6f5808	-0.014608391
70	0x3d63b5ed	0.05559342
71	0x3cdfe92f	0.02733287
72	0xbd69ae60	-0.057051063
73	0x3cd615ca	0.026133437
74	0x3d17f142	0.037095316
75	0x3d69a44b	0.057041448
76	0xbb5935a0	-0.0033143535
77	0x3c7f0888	0.015565999
78	0xbd77d034	-0.060501292
79	0xbd5045a6	-0.050847672
80	0xbd051ecf	-0.032500084
81	0x3cfec958	0.031101868
82	0x3d267a83	0.04064418
83	0x3d719f74	0.058989957
84	0x3d25f13a	0.040513255
85	0x3d556d44	0.052106157
86	0xbd7845de	-0.060613506
87	0x3d5dbd74	0.054135755
88	0x3d292c61	0.04130209
89	0xbc83368f	-0.016017227
90	0x3d3e68fa	0.046486832
91	0x3d275b8a	0.040858783
92	0x3d102a2a	0.03519646
93	0x3cba4697	0.022738738
94	0x3ce87298	0.028374955
95	0x3c10ec68	0.008845426
96	0x3d503b36	0.050837718
97	0x3d691c4d	0.056911755
98	0xbb242220	-0.0025044754
99	0xbc6e8c9b	-0.01455989
100	0x3d2481fa	0.040163018
101	0x3d76be34	0.060239986
102	0xbd0ec931	-0.03485984
103	0x3c9418cc	0.01807823
104	0x3d2170bc	0.039414153
105	0x3d12ed55	0.03587087
106	0x3d459722	0.048239835
107	0xbb7ee754	-0.0038895207
108	0xbd035bf0	-0.0320701
109	0xbb357e63	-0.002769374
110	0x3d136fea	0.0359954
111	0xbc54f1d8	-0.012997113
112	0xbcd8d67e	-0.026469465
113	0x3d4446c5	0.047919054
114	0x3cb450bc	0.022011153
115	0xbcbd227c	-0.023087732
116	0xbc8d4619	-0.01724534
117	0x39e90700	0.0004444644
118	0x3b6b6875	0.0035920416
119	0x3ca3f284	0.020013101
120	0xbcfda1fc	-0.03096103
121	0x3cba1d8f	0.022719173
122	0x3ccc7f80	0.02496314
123	0x3d4c6f18	0.049910635
124	0x3b68283e	0.0035424377
125	0x3ba56e11	0.0050485213
126	0x3d4fbf56	0.05071958
127	0xbd7a54a0	-0.06111586
128	0xbd190478	-0.037357777
129	0x3d487a28	0.048944622
130	0x3bdcdd9f	0.0067402865
131	0xbd3d0600	-0.0461483
132	0xbd6a4c36	-0.057201587
133	0xbb09cfa0	-0.0021028295
134	0x3d58008a	0.05273489
135	0xbd2624e2	-0.040562518
136	0x3d18ab29	0.037272606
137	0xbc5f61e7	-0.013634182
138	0xbc387a38	-0.011259608
139	0xbc247d50	-0.010039642
140	0x3d3d3320	0.046191335
141	0x3bf89b00	0.007586837
142	0xbc8bdf90	-0.017074376
143	0xbd73b672	-0.059500165
144	0xbd16425c	-0.03668438
145	0xbb817560	-0.00395076
146	0xbcc362b0	-0.023850769
147	0x3c05acd0	0.0081588775
148	0xbc6b42b2	-0.014359163
149	0xbceb8b79	-0.02875303
150	0xbd5c2b5a	-0.05375228
151	0xbd694fb6	-0.056960784
152	0x3c9a2a72	0.018819068
153	0xbd70151e	-0.05861389
154	0xbc94b830	-0.018154234
155	0xbd40f4fe	-0.047108643
156	0x3d074a03	0.033029567
157	0x3d614279	0.054995034
158	0xbb9be430	-0.0047574267
159	0x3d3f017e	0.046632282
160	0xbd53295f	-0.051553126
161	0xbd400dde	-0.046888225
162	0xbd09d62f	-0.033651527
163	0xbd2a8696	-0.041632257
164	0xbd3dff12	-0.046385832
165	0xbd754f1e	-0.059889905
166	0x3d026a40	0.03183961
167	0x3d1f3260	0.0388664
168	0xbd41ffaa	-0.04736296
169	0xbd0ff27e	-0.035143368
170	0x3cd78f40	0.026313424
171	0xbc9769f9	-0.018483149
172	0x3d497210	0.049181044
173	0xbd6fd5e0	-0.058553576
174	0xbd064ff9	-0.03279111
175	0x3d19d360	0.0375551
176	0x3d1dd499	0.038532827
177	0xbcc99bb8	-0.024610385
178	0xbc737c53	-0.014861184
179	0xbd7de9d6	-0.06199058
180	0xbc8baa53	-0.01704899
181	0xbd3a4896	-0.04547938
182	0xbd198744	-0.037482515
183	0xbc2b1042	-0.010440888
184	0x3c86520a	0.016396541
185	0x3ce099b4	0.027417041
186	0xbd281db8	-0.041043967
187	0x3d0a0e0e	0.03370481
188	0xbd5b0b70	-0.053477705
189	0xbd029662	-0.031881697
190	0x3d1e21ae	0.03860634
191	0x394d8a00	0.00019601732
192	0x3c5639a2	0.013075264
193	0xbd3079a0	-0.04308474
194	0xbcb427bc	-0.021991603
195	0x3bae9910	0.005328305
196	0x3d565407	0.05232623
197	0xbd233556	-0.039845787
198	0x3bcc3180	0.006231487
199	0x3bc85b40	0.0061143935
200	0xbbdcffd0	-0.0067443624
201	0xbd73b042	-0.059494264
202	0xbd547f81	-0.05187941
203	0x3cd2f668	0.025752261
204	0xbd041534	-0.032246783
205	0x3d5dc942	0.054147013
206	0x3cc183f0	0.023622483
207	0x3cf7aaa8	0.030232742
208	0x3d4ee003	0.050506603
209	0x3d5b1978	0.053491086
210	0xbd696021	-0.05697644
211	0xbb3def20	-0.002898164
212	0xbd625b04	-0.05526258
213	0x3cc93d04	0.024565227
214	0x3c2680a1	0.010162503
215	0xbd2f4bdc	-0.042796955
216	0xbc455d10	-0.012046114
217	0x3d666014	0.05624397
218	0x3b9089f9	0.004410979
219	0xba3f2f41	-0.0007293113
220	0xbd1c036a	-0.038089193
221	0xbd01b1e8	-0.031663805
222	0x3d2e84f6	0.04260727
223	0x3d39472c	0.04523389
224	0xbced7d14	-0.028990306
225	0x3c5e3e38	0.013564639
226	0xbcc67561	-0.024225892
227	0x3cc5eac5	0.024159798
228	0x3ca9c5d4	0.020724215
229	0x3c7a8878	0.015291326
230	0xbd1c509e	-0.03816282
231	0x3d334916	0.043770872
232	0x3cf926d4	0.030414023
233	0x3c89541a	0.016763736
234	0x3c473981	0.012159706
235	0xbb7bb680	-0.003840834
236	0xbc74bf99	-0.014938259
237	0x3d15533a	0.036456324
238	0xbc3d5218	-0.011555217
239	0xbc9a0ccb	-0.018804928
240	0x3c106eb0	0.008815452
241	0x3cd57510	0.026056796
242	0x3d05bbb4	0.03264971
243	0x3d13cf42	0.03608633
244	0xbc3776a3	-0.011197719
245	0xbb2f0221	-0.002670415
246	0xbd69fff2	-0.057128854
247	0x3d04cfe8	0.032424837
248	0x3d5a0ad0	0.053232968
249	0x3d66fb46	0.056391977
250	0xbc95964b	-0.018260142
251	0xbc5f4838	-0.013628058
252	0x3d4b2ea0	0.049605012
253	0x3c60efb8	0.013729028
254	0xbd4d0e78	-0.050062627
255	0x3c9e28b8	0.019306526

fc3.bias f4 [128]
0	0x3d3dffb7	0.046386447
1	0x3d5564b2	0.052097984
2	0xbc824687	-0.01590277
3	0xbcda1561	-0.026621522
4	0xbc82cee8	-0.015967801
5	0xbc942da2	-0.018088166
6	0xbbc22af2	-0.0059255296
7	0xbcab636e	-0.020921435
8	0x3cdafe3b	0.026732555
9	0x3cbb15fc	0.022837631
10	0x399b5a3f	0.00029631142
11	0xbbbfbf80	-0.005851686
12	0xbcaa1314	-0.02076105
13	0xbb0c2de0	-0.0021389648
14	0x3cefafee	0.029258694
15	0x3d185cfa	0.037198044
16	0x3d6cbca1	0.057797078
17	0x3b95a6f0	0.0045670196
18	0xbd127ab6	-0.035761558
19	0x3d306440	0.043064356
20	0xbd68dcb5	-0.056851108
21	0x3d73d7ab	0.05953185
22	0x3c12b8aa	0.00895516
23	0x3c92a48c	0.017900728
24	0xbd2274c5	-0.03966214
25	0x3a11e380	0.0005565211
26	0xbd29d574	-0.04146333
27	0xbc366289	-0.011131891
28	0xbd00a5d2	-0.03140814
29	0x3b8d6352	0.0043148184
30	0x3d248a4c	0.040170953
31	0x3d045ffc	0.0323181
32	0xbd5f0a26	-0.054453038
33	0xbbdec670	-0.006798558
34	0xbcd7126b	-0.0262539
35	0xbce36850	-0.027759701
36	0xbd3089c9	-0.043100152
37	0x3abd91be	0.001446299
38	0x3c8a70d1	0.016899498
39	0x3b44684e	0.0029969397
40	0x3d6ca0f3	0.05777068
41	0x3d679096	0.056534372
42	0x3d005c88	0.031338245
43	0x3cac80e0	0.021057546
44	0x3d16f8f0	0.0368585
45	0x3b40dec5	0.0029429656
46	0x3c9d907b	0.019233933
47	0x3d16dc16	0.036830984
48	0xbbf01bee	-0.007327548
49	0x3d511715	0.051047403
50	0xbcb619f9	-0.022229182
51	0xbc460631	-0.012086437
52	0x3d70fcf5	0.05883499
53	0x3d3ab3b7	0.045581546
54	0xbd10356c	-0.035207197
55	0x3c0658c0	0.008199871
56	0x3d45587e	0.048180096
57	0x3bbf2388	0.005833093
58	0xbd5a1360	-0.053241134
59	0x3d0319d3	0.03200705
60	0x3cb0ed68	0.02159758
61	0x3cea9ef0	0.02864024
62	0xbcb62eaf	-0.022239057
63	0xbd8c6904	-0.06855968
64	0xbd2584ac	-0.04040973
65	0xbc4a5d3d	-0.012351331
66	0x3d15530c	0.036456153
67	0xbce70aec	-0.02820345
68	0xbc048dc0	-0.008090436
69	0x3d99240c	0.074775785
70	0x3c698b00	0.014254332
71	0x3bc298d9	0.005938631
72	0x3bdcb135	0.006734992
73	0xbd02f676	-0.031973325
74	0xbd4a07f2	-0.049323983
75	0xbd611f46	-0.054961465
76	0xbc9e7faf	-0.019347994
77	0xbd5b69bc	-0.053567633
78	0xbce741c0	-0.028229594
79	0xbd85f811	-0.065414555
80	0x3d3dff56	0.046386085
81	0xbd18359c	-0.0371605
82	0x3c9fb0d1	0.019493492
83	0xbd432167	-0.047639277
84	0x3d804f3b	0.06265112
85	0xbb64b31b	-0.0034896794
86	0x3c51c5f8	0.012803547
87	0xbcff72a8	-0.031182602
88	0x3bd5ec0e	0.006528384
89	0xbcbc5be9	-0.022993045
90	0x3d1b401d	0.03790294
91	0x3d285711	0.041098658
92	0x3d593663	0.053030383
93	0xbb81bcf0	-0.0039592907
94	0xbc9f7669	-0.019465642
95	0x3b646e3a	0.003485574
96	0xbd078b30	-0.033091724
97	0xbd8435e0	-0.06455588
98	0xbc8096e8	-0.015696958
99	0xbcc18fd2	-0.02362815
100	0x3d5d91f4	0.05409427
101	0xbd35a6c6	-0.0443485
102	0x3d1647d7	0.036689606
103	0xbd1a7be9	-0.037715826
104	0xbd4101ed	-0.047120977
105	0xbc429350	-0.011875942
106	0xbd451867	-0.048118975
107	0x3d3f68f9	0.04673097
108	0xbcf3f571	-0.029780122
109	0xbc60f763	-0.013730857
110	0x3d453cfd	0.048153866
111	0x3c9a7220	0.018853247
112	0xbd0ecaa8	-0.034861237
113	0xbda7b59e	-0.081889376
114	0xbd2f986f	-0.04286998
115	0x3c41f5be	0.011838375
116	0x3d4afa1c	0.04955493
117	0x3b5b9406	0.0033504977
118	0x3d7abf4c	0.06121759
119	0x3cc2b69d	0.023768717
120	0x3cdd4d49	0.027014391
121	0xbba03caf	-0.0048900465
122	0x3d141f9a	0.03616295
123	0x3c9ec6a0	0.019381821
124	0xbcfeaef9	-0.031089293
125	0x3d34564d	0.044027615
126	0x3d0bb7b1	0.03411073
127	0x3d70ad4a	0.05875901

out.weight f4 [7, 128]
0	0xbd457366	-0.048205756
1	0xbc63a0e3	-0.013893339
2	0xbd727b1b	-0.059199434
3	0x3d7a6ea4	0.06114067
4	0xbdb1baae	-0.086781844
5	0x3bcc8d4e	0.006242431
6	0x3dbfd928	0.09367591
7	0x3d53367b	0.05156563
8	0xbc0b1c6c	-0.008490663
9	0x3d8014c5	0.062539615
10	0x3b823983	0.003974141
11	0x3c9f11f1	0.019417735
12	0x3d1377e6	0.036003016
13	0xbd807dd5	-0.062740006
14	0x3c661933	0.014044094
15	0x3e2e8663	0.17043452
16	0x3c936c99	0.01799612
17	0xbda2b038	-0.07943767
18	0x3d93347f	0.07187747
19	0x3cc9b621	0.024622979
20	0xbbe4f3fb	-0.0069870926
21	0xbc5dc912	-0.013536708
22	0xbcba695d	-0.02275532
23	0xbd1bd7d7	-0.038047638
24	0x3daf3839	0.085556455
25	0x3c4eb49a	0.012616301
26	0x3db6c0ae	0.089234695
27	0xbdb305a5	-0.08741311
28	0xbcb80b23	-0.022466248
29	0xbd2b7e55	-0.041868526
30	0x3ca8453e	0.02054083
31	0x3c42ef8a	0.011897931
32	0xbd972257	-0.07379597
33	0xbd42f8e3	-0.047600638
34	0xbbe6a107	-0.007038239
35	0xbcfe6f02	-0.031058792
36	0xbc95b2b9	-0.018273698
37	0xbd881752	-0.06645073
38	0x39a5dcfa	0.00031635893
39	0x3cf3b726	0.029750418
40	0x3d063d55	0.032773335
41	0x3c86a7ba	0.0164374
42	0x3d3810ec	0.044938013
43	0xbd0e6502	-0.034764297
44	0x3d5d5e99	0.054045293
45	0xbd82830d	-0.06372652
46	0x3bbb0c00	0.0057082176
47	0xbd7e21ad	-0.062043834
48	0x3d23a416	0.039951406
49	0x3d43dc72	0.047817655
50	0x3d4ab24a	0.049486436
51	0xbcb10367	-0.021608068
52	0xbd47b264	-0.04875411
53	0x3c6b8ad8	0.014376365
54	0xbd33de76	-0.043913327
55	0x3c49c1a8	0.012314238
56	0x3da97817	0.082748584
57	0xbe058566	-0.13039169
58	0x3d67c209	0.05658153
59	0x3dd63629	0.10459549
60	0xbd8e497c	-0.0694761
61	0xbd8a41b9	-0.06750817
62	0x3dcaf1c8	0.09909397
63	0xbcf2c664	-0.029635616
64	0x39d648d7	0.0004087153
65	0x3e17fc84	0.14842421
66	0x3d156de0	0.036481738
67	0x3ddedc02	0.10881807
68	0x3d83d636	0.06437342
69	0x3dd62454	0.10456148
70	0xbdad2385	-0.084540404
71	0x3d004d86	0.031323932
72	0xbd77ae8e	-0.060469203
73	0xbda4b11f	-0.08041596
74	0xbcddad88	-0.027060285
75	0xbdaf94e2	-0.08573319
76	0x3bc44a27	0.005990285
77	0x3d8fa278	0.0701341
78	0x3ca4f7f9	0.020137774
79	0x3d82906f	0.06375205
80	0xbd7809ab	-0.060556095
81	0xbc8b7860	-0.017025173
82	0x3d3dc853	0.046333622
83	0xbcf4e3eb	-0.029893836
84	0x3d9de17c	0.07709023
85	0x3daf5d5b	0.08562728
86	0x3b19bbc7	0.0023457871
87	0xbcfbe8e9	-0.030750709
88	0x3d52fc19	0.05150995
89	0x3d40773e	0.04698872
90	0xbd8d95ba	-0.06913324
91	0xbd08b1c2	-0.033372648
92	0xbc73e4b2	-0.014886068
93	0xbd4f86eb	-0.050665777
94	0x3d4e65cd	0.050390054
95	0xbdd15a4c	-0.10222301
96	0x3d590120	0.05297959
97	0x3d203230	0.039110363
98	0xbc56c500	-0.013108492
99	0x3d62d818	0.055381864
100	0xbd77e40b	-0.060520213
101	0x3d9124d4	0.070871025
102	0xbd85f19f	-0.06540226
103	0xbcebebe7	-0.02879901
104	0x3deb6c74	0.11495295
105	0xbd712bc2	-0.05887962
106	0x3c74de38	0.014945559
107	0xbd715b56	-0.058924995
108	0xbda67795	-0.08128277
109	0x3d97c546	0.07410674
110	0x3d9c0805	0.07618717
111	0x3d4d3706	0.050101303
112	0x3d58d406	0.052936576
113	0xbd83d33f	-0.06436776
114	0x3d4fcd3e	0.050732844
115	0x3d990916	0.07472436
116	0x3d3c20fb	0.04592989
117	0xbdd32747	-0.10310226
118	0x3da5bb52	0.08092369
119	0x3e0566d5	0.13027509
120	0xbd465fd4	-0.048431233
121	0x3dae7040	0.08517504
122	0xbd39322d	-0.045213867
123	0x3d7bb81c	0.061454877
124	0x3d4a62ae	0.049410515
125	0x3dd2957f	0.1028242
126	0x3dc1abe0	0.09456611
127	0xbdad2667	-0.0845459
128	0xbd9bb4c5	-0.076028384
129	0x3d60dc3b	0.05489753
130	0xbd963896	-0.07335012
131	0xbcd14424	-0.025545187
132	0x3c9a3fbd	0.01882922
133	0xbc1a288d	-0.009409082
134	0x3c17b6fe	0.009259937
135	0x3c28dc95	0.010306497
136	0x3d347512	0.04405696
137	0x3c4da747	0.012552089
138	0x3db48be5	0.08815745
139	0xbc912d70	-0.017721862
140	0x3dc24b22	0.09486987
141	0x3be89839	0.0070982245
142	0xbd5272b2	-0.051378913
143	0x3e70aa14	0.2350238
144	0x3d8c2f7a	0.06844993
145	0xbd989075	-0.07449428
146	0x3d76e025	0.060272355
147	0x3d0f9fcc	0.035064504
148	0x3d1c57d0	0.038169682
149	0x3c9b993a	0.018993963
150	0x3d9f110b	0.077669226
151	0xbccc82e4	-0.024964757
152	0x3d610537	0.054936614
153	0xbd674626	-0.056463383
154	0x3cde4af8	0.027135357
155	0xbc81f6a5	-0.01586468
156	0x3db362cd	0.08759079
157	0x3acf7247	0.0015826904
158	0x3d855d76	0.06511967
159	0xbd54547b	-0.05183838
160	0xbb8428f0	-0.0040332004
161	0xbc61f051	-0.013790206
162	0xbd58b891	-0.05291039
163	0x3d6167ca	0.05503062
164	0xbd4313a5	-0.047626156
165	0xbd157e8f	-0.03649765
166	0xbd36f702	-0.04466916
167	0x3d2dd682	0.0424409
168	0xbd09e29f	-0.03366339
169	0x3d7365e9	0.05942336
170	0x3d11e154	0.03561528
171	0x3d6deda3	0.058087956
172	0xbd25b5db	-0.040456634
173	0xbd34eccc	-0.04417114
174	0x3d7f6c59	0.062359188
175	0x3b6350fc	0.0034685722
176	0xbdb84d9f	-0.0899918
177	0x3d94256e	0.07233702
178	0x3d731e9d	0.059355367
179	0x3c5d4b11	0.013506667
180	0x3d154697	0.036444273
181	0xbd94f8ed	-0.07274041
182	0xbca000ba	-0.019531596
183	0xbcd323fc	-0.025773995
184	0x3c52c626	0.012864625
185	0xbde3b4e3	-0.11118486
186	0x3d6084d7	0.054814186
187	0x3d869f0d	0.06573305
188	0x3cf2c146	0.029633176
189	0x3da41085	0.08010963
190	0x3d83ea08	0.06441122
191	0x3db1c510	0.08680165
192	0x3de4a169	0.11163599
193	0x3de923ae	0.113837585
194	0x3d94cf22	0.0726607
195	0x3db427b1	0.08796633
196	0xbda6ddda	-0.081477836
197	0x3dad73b5	0.08469335
198	0xbd6c2579	-0.057652924
199	0x3d76cdc0	0.060254812
200	0xbcfceee5	-0.030875633
201	0xbdb8538a	-0.09000309
202	0x3d9402bf	0.07227086
203	0xbd71fce2	-0.05907906
204	0xbb39dda1	-0.002836086
205	0x3c05c716	0.008165142
206	0x3d1a5208	0.037675887
207	0x3cfbb994	0.030728139
208	0xbca5b164	-0.020226188
209	0x3d1501d4	0.036378697
210	0xbd2237f2	-0.039604135
211	0xbca8bb37	-0.020597083
212	0x3d82f35b	0.063940726
213	0x3ddabb1f	0.10680222
214	0xbcfc6ee6	-0.0308146
215	0xbcf7d5f3	-0.030253386
216	0x3bf8a438	0.007587936
217	0xbc8b1147	-0.016976012
218	0xbc0bd647	-0.008534974
219	0xbd8b43f1	-0.06800068
220	0x3d035e00	0.032072067
221	0x3defc424	0.11707333
222	0xbc7012b8	-0.0146529
223	0xbd2b9f7a	-0.041900136
224	0xbda446f8	-0.08021349
225	0x3d255447	0.040363576
226	0x3ca2c469	0.019869046
227	0x3d312d47	0.04325607
228	0xbd8c014e	-0.06836186
229	0xba93f0ab	-0.0011286935
230	0xbdf109d6	-0.11769454
231	0xbd8ff3bc	-0.070289105
232	0x3de3e42b	0.11127504
233	0x3d4139d5	0.047174294
234	0x3db5be50	0.0887419
235	0xbdd6d08c	-0.10488996
236	0xbd971dbc	-0.07378718
237	0x3db4dd80	0.0883131
238	0xbd84b3ce	-0.064796075
239	0xbcb3dc69	-0.021955686
240	0xbd773348	-0.06035164
241	0xbd899632	-0.067181006
242	0xbc53a0aa	-0.012916723
243	0xbc39b348	-0.011334248
244	0x3d97f828	0.07420379
245	0xbdb7ac64	-0.08968428
246	0xbd19bc7a	-0.03753326
247	0x3e1bdc1a	0.15220681
248	0x3ca1f1a2	0.01976854
249	0x39a31150	0.00031102682
250	0x3d85f843	0.06541493
251	0xbb11c946	-0.0022245212
252	0xbcaad5d8	-0.020853922
253	0x3dd5132e	0.10404049
254	0xbc2c3c86	-0.010512477
255	0x3d074913	0.033028673

out.bias f4 [7]
0	0x3d8cbbac	0.06871733
1	0x3c42fdaf	0.011901303
2	0x3cd28cde	0.025701936
3	0x3db92e7e	0.09042071
4	0xbd4f7961	-0.050652865
5	0x3d9f1114	0.07766929
6	0xbd1f9fb5	-0.038970668
