trained_models/dqn_shooter_25.pt (torch, 684180 bytes, 8 tensors)

fc1.weight f4 [512, 9]
0	0x3db57925	0.08860997
1	0x3e9dcf00	0.3082199
2	0xbe0cbf00	-0.13744736
3	0x3e6463b7	0.22303663
4	0x3e956ba9	0.291837
5	0xbda2a28b	-0.07941159
6	0xbe51f0f6	-0.20502076
7	0xbe89edbb	-0.26939186
8	0x3e3a4104	0.18188864
9	0xbebe7be4	-0.37203896
10	0xbe9a821d	-0.30177394
11	0x3d5415a2	0.051778443
12	0x3df156b1	0.11784113
13	0x3e2aa120	0.16663027
14	0x3e1cff01	0.15331651
15	0x3e1ad59a	0.15120545
16	0x3d1016ff	0.03517818
17	0xbd8695c4	-0.06571534
18	0xbe93bcc7	-0.28854963
19	0xbe699aa6	-0.228129
20	0xbea4976b	-0.32146773
21	0xbdfd4ec0	-0.12368536
22	0x3e08f993	0.13376455
23	0xbdcf3720	-0.10117936
24	0xbe911f5b	-0.28344235
25	0xbe9d5380	-0.30727768
26	0x3e7c99de	0.2466807
27	0xbe77c816	-0.2419742
28	0x3e38e256	0.1805509
29	0xbe860100	-0.26172638
30	0xbd49b600	-0.049245834
31	0xbdff3856	-0.12461917
32	0x3ea8acb0	0.3294425
33	0xbdaf347b	-0.08554932
34	0xbc9f9796	-0.019481461
35	0xbe072a6e	-0.1319978
36	0x3ec371e2	0.38172823
37	0xbdf87405	-0.12131504
38	0xbd713950	-0.058892548
39	0xbca90c45	-0.020635733
40	0x3dde6bf6	0.10860436
41	0x3e31d429	0.17366089
42	0xbcb7caf7	-0.022435648
43	0xbb2cec8d	-0.0026386112
44	0x3e8c668f	0.27421996
45	0xbe2cf131	-0.16888882
46	0x3da743ae	0.08167206
47	0xbe196bb6	-0.14982495
48	0x3e9b6919	0.3035362
49	0xbe42de59	-0.19030131
50	0x3d09ae03	0.033613216
51	0x3b8b3c99	0.004249167
52	0x3ea656b1	0.32488015
53	0xbe9f8dd7	-0.31162903
54	0x3cd7ff24	0.026366778
55	0x3e7ec651	0.24880339
56	0x3e238640	0.15969181
57	0x3e8c23be	0.2737102
58	0x3e943a93	0.2895094
59	0x3e60490e	0.21902868
60	0x3e90c495	0.2827498
61	0x3e76080f	0.24026512
62	0x3c08851d	0.008332518
63	0xbe519de6	-0.2047039
64	0x3e9874b5	0.2977654
65	0x3e794f98	0.24346769
66	0x3de2f796	0.110823795
67	0xbdca9cd1	-0.098931916
68	0x3e14930f	0.14509223
69	0xbebe7af1	-0.37203172
70	0xbc3ffb5a	-0.011717642
71	0xbe534685	-0.2063237
72	0x3ed5a351	0.41726163
73	0xbe0eb692	-0.13936833
74	0x3e0cb422	0.1374059
75	0x3dbcec2a	0.09224732
76	0xbd1d4ee1	-0.038405303
77	0xbebd46a1	-0.36967948
78	0xbe86a88b	-0.26300463
79	0x3e0f33ee	0.13984653
80	0xbe72395c	-0.23654693
81	0xbe9b43e4	-0.30325234
82	0x3e7c1ff8	0.2462157
83	0x3c0a5100	0.0084421635
84	0xbe872d4c	-0.26401746
85	0xbe02d978	-0.1277827
86	0x3d9850e0	0.07437301
87	0x3ea42142	0.32056624
88	0x3d3096cb	0.043112557
89	0x3df5b246	0.119968936
90	0xbeb13220	-0.34608555
91	0xbea29bf0	-0.31759596
92	0xbe6203b8	-0.22071731
93	0x3da63a72	0.08116616
94	0xbd88c5fc	-0.066783875
95	0x3ea38d8f	0.31943938
96	0x3e9dbde0	0.30808926
97	0xbe8e9331	-0.27846673
98	0xbc4513ee	-0.012028677
99	0xbdbff21b	-0.0937235
100	0x3e45d79b	0.19320528
101	0xbe527393	-0.205519
102	0xbe7d6e8e	-0.24749205
103	0x3da74b16	0.081686184
104	0x3e0aa973	0.13541202
105	0xbdb0dc66	-0.08635788
106	0x3ea33900	0.31879425
107	0x3db07a80	0.08617115
108	0x3d764120	0.0601207
109	0x3d319160	0.04335153
110	0x3e913d8b	0.28367266
111	0xbe85508e	-0.2603802
112	0x3d515b00	0.051112175
113	0x3e8cc08c	0.27490652
114	0x3e58423b	0.21119015
115	0xbda8bc10	-0.08238995
116	0xbd6d8f40	-0.057997942
117	0xbe1f15ab	-0.1553561
118	0x3e08f0e6	0.13373145
119	0x3cfba740	0.0307194
120	0xbe08689b	-0.13321154
121	0xbe60c04e	-0.21948358
122	0xbd62756b	-0.05528776
123	0xbe2e04a6	-0.1699396
124	0x3ea10200	0.31446838
125	0x3da34176	0.0797147
126	0xbd133fda	-0.035949565
127	0xbe9bd5d9	-0.3043659
128	0x3e7a7874	0.24460012
129	0x3d3b6b73	0.04575677
130	0xbe93608f	-0.28784606
131	0xbee53323	-0.44765577
132	0xbed8ad91	-0.4231992
133	0x3ea2f1e4	0.31825173
134	0x3e9f0996	0.31062
135	0xbddf9d0c	-0.10918626
136	0xbe3c57d7	-0.18392883
137	0x3e8de0ff	0.2771072
138	0x3e8670f6	0.26258057
139	0x3e5a8723	0.21340613
140	0x3ea7b84e	0.327578
141	0xbe42fa58	-0.19040811
142	0xbd3fe498	-0.046848863
143	0xbe365651	-0.17806365
144	0x3c99d76b	0.018779477
145	0xbe8af01c	-0.27136314
146	0x3e7fee53	0.24993257
147	0xbdb1e53b	-0.086863
148	0xbea11557	-0.31461594
149	0xbe3b95eb	-0.18318908
150	0xbd3dbde0	-0.046323657
151	0xbe266188	-0.16248143
152	0x3e327f4b	0.17431371
153	0xbe5a5e61	-0.21325065
154	0xbe04b1a6	-0.12958393
155	0x3e52edd0	0.20598531
156	0x3b9fec09	0.0048804325
157	0xbd8f6c87	-0.07003122
158	0x3de9a1ec	0.11407837
159	0xbe6916c4	-0.2276259
160	0xbca0ba16	-0.019619983
161	0x3e9cb96c	0.30610216
162	0xbe20af73	-0.15691929
163	0x3decf860	0.11570811
164	0xbe6ea8a8	-0.23306525
165	0xbe1f66b0	-0.15566516
166	0x3e617088	0.22015584
167	0x3d2fe2d6	0.042940937
168	0xbe9399ba	-0.28828222
169	0xbea78af8	-0.32723212
170	0xbe549cab	-0.20762889
171	0x3e9ddf18	0.3083427
172	0x3e9a72f0	0.30165815
173	0xbe0dad4b	-0.13835637
174	0xbe8d4fcf	-0.27599952
175	0x3e0074ce	0.12544557
176	0x3e1c6100	0.15271378
177	0xbdfdf01b	-0.12399312
178	0x3cfdddeb	0.030989608
179	0x3e5236ae	0.20528671
180	0xbf02567c	-0.50913215
181	0x3d623be1	0.055232886
182	0xbe853d45	-0.26023307
183	0x3e9fb14e	0.3118996
184	0x3d87b367	0.06626015
185	0x3ef7940a	0.48355132
186	0xbdd09b34	-0.10185853
187	0xbe7f87e3	-0.2495418
188	0x3e87c7a8	0.26519513
189	0x3ea8779b	0.32903752
190	0x3e172e1e	0.14763686
191	0xbe45bd03	-0.19310383
192	0xbe716e03	-0.23577122
193	0xbdde75a6	-0.108622834
194	0x3e9feb5c	0.31234252
195	0x3dcc2a60	0.0996902
196	0xbea19feb	-0.3156732
197	0x3e9eca0e	0.3101353
198	0xbe1e701b	-0.15472452
199	0xbe20e1e6	-0.15711173
200	0x3e669d2e	0.22520897
201	0xbe89b164	-0.2689315
202	0xbddb8880	-0.10719395
203	0x3e9ba548	0.30399537
204	0x3c4dc0d6	0.012558183
205	0x3e8a8aec	0.27059114
206	0x3ea418dc	0.32050216
207	0xbe561a7e	-0.20908543
208	0xbe730d3b	-0.23735516
209	0x3ea4c707	0.32183096
210	0x3dee6e52	0.11642136
211	0xbcede6e8	-0.029040769
212	0xb98fa308	-0.00027396553
213	0x3e4bd9d5	0.19907315
214	0x3dbed1f9	0.09317393
215	0x3e51f2d5	0.2050279
216	0xbe02d901	-0.12778093
217	0xbd634f00	-0.055495262
218	0x3e11b4c5	0.14229114
219	0x3d191ee2	0.037382968
220	0xbe9f96cc	-0.31169736
221	0x3ec895b8	0.39176726
222	0xbdb60083	-0.08886816
223	0xbd167027	-0.03672805
224	0x3e31ae5d	0.1735167
225	0x3ec5615e	0.38550848
226	0x3e078430	0.1323402
227	0xbda45908	-0.08024794
228	0x3e3f4b63	0.18681102
229	0x3e0b41bc	0.13599294
230	0x3b88aa7c	0.004170714
231	0x3df7f3da	0.12107058
232	0xbe7697ec	-0.24081391
233	0xbcb17fc7	-0.021667374
234	0xbd33060b	-0.043706935
235	0xbe474e04	-0.19463354
236	0xbbd49fc0	-0.0064887702
237	0x3dff814a	0.12475832
238	0x3e003e90	0.12523866
239	0xbe89e782	-0.2693444
240	0xbea07b06	-0.3134386
241	0xbd29e479	-0.041477654
242	0x3e52e997	0.2059692
243	0x3e9e0d63	0.30869588
244	0x3e4b2ad8	0.19840562
245	0xbea73669	-0.326587
246	0x3dc48d94	0.095973164
247	0x3e96cc3a	0.29452688
248	0x3d04651c	0.032322988
249	0xbe0e335a	-0.13886777
250	0x3ea34300	0.31887054
251	0x3e913298	0.28358912
252	0xbe800b5e	-0.25008672
253	0xbd94b74b	-0.07261523
254	0xbe85e1ef	-0.26148936
255	0xbcf2bc56	-0.029630821

fc1.bias f4 [512]
0	0xbe947c93	-0.29001293
1	0xbe5b2048	-0.21399033
2	0x3d9bad70	0.0760144
3	0xbe61a6ab	-0.22036235
4	0xbe40bbf9	-0.18821706
5	0x3e79639d	0.24354406
6	0x3e4d2e63	0.20037226
7	0x3c6c4c99	0.014422559
8	0x3e1ef245	0.15522106
9	0x3c0a84ab	0.008454482
10	0x3e970ba4	0.2950107
11	0xbe6a487e	-0.22879216
12	0x3e188c96	0.1489738
13	0xbe3c7cc8	-0.18406975
14	0xbd0b5b46	-0.034022592
15	0xbda71c45	-0.08159689
16	0x3e618e8b	0.22027032
17	0x3e8e75e2	0.27824312
18	0x3d11eb6b	0.035624903
19	0xbc8c5856	-0.017131966
20	0x3e3a4637	0.18190847
21	0xbda27aa6	-0.079335496
22	0x3dc018f0	0.093797565
23	0xbd5f3276	-0.054491483
24	0x3c1572ae	0.00912158
25	0x3deca659	0.11555166
26	0x3e9c323a	0.3050707
27	0xbde1689a	-0.11006279
28	0x3cce9cd6	0.02522127
29	0xbe746273	-0.2386568
30	0x3e9a6018	0.3015144
31	0x3e9a4ce0	0.30136776
32	0xbe97b88f	-0.29632995
33	0x3cae0b2b	0.02124556
34	0x3e6744e3	0.22584872
35	0x3e81d13e	0.25354952
36	0xbdbdd32d	-0.09268794
37	0x3e7b5cbe	0.24547097
38	0x3e98b11a	0.29822618
39	0x3cf4be0f	0.029875783
40	0x3e96c85b	0.29449734
41	0x3d1b398b	0.037896674
42	0xbe82fae6	-0.25582045
43	0x3db949a6	0.090472504
44	0x3ea44a3b	0.32087883
45	0x3e65b098	0.22430646
46	0xbda84150	-0.08215582
47	0x3daa4b94	0.08315197
48	0x3e9eccde	0.31015676
49	0x3e6250c0	0.22101116
50	0xbc7ffa56	-0.01562365
51	0x3ea2f66e	0.31828636
52	0xbe8ba2b8	-0.27272582
53	0xbe456e7f	-0.19280432
54	0x3e91cbdf	0.28475854
55	0xbe47cfbc	-0.19512838
56	0x3e068e7a	0.13140288
57	0xb9772000	-0.00023567677
58	0xbe9ed46f	-0.3102145
59	0xbea2a7ce	-0.3176865
60	0x3ea2fd9e	0.3183412
61	0xbd4d74d6	-0.05016025
62	0xbda9cfbb	-0.082915746
63	0xbe7e16bb	-0.24813358
64	0x3c8a9e7e	0.016921278
65	0xbd915790	-0.07096779
66	0x3e6e533f	0.23273943
67	0x3db420f1	0.087953456
68	0xbe372e5e	-0.17888781
69	0xbe8465f2	-0.25859028
70	0x3e759de7	0.23986016
71	0xbcdb6716	-0.026782554
72	0x3abfb956	0.0014627378
73	0xbc897ed4	-0.01678411
74	0x3df38359	0.11890287
75	0xbe0e7338	-0.1391114
76	0xbe13f72b	-0.14449756
77	0xbda2e604	-0.07954028
78	0x3d5efd71	0.05444092
79	0x3e03019e	0.12793586
80	0xbd2cb298	-0.042162508
81	0xbe974bce	-0.29550022
82	0x3e5f0793	0.21780233
83	0xbd341dd6	-0.043973766
84	0x3e53f7e1	0.20700027
85	0xbe592b5e	-0.2120795
86	0x3e44f7b6	0.19235119
87	0x3e637fbf	0.222167
88	0x3d069bba	0.032863356
89	0x3e8b9537	0.2726228
90	0x3e632274	0.22181112
91	0x3dad0396	0.084479496
92	0x3e461c76	0.19346794
93	0xbea34210	-0.3188634
94	0xbe907448	-0.28213716
95	0x3deacd78	0.11464971
96	0xbd09113b	-0.033463698
97	0x3d56456b	0.052312296
98	0xbdd3067b	-0.103039704
99	0xbe6c448e	-0.23073027
100	0xbe8a8654	-0.2705561
101	0xbe4375c3	-0.19087891
102	0xbe6dc484	-0.23219496
103	0x3d685ef7	0.05673119
104	0xbe91616b	-0.28394637
105	0x3d481916	0.04885205
106	0x3e89c714	0.26909697
107	0xbe3fc073	-0.18725757
108	0x3e409753	0.18807726
109	0xbdff4507	-0.12464338
110	0xbeae2919	-0.3401573
111	0xbe9ffaec	-0.31246126
112	0xbe0f944a	-0.14021412
113	0xbc9beb4d	-0.019033099
114	0xbdde799d	-0.1086304
115	0x3cde2a07	0.02711965
116	0x3e2b350b	0.16719453
117	0xbe3bb7e3	-0.18331866
118	0x3ce45f53	0.027877485
119	0xbd24bae0	-0.04021728
120	0x3e4b07ed	0.19827242
121	0x3ea00f34	0.312616
122	0x3d6fe2f6	0.058566056
123	0x3e3453c1	0.17610075
124	0xbd8ea5dd	-0.0696523
125	0xbe74eadd	-0.23917718
126	0x3cd9f616	0.0266066
127	0x3e2ac65f	0.16677235
128	0xbea65b37	-0.32491466
129	0xbe9760f5	-0.2956616
130	0xbdbe62ef	-0.09296214
131	0x3e6192b9	0.22028627
132	0xbde190c2	-0.110139385
133	0xbe64982b	-0.22323672
134	0x3d981050	0.07424986
135	0xbd68598c	-0.056726024
136	0xbd828eb0	-0.06374872
137	0xbe049067	-0.1294571
138	0xbe19ae43	-0.15007882
139	0x3e295bbb	0.16538899
140	0x3e378ab6	0.17924008
141	0xbe3b1f8f	-0.18273757
142	0x3ea0ba20	0.31392002
143	0x3e73c014	0.2380374
144	0xbe369dae	-0.17833588
145	0x3e8d297b	0.2757071
146	0x3e01043e	0.12599275
147	0xbcf7a24e	-0.03022876
148	0xbe80908e	-0.25110286
149	0xbe12325e	-0.14277026
150	0xbdd8c174	-0.10583773
151	0x3c9f26c0	0.019427657
152	0xbe4271af	-0.1898868
153	0x3e47370a	0.1945459
154	0x3e0f14bb	0.13972752
155	0x3ea17f48	0.3154242
156	0xbcb89caa	-0.02253564
157	0x3e813e60	0.252429
158	0xbe8a1c67	-0.26974794
159	0xbe6c7816	-0.23092684
160	0x3e739f61	0.23791267
161	0x3e28e1ee	0.16492435
162	0xbe97debd	-0.29662123
163	0xbdf577f4	-0.1198577
164	0xbda39213	-0.07986846
165	0x3e4d260e	0.20034048
166	0xbe7fc9bb	-0.24979298
167	0x3e4036f0	0.18770957
168	0xbce30512	-0.027712379
169	0xbc42bc2b	-0.011885683
170	0xbd21ac66	-0.039471053
171	0xbe82d24e	-0.25551075
172	0x3c950356	0.018190067
173	0xbe4d8c2e	-0.20073006
174	0xbe07f33f	-0.13276385
175	0xbe9f9de3	-0.31175146
176	0xbe2d71be	-0.1693792
177	0xbe767e7b	-0.24071686
178	0xbd80c6eb	-0.062879406
179	0xbd991c8b	-0.07476147
180	0xbc3c7000	-0.011501312
181	0x3dd69ee4	0.10479525
182	0xbd6edbcb	-0.05831508
183	0xbe4aa2d3	-0.19788675
184	0xbe6ad77e	-0.22933766
185	0xbe94a990	-0.29035616
186	0xbe0e4603	-0.13893895
187	0xbe05a886	-0.13052568
188	0x3e9b9999	0.30390623
189	0x3d504591	0.050847594
190	0x3e4e0a36	0.20121083
191	0x3e856813	0.26055965
192	0xbe80aa9c	-0.25130165
193	0xbe824fac	-0.2545141
194	0x3e9a9b42	0.30196577
195	0xbe8a4714	-0.27007353
196	0xbe9ef7a4	-0.3104831
197	0x3cea5636	0.028605562
198	0xbe9000db	-0.28125653
199	0xbe6eb506	-0.23311242
200	0xbe359201	-0.17731477
201	0x3e979086	0.2960245
202	0xbe8f03f4	-0.27932703
203	0x3e10382c	0.14083928
204	0xbc9c9b2b	-0.019116959
205	0x3da368fb	0.07979008
206	0x3e4741fe	0.19458768
207	0x3ba21556	0.004946391
208	0x3e389dd0	0.1802895
209	0x3caea96b	0.02132102
210	0xbe8177dc	-0.25286758
211	0x3e50b828	0.2038275
212	0x3e9ea45a	0.30984765
213	0x3e66cbe3	0.22538714
214	0x3e4fbdd2	0.20287254
215	0x3da70439	0.08155102
216	0x3e7d9d5c	0.24767059
217	0x3e59b8d6	0.21261916
218	0x3e2f7aa2	0.17136624
219	0xbe8758e6	-0.26435012
220	0x3e5a6530	0.21327662
221	0x3e0c6df4	0.13713819
222	0x3de03e10	0.109493375
223	0xbeae6de7	-0.34068224
224	0x3ea16f2b	0.31530127
225	0xbe7914f0	-0.24324393
226	0xbe9eb1bd	-0.3099498
227	0x3cc94cab	0.024572691
228	0x3d834dbb	0.0641131
229	0xbc3a2ed0	-0.0113637
230	0x3e26a473	0.1627367
231	0xbda56d31	-0.08077467
232	0xbd0550a0	-0.032547593
233	0x3d6827c6	0.056678556
234	0xbe1a55f6	-0.15071854
235	0x3e22495e	0.158483
236	0x3dc61ce4	0.09673479
237	0xbd70add5	-0.05875953
238	0xbe847659	-0.25871542
239	0x3dc46e86	0.09591393
240	0x3c253238	0.010082774
241	0x3e644f33	0.22295837
242	0x39813000	0.0002464056
243	0x3e9b1f06	0.30297107
244	0x3de383a0	0.1110909
245	0xbe7d4de6	-0.24736747
246	0x3e5c1313	0.21491651
247	0xbe96e303	-0.2947007
248	0xbdf69c0b	-0.120414816
249	0x3eaaa347	0.33327696
250	0xbe4f774e	-0.20260355
251	0x3db0e8eb	0.086381756
252	0xbd6d0a95	-0.05787142
253	0xbe901112	-0.28138024
254	0x3da3e5db	0.08002826
255	0xbe99eecc	-0.30065

fc2.weight f4 [256, 512]
0	0xbd35519e	-0.04426729
1	0x3ac4ef52	0.0015024936
2	0xbd33cf48	-0.04389885
3	0xbd022c57	-0.031780567
4	0xbd106c04	-0.03525926
5	0xbd24018b	-0.040040534
6	0xbc4bb3a2	-0.0124329645
7	0xbcae5b7c	-0.021283858
8	0xbbe1705f	-0.0068798508
9	0x396222d5	0.00021566015
10	0x3d0e6e80	0.03477335
11	0x3c383fbc	0.011245664
12	0x3ba1a7bc	0.0049333256
13	0xbd2e0d4a	-0.042493142
14	0xbcfd82f3	-0.03094623
15	0x3d117e6a	0.03552095
16	0xbcfe018a	-0.031006593
17	0x3c5c3d5a	0.013442362
18	0x3d16c19b	0.03680573
19	0xbd236d4f	-0.039899167
20	0xbd4200ab	-0.04736392
21	0xbc82ccfa	-0.015966881
22	0x3d01a51e	0.03165161
23	0x3c7f7432	0.015591668
24	0xbc272c6c	-0.010203462
25	0x3c908509	0.017641561
26	0xbd378a5d	-0.044809688
27	0x3c873b14	0.016507663
28	0x3bc23e50	0.0059278384
29	0x3c87c791	0.016574653
30	0x3cc7bbbf	0.024381517
31	0x3c6fe2f1	0.014641509
32	0x3b8a4529	0.0042196703
33	0x3bf623a7	0.0075115743
34	0xbc1dfa4f	-0.009642198
35	0xbc59728a	-0.013271937
36	0xbce1acc7	-0.027548207
37	0x3d234db2	0.039869018
38	0xba3e8456	-0.00072676444
39	0xbd12b32d	-0.035815407
40	0xbc3a36cc	-0.011365604
41	0xbc475424	-0.012166057
42	0x3bc08c93	0.0058761328
43	0xbca056a4	-0.019572563
44	0x3cd83d42	0.026396398
45	0x3cbbc508	0.0229211
46	0x3c018820	0.00790599
47	0x3c053013	0.008129138
48	0x3bae093d	0.00531116
49	0x3cb35cda	0.021894861
50	0xbd12677b	-0.035743218
51	0x3d7381bf	0.059449907
52	0xbd12d13f	-0.035844084
53	0xbae7f03a	-0.0017695494
54	0xbc28a58b	-0.010293375
55	0xbcd39588	-0.025828138
56	0xbd138638	-0.036016673
57	0xbcef0baf	-0.029180376
58	0x3cf99b3a	0.030469526
59	0xbd225aa4	-0.039637223
60	0x3d1b4e58	0.03791651
61	0x3d144901	0.036202434
62	0xbd040b84	-0.032237545
63	0x3c974aab	0.018468222
64	0xbc699ed3	-0.014259058
65	0xbbea5fde	-0.0071525415
66	0xbd036cac	-0.03208606
67	0x3d01d925	0.031701226
68	0xbcc34f6c	-0.023841582
69	0x3c6f9096	0.014621874
70	0xbaec0991	-0.0018008222
71	0x3c9cda4e	0.019147065
72	0xbc0e0160	-0.00866732
73	0x3c442b4a	0.011973212
74	0xbd057abd	-0.032587755
75	0x3d122d6f	0.03568786
76	0xbd03195d	-0.03200661
77	0xbd2695d1	-0.04067022
78	0x3c46c0ae	0.012130899
79	0x3b7d303c	0.0038633486
80	0xbc8fd925	-0.017559597
81	0x3c06199d	0.008184818
82	0xbd05c3c1	-0.03265739
83	0x3cbeaec6	0.023276698
84	0xbd0b17a6	-0.0339581
85	0x3c94a6eb	0.018145999
86	0x3cd3674d	0.025806094
87	0xbd407b98	-0.04699287
88	0x3ccfe2d8	0.025376722
89	0x3c0fdd64	0.008780811
90	0xbc907065	-0.017631719
91	0xbd0862d1	-0.033297364
92	0xbbb56364	-0.00553553
93	0x3c29d180	0.01036489
94	0x3cab6a12	0.020924602
95	0x3c8e6d1e	0.017386016
96	0xbd3755a2	-0.0447594
97	0xbb8129f3	-0.0039417683
98	0xbd1388df	-0.036019202
99	0xbcbe5cd9	-0.023237633
100	0xbccc0a61	-0.024907293
101	0xbc281f00	-0.010261297
102	0x3be58605	0.0070045018
103	0x3c4e642e	0.012597127
104	0xbcaaa02c	-0.020828329
105	0x3c4899c9	0.0122436965
106	0xbc8bf54e	-0.017084744
107	0xbbd450b1	-0.0064793457
108	0x3d23b7a6	0.039970063
109	0xbc42dc71	-0.011893378
110	0x3d107961	0.035272006
111	0x3c30f408	0.010800369
112	0xbc93d31d	-0.018045003
113	0x3d0d5673	0.034506273
114	0xbc97e800	-0.018543243
115	0xbcaf11da	-0.021370817
116	0x3d1904de	0.037358157
117	0xbb5e34f9	-0.0033906086
118	0xbcb37cda	-0.02191012
119	0xbcd6deb3	-0.026229238
120	0xbcd6d69a	-0.026225377
121	0x3d30b085	0.043137092
122	0xbc8e6db5	-0.017386297
123	0xbd0f00d6	-0.034912907
124	0xbcc1eba0	-0.023671925
125	0xbd007953	-0.031365704
126	0xbcee5951	-0.029095324
127	0xbcb9b2e9	-0.022668319
128	0xbcbff030	-0.02342996
129	0x3c159f10	0.009132162
130	0x3c9a6e49	0.018851416
131	0xbd29c01e	-0.041442983
132	0x3c9e61b9	0.019333707
133	0xbadb3bf3	-0.001672624
134	0x3c360faf	0.011112138
135	0xbbdf0391	-0.006805845
136	0x3d106467	0.035252
137	0x3d2a080e	0.041511588
138	0xbd18e5aa	-0.0373284
139	0xbcad804e	-0.021179345
140	0xba57a2c4	-0.0008225853
141	0x3c928f1b	0.017890504
142	0xbb8e4c77	-0.0043426114
143	0x3d092ee9	0.033492003
144	0x3cd925e6	0.02650733
145	0xbd1046bf	-0.03522372
146	0xbcf940b4	-0.03042636
147	0xbd160670	-0.036627233
148	0x3ca56e6c	0.020194255
149	0x3d022fd3	0.03178389
150	0x3d015aaf	0.031580623
151	0x3cbd3969	0.023098664
152	0x3ce2fcda	0.02770846
153	0x3bb1152e	0.005404136
154	0xbad03fc9	-0.001588815
155	0x3c6dfc4d	0.014525485
156	0x3d0b6ac9	0.034037385
157	0x3d2cac14	0.042156294
158	0x3c9647fd	0.018344874
159	0xbc99cb87	-0.018773807
160	0x3b9c98ba	0.0047789486
161	0x3b97c209	0.004631285
162	0x3d18bb1e	0.037287824
163	0x3c7e9432	0.015538262
164	0x3ce8d919	0.028423833
165	0x3d2edaf9	0.042689297
166	0xbd0f18f8	-0.03493592
167	0x3cfd6fa8	0.03093703
168	0xbd4debc3	-0.050273668
169	0x3ba98927	0.0051738205
170	0xbd1a2376	-0.037631474
171	0xbc8fc3fe	-0.017549511
172	0x3c89b458	0.016809627
173	0x3ce23597	0.027613444
174	0x3cd74bdf	0.026281295
175	0x3ce0e7f0	0.027454346
176	0xbd22c7b7	-0.039741244
177	0x3c4c0a99	0.012453699
178	0x3c924dd2	0.017859373
179	0xbd385915	-0.04500683
180	0x3cdeeded	0.027213061
181	0x3ab4b91c	0.0013788077
182	0x3d1c92b6	0.038225852
183	0x3c3fa640	0.011697352
184	0xbd1522d6	-0.036410175
185	0x3c7e0b10	0.015505567
186	0x3d15ccee	0.03657239
187	0xbc100600	-0.008790493
188	0xbd330abe	-0.043711416
189	0x3c92662f	0.01787099
190	0xbc0f9309	-0.008763083
191	0x3d140837	0.036140647
192	0xbd3c2270	-0.04593128
193	0x3c8dbf2c	0.017303072
194	0xbd1d5a49	-0.03841618
195	0x3d1c4420	0.038150907
196	0x3cbf1066	0.02332325
197	0xbc962859	-0.018329786
198	0x3d16e6e1	0.036841277
199	0xbc913c8c	-0.017729066
200	0xbd403cd7	-0.04693302
201	0x3d12df4d	0.035857487
202	0x3c934371	0.017976495
203	0x3c0b57b1	0.008504794
204	0xbd157807	-0.03649142
205	0x3c44b978	0.01200711
206	0xbd2a3b53	-0.041560482
207	0xbd1da651	-0.03848869
208	0x3ce85178	0.02835916
209	0x3c55502d	0.013019604
210	0xbbdbe5c5	-0.0067107403
211	0x3bb8810e	0.005630619
212	0x3d102644	0.035192743
213	0x3c5b990b	0.0134031875
214	0x3b832f62	0.004003451
215	0x3d17eb08	0.037089378
216	0x3c7efd1b	0.015563275
217	0x3af795b4	0.001888922
218	0xbcaa9d30	-0.020826906
219	0x3cc6b7f5	0.02425764
220	0x3d253a6d	0.040338922
221	0xbd076dcf	-0.033063706
222	0xbcab412c	-0.0209051
223	0xbc3aeac6	-0.011408513
224	0x3d1b390b	0.037896197
225	0xbbff7d90	-0.0077969506
226	0x3c803b50	0.015653282
227	0xbcae9c70	-0.02131483
228	0xbd2ed1a9	-0.042680416
229	0x3d1c8122	0.03820909
230	0x3d285e4c	0.041105554
231	0x3cc3afb3	0.02388749
232	0xbc9d1357	-0.019174261
233	0xbc9d2018	-0.019180343
234	0x3bc7ba5c	0.006095214
235	0x3c0ea10d	0.00870539
236	0xbc25fece	-0.010131551
237	0x3d0403e3	0.03223027
238	0xbcc53f8b	-0.024078151
239	0xbb4a8f69	-0.0030908233
240	0x398cd821	0.0002686391
241	0xbd352b20	-0.04423058
242	0x3d0c718a	0.034287967
243	0xbcdab382	-0.026696924
244	0xbc5065cb	-0.012719582
245	0xbcea1ee1	-0.028579177
246	0xbbf61fc4	-0.007511111
247	0xbc1023df	-0.008797615
248	0x3cee0fe0	0.029060304
249	0xbbbeec8c	-0.0058265384
250	0xb9898843	-0.000262322
251	0x3c658734	0.014009286
252	0xbd0ce20d	-0.034395266
253	0xbd208609	-0.039190326
254	0x3cd08b7d	0.025457138
255	0xbc956eb6	-0.018241268

fc2.bias f4 [256]
0	0x3c50e208	0.012749203
1	0xbca16433	-0.019701099
2	0x3b7f64d4	0.003897001
3	0x3d337107	0.043808963
4	0xbcc034fb	-0.023462763
5	0x3c6c1357	0.014408908
6	0xbb12d5cf	-0.0022405272
7	0xbc990287	-0.018677963
8	0x3cb68083	0.022278076
9	0xbd2a0c20	-0.04151547
10	0x3c64f217	0.013973734
11	0xbd252a33	-0.040323447
12	0x3cb3e309	0.021958845
13	0x3c64119e	0.013920216
14	0xbc8ddc79	-0.017317044
15	0xbc1385e9	-0.009004095
16	0x3d2045f1	0.0391292
17	0xbd08eee6	-0.033430956
18	0xbd344bf7	-0.04401776
19	0x3cba0d41	0.022711398
20	0x3d19e317	0.037570085
21	0xbd088ae0	-0.033335567
22	0xbd01ae50	-0.031660378
23	0xbd02852e	-0.03186529
24	0x3d2ba23d	0.04190277
25	0x3cec5206	0.028847706
26	0x3cc68f30	0.024238199
27	0xbd034ff3	-0.032058667
28	0x3c4ee3cc	0.012627553
29	0xbd1aaafc	-0.03776072
30	0x3d0cb372	0.03435082
31	0xbd0df728	-0.034659535
32	0xbc4660ca	-0.012108037
33	0xbd2d6706	-0.04233458
34	0x3b9d2af3	0.0047963797
35	0xbcf17907	-0.029476656
36	0x3c85c1b6	0.01632772
37	0x3c7f7a93	0.015593189
38	0xbcffdcba	-0.03123318
39	0xbcc7192f	-0.024304
40	0xbbc34539	-0.0059591797
41	0x3cf47a38	0.029843435
42	0xbd226454	-0.03964646
43	0xbc695ddb	-0.014243568
44	0x3b30c6bb	0.0026973921
45	0x3cfbad42	0.030722264
46	0x3d148967	0.03626385
47	0xbd0cf877	-0.034416642
48	0xbcaa0033	-0.020752048
49	0x3d2890b4	0.041153625
50	0x3cdd8e97	0.027045531
51	0x3cb56915	0.022144834
52	0x3c28044d	0.010254932
53	0x3ce0b88c	0.027431749
54	0xbbe8099b	-0.007081223
55	0xbbc738a6	-0.006079751
56	0x3c7fa4eb	0.015603284
57	0xbd037b4c	-0.032100007
58	0x3bf38606	0.0074317483
59	0xbc091aa9	-0.008368173
60	0xbad5c405	-0.0016309029
61	0xbbe4d853	-0.0069837957
62	0x3c729dd8	0.014808141
63	0xbd345526	-0.044026516
64	0xbc53987e	-0.012914775
65	0x3c6591de	0.014011828
66	0xbd26884f	-0.040657338
67	0xbd0280f8	-0.031861275
68	0xbd26818a	-0.04065088
69	0x3cfc7ec3	0.030822163
70	0x3c8cf9ea	0.017209012
71	0x3c15e81a	0.009149576
72	0x3c9f82eb	0.019471606
73	0x3cfa30a9	0.030540781
74	0xbd23c08a	-0.03997854
75	0x3cc9282e	0.024555292
76	0xbd0d4d80	-0.034497738
77	0xbb10c015	-0.0022087146
78	0xbc916a45	-0.017750869
79	0x3bc6863d	0.006058483
80	0x3ca37bed	0.019956553
81	0x3d2df92c	0.042473957
82	0xbd34bca4	-0.044125214
83	0x3bacd35c	0.0052742194
84	0xbd0d5a78	-0.034510106
85	0x3d2c3d0a	0.0420504
86	0xbcfda7ca	-0.030963797
87	0xbbb70cee	-0.005586258
88	0xbd048b8a	-0.032359637
89	0xbc8af5ca	-0.016962904
90	0x3d014914	0.031563833
91	0x3d273683	0.04082347
92	0xbd347956	-0.044061027
93	0xba7191ca	-0.00092151447
94	0xbc9e1bf6	-0.019300442
95	0xbd2b07f4	-0.04175563
96	0xbd00289e	-0.031288736
97	0xbd021f1c	-0.03176795
98	0x3bed6687	0.007244888
99	0x3d22a18a	0.039704837
100	0x3ceaee59	0.028678106
101	0x3cffa87e	0.031208273
102	0xbc996e5a	-0.018729378
103	0xbc469533	-0.012120533
104	0xbb59a2ea	-0.0033208677
105	0xbce323e6	-0.027727079
106	0xbca333a3	-0.019922083
107	0xbd291614	-0.04128082
108	0xbaa8e101	-0.0012884439
109	0xbc82a5eb	-0.015948256
110	0xbd36addd	-0.044599403
111	0xbc959290	-0.018258363
112	0xbd083121	-0.033249978
113	0x3d04b2f4	0.032397225
114	0x3cd3abe4	0.0258388
115	0xbc103d2f	-0.00880365
116	0x3d27a451	0.04092819
117	0xbd22e54c	-0.039769456
118	0x3d12005e	0.03564488
119	0x3c376bb1	0.011195109
120	0xbc817e7a	-0.015807379
121	0xbac7ec36	-0.0015252891
122	0xbd26cbab	-0.040721577
123	0x3d1b2654	0.03787835
124	0xbca7378f	-0.020412235
125	0xbc6e3e97	-0.01454129
126	0x3c8edc8d	0.017439151
127	0x3c87b76a	0.01656695
128	0xbc959f9d	-0.018264586
129	0xbd1fd354	-0.039019898
130	0xbd0a20fd	-0.033722866
131	0xbd3bbba1	-0.045833234
132	0x3c97b560	0.018519104
133	0xbb86097d	-0.0040904866
134	0xbc609707	-0.013707883
135	0xbc7b19a3	-0.0153259365
136	0x3d1efad5	0.03881343
137	0xbc972c57	-0.01845376
138	0x3c461f88	0.012092479
139	0x3d33ea00	0.04392433
140	0x3d251d00	0.04031086
141	0x3d27eaa2	0.040995248
142	0x3d25e8e0	0.04050529
143	0x3d1fdc3f	0.039028402
144	0xbbe2bf75	-0.006919796
145	0x3c8e3291	0.017358096
146	0x3d2fdcdd	0.04293524
147	0xbd21b4b2	-0.039478965
148	0xbd19f5c5	-0.0375879
149	0x3c846801	0.016162874
150	0x3c8f6350	0.01750341
151	0x3ca1a6be	0.01973283
152	0x3c1c8f63	0.00955567
153	0xbca454fa	-0.020060051
154	0x3d03b9bd	0.032159556
155	0x3b5609cb	0.0032659646
156	0x3c878d8a	0.016546983
157	0x3c8201f7	0.015870078
158	0xbd0877d1	-0.03331739
159	0x3c32a3f8	0.010903351
160	0xbc426cd6	-0.011866769
161	0x3cb78e35	0.022406677
162	0x3ce23b4f	0.027616171
163	0x3c0de1b0	0.008659765
164	0x3ce89ca6	0.028395008
165	0x3d1b8465	0.03796806
166	0x3cb90b0e	0.02258828
167	0x3d0e7e5c	0.034788474
168	0x3b2afacb	0.0026089426
169	0x3c937f8f	0.01800516
170	0xbd2f8139	-0.042847846
171	0xbd23fade	-0.040034167
172	0x3c376fd8	0.011196099
173	0x3cf4ad43	0.029867774
174	0x3d150394	0.036380365
175	0xbd1a4053	-0.037659
176	0x3bf1cef4	0.007379407
177	0xbcad3a80	-0.021146059
178	0xbc893491	-0.016748698
179	0xbca40950	-0.020023972
180	0xbd221581	-0.03957129
181	0xbc096dc4	-0.008387987
182	0xbd1917d1	-0.03737623
183	0x3cab3168	0.020897582
184	0x3d24ff14	0.040282324
185	0x3c0b2662	0.008493038
186	0xbc1d8dd5	-0.009616335
187	0xbd2cb7d4	-0.0421675
188	0x3d049d45	0.032376546
189	0xbc7e5b24	-0.015524659
190	0xbd1e7a3b	-0.038690787
191	0xbd31259e	-0.043248765
192	0xbd4bc33c	-0.049746737
193	0xbcfbddca	-0.030745406
194	0x3d1582d5	0.036501724
195	0xbcc5414b	-0.024078986
196	0x3cb7fb99	0.022458838
197	0xbca3ddf9	-0.020003306
198	0x3ca3aee5	0.019980857
199	0xbcef62fb	-0.029222002
200	0x3d1700d9	0.036866043
201	0x3c658aea	0.0140101705
202	0xbca9c743	-0.020724898
203	0xbb927505	-0.004469516
204	0x3d2e92eb	0.04262058
205	0xbad38638	-0.0016138023
206	0x3cd1772a	0.025569517
207	0xbc4b3405	-0.012402539
208	0x3d349f99	0.044097517
209	0x3d2c6f59	0.042098377
210	0xbd1295f8	-0.035787553
211	0xbcd522ef	-0.026017634
212	0xbc9299dd	-0.017895633
213	0x3d34efef	0.04417413
214	0xbc37a7f2	-0.011209475
215	0x3ccdbdd5	0.025114933
216	0x3d29c015	0.04144295
217	0xbc84010d	-0.016113782
218	0xbcaf296b	-0.021382054
219	0xbd1a8e04	-0.037733093
220	0xbd2010cb	-0.039078515
221	0x3cf2d4d9	0.02964251
222	0x3cc94dd7	0.02457325
223	0x3d00aabd	0.03141283
224	0xbcdda1ea	-0.027054746
225	0x3d1ca039	0.038238738
226	0x3d07fe5d	0.033201564
227	0xbd03095b	-0.031991344
228	0x3c861aaa	0.016370136
229	0xbcd565b9	-0.026049482
230	0x3d258228	0.04040733
231	0x3d36f640	0.044668436
232	0x3c606a23	0.01369718
233	0xbd16b4f1	-0.036793653
234	0x3cca9ecb	0.024733922
235	0xb9c66d94	-0.00037847145
236	0x3bc2321d	0.005926384
237	0x3c4e6376	0.0125969555
238	0xbc8851e5	-0.016640613
239	0xbcc4c074	-0.02401755
240	0x38481771	4.7705547e-05
241	0xbd13065b	-0.035894733
242	0x3d199305	0.037493724
243	0x3c8d3c50	0.017240673
244	0xbba65d38	-0.0050770305
245	0xbd338aa3	-0.043833386
246	0x3cc09fe5	0.023513744
247	0xbc84ca4a	-0.01620974
248	0xbc42b0c8	-0.011882968
249	0x3c5e4a3c	0.013567504
250	0x3c2dce1c	0.010608222
251	0x3d274615	0.04083832
252	0xbb932c49	-0.004491363
253	0x3af6e8c3	0.0018837679
254	0xbc9872c0	-0.018609405
255	0x3d2976c9	0.041373048

fc3.weight f4 [128, 256]
0	0xbd1bf882	-0.038078792
1	0xbc75b7af	-0.014997407
2	0xbd3b7a20	-0.045770764
3	0x3d3c96b8	0.046042174
4	0x3c5e51d8	0.013569318
5	0x3d123b60	0.035701156
6	0x3c294c56	0.010333141
7	0x3bbf2bb9	0.0058340696
8	0x3d786ddc	0.060651645
9	0xbd259f5c	-0.04043518
10	0xbce631a8	-0.02809985
11	0xbd2eccca	-0.04267577
12	0xbd74f4ec	-0.05980389
13	0xbd297fd4	-0.041381672
14	0x3ca886f8	0.02057217
15	0x3c4d2980	0.012522101
16	0xbd7ebc91	-0.06219155
17	0x3cceb96a	0.025234897
18	0xbc826449	-0.01591696
19	0x3d560796	0.05225333
20	0xbd54a97c	-0.051919445
21	0xbcc2ea36	-0.023793321
22	0x3c6a8c8d	0.0143157365
23	0xbb9c1717	-0.0047634947
24	0x3d008772	0.03137917
25	0xbd678c26	-0.05653014
26	0xbcdcc1a4	-0.026947804
27	0x3d4091be	0.04701399
28	0x3d54631e	0.051852338
29	0xbc4fad78	-0.0126756355
30	0x3d141e5a	0.036161758
31	0x3b25d200	0.0025302172
32	0xbd398315	-0.045291025
33	0x3c50893b	0.012728031
34	0xbca55e14	-0.020186462
35	0xbca82cef	-0.020529239
36	0xbcf96ee4	-0.030448385
37	0x3d67b52e	0.05656927
38	0x3ca72184	0.020401724
39	0x3d0cf4fc	0.034413323
40	0x3b5fd140	0.0034151822
41	0x3c18bf46	0.009322947
42	0xbcae9e06	-0.021315586
43	0x3c444bb0	0.011980936
44	0xbc0c7479	-0.008572691
45	0x3b858a30	0.004075311
46	0xbd492d2f	-0.049115356
47	0xbd63db59	-0.055629108
48	0x3cacfce2	0.021116678
49	0x3d5cfa9e	0.053949945
50	0xbaf8a580	-0.0018970221
51	0x3ceaf124	0.028679438
52	0x3cf35660	0.029704273
53	0xbcd1aad6	-0.025594156
54	0x3d117b6a	0.035518087
55	0x3d23cfa0	0.03999293
56	0x3bb76c62	0.005597637
57	0xbd31a470	-0.04336971
58	0xbce0b9a4	-0.02743227
59	0xbd4bf54a	-0.049794473
60	0x3c83bc78	0.01608108
61	0xbd5e91a4	-0.054338112
62	0xbd09b21e	-0.03361713
63	0x3d490623	0.049078118
64	0xbd41058e	-0.047124438
65	0x3d79610e	0.060883574
66	0xba106a80	-0.0005509034
67	0xbb295596	-0.0025838367
68	0x3ce6b8d8	0.028164312
69	0x3c9487e4	0.018131204
70	0xbc16c99b	-0.00920334
71	0x3bb73ea0	0.0055921823
72	0x3c4fe2e8	0.012688376
73	0x3d6f5ec2	0.058439977
74	0x3b0d1340	0.0021526366
75	0xbd1273c8	-0.03575495
76	0x3aad4540	0.0013219491
77	0xbd66a2e3	-0.056307685
78	0x3ca2c0bb	0.019867292
79	0x3c73ac1c	0.014872577
80	0x3d2c4400	0.042057037
81	0x3d51c273	0.05121083
82	0xbd63b4c0	-0.0555923
83	0xbd6f8e60	-0.05848539
84	0x3d08325c	0.03325115
85	0x3d54995c	0.051904067
86	0x3cc415af	0.02393612
87	0xbbf8b214	-0.007589588
88	0xbd50f9d6	-0.051019512
89	0x3c5f9f06	0.013648754
90	0xbd5e511a	-0.054276563
91	0x3cb414e4	0.021982618
92	0xbbf55520	-0.0074869543
93	0x3d498e34	0.04920788
94	0x3d4bd21e	0.04976093
95	0xbc601798	-0.0136775
96	0x3cf10478	0.029421076
97	0xbd31858c	-0.04334025
98	0xbcb82baa	-0.022481758
99	0xbcf1a568	-0.029497817
100	0x3d1e006c	0.03857462
101	0x3aef8c78	0.0018276116
102	0x3d70e6d3	0.05881388
103	0x3c6c5e38	0.01442676
104	0x3d16dab3	0.03682966
105	0xbc94c048	-0.018158093
106	0x3c67ed78	0.014155738
107	0x3c58c2c0	0.013230026
108	0xbd569e1a	-0.05239687
109	0x3cce2e14	0.025168456
110	0x3d446382	0.04794646
111	0xbd38796c	-0.045037672
112	0x3ceef6cd	0.029170418
113	0x3c7ea920	0.015543252
114	0x3cb15164	0.021645255
115	0xbd3dffdb	-0.04638658
116	0x3d2e3f56	0.04254087
117	0x3c88725f	0.016656099
118	0x3c0262c1	0.007958115
119	0xbc83e4ef	-0.016100375
120	0xbc907621	-0.017634453
121	0x3d65b7a8	0.05608335
122	0x3cdb823f	0.026795505
123	0x3d67641d	0.05649196
124	0x3cbd2b37	0.023091896
125	0xbd243842	-0.040092714
126	0x3d198511	0.037480418
127	0x3cf5756c	0.029963218
128	0x3d4955c1	0.049154047
129	0x3d288645	0.041143674
130	0xbd6554f2	-0.055989213
131	0x3d276eb6	0.040877067
132	0x3d2d31ae	0.042283706
133	0xbceea8b8	-0.029133186
134	0xbd12eab6	-0.03586837
135	0x3c307ca6	0.010771906
136	0x3d7bb200	0.06144905
137	0x3c149490	0.009068623
138	0x3d596544	0.05307509
139	0x3ac7b880	0.001523748
140	0xbc3cea1c	-0.011530425
141	0xbcd97f37	-0.026549919
142	0x3a84ce80	0.0010132343
143	0x3cb84484	0.022493608
144	0xbc99829c	-0.018739037
145	0xbd4cb8a6	-0.049980782
146	0xbd61a596	-0.055089556
147	0x3bb816e1	0.0056179618
148	0x3cc07566	0.02349348
149	0xbcf1f250	-0.029534489
150	0x3d236092	0.03988702
151	0x3b45badd	0.0030171194
152	0x3d509acc	0.050928876
153	0xbd3b30f6	-0.04570099
154	0xbd44f354	-0.04808362
155	0x3c14bc08	0.009078033
156	0xbc3cba48	-0.011519022
157	0x3c8381dc	0.016053133
158	0x3c7b3c10	0.015334144
159	0xbd3603ca	-0.044437207
160	0x3b9bcb6a	0.0047544735
161	0xbd775ee0	-0.060393214
162	0x3d7a44c2	0.06110073
163	0xbd4d9432	-0.05019016
164	0xbc711e45	-0.0147166895
165	0x3d4979bf	0.04918837
166	0x3d398760	0.04529512
167	0x3b6486c5	0.0034870368
168	0xbc3ec438	-0.011643462
169	0xbd739b48	-0.05947426
170	0xbd438b8c	-0.047740504
171	0xbcf199fc	-0.02949237
172	0x3d650608	0.055913955
173	0x3c8046d8	0.015658781
174	0x3d4f3dfa	0.050596215
175	0xbd169490	-0.036762774
176	0xbc4631b0	-0.012096807
177	0xbd1dccbc	-0.038525328
178	0x3d58b8ae	0.0529105
179	0x3cecc8e0	0.028904378
180	0xbd3997a7	-0.045310643
181	0x3c8c54e0	0.017130315
182	0xbd1b473d	-0.037909735
183	0x3b834840	0.0040064156
184	0x3c146c31	0.009058998
185	0x3d00ac6e	0.03141444
186	0x3d7779c3	0.060418855
187	0xbcebd92e	-0.028790083
188	0x3c3a3f50	0.011367634
189	0xbd1af72b	-0.037833374
190	0x3d7a2c38	0.061077327
191	0xbc6e4830	-0.014543578
192	0x3babc5e4	0.0052420963
193	0x3d0e54cf	0.03474885
194	0x3c732480	0.014840245
195	0x3d421482	0.04738284
196	0x3d447ce8	0.047970682
197	0xbc74e590	-0.01494731
198	0x3bf2236f	0.007389478
199	0xbc1d8349	-0.00961382
200	0xbd016da7	-0.031598713
201	0x3d0fb9a4	0.03508915
202	0xbd6f6d3a	-0.058453776
203	0xbcfb61a6	-0.03068621
204	0xbc01cf19	-0.007922911
205	0xbb5aa780	-0.0033363998
206	0xbd07cf67	-0.03315678
207	0xbd2cf403	-0.042224895
208	0xbc3896f7	-0.011266462
209	0xbcbf714e	-0.023369458
210	0x3d2b509c	0.041824922
211	0x3c5b7048	0.013393469
212	0xbc0b78cc	-0.008512687
213	0xbd33f6c2	-0.0439365
214	0x3d6742e2	0.05646027
215	0xbc7740d8	-0.015091144
216	0xbd121d18	-0.035672277
217	0x3cbae708	0.022815242
218	0x3cf59a74	0.029980876
219	0x3cefe9e4	0.029286332
220	0xbcd0bfe4	-0.025482126
221	0x3cd7638a	0.026292581
222	0x3c9a3953	0.018826162
223	0xbd15792c	-0.03649251
224	0x3d3072b8	0.043078154
225	0xbbb92840	-0.00565055
226	0xbd1f7395	-0.038928587
227	0xbcb08608	-0.021548286
228	0xbd0df2f3	-0.034655523
229	0x3d4627f0	0.04837793
230	0xbd188cfc	-0.03724383
231	0x3d405f85	0.046966095
232	0x3cce850e	0.02520993
233	0xbd66a35c	-0.056308135
234	0xbbfcec70	-0.0077186152
235	0x3b1a15aa	0.0023511448
236	0x3cac505c	0.021034412
237	0xbd179085	-0.03700306
238	0x3d0b77c0	0.03404975
239	0x3d167b02	0.036738403
240	0xbc03e667	-0.008050538
241	0xbc9763ff	-0.018480299
242	0xbd07e96d	-0.033181597
243	0x3be36130	0.006939076
244	0x3d63c3e8	0.055606753
245	0xbd15512a	-0.036454357
246	0xbd50ffbe	-0.051025145
247	0x3d6fd898	0.05855617
248	0x3cca7521	0.024714055
249	0xbd1e3f6a	-0.038634695
250	0xbd1732fb	-0.036913853
251	0x3cda8284	0.026673563
252	0x3d74d8fc	0.059777245
253	0x3d40bc50	0.04705459
254	0x3cdd50bf	0.027016042
255	0x3cb2b554	0.02181498

fc3.bias f4 [128]
0	0xbd28d4c8	-0.04121855
1	0x3d113823	0.035453927
2	0xbd420c5f	-0.04737508
3	0xbce62049	-0.028091567
4	0x3d0e930a	0.034808196
5	0xbbd2cf37	-0.0064333933
6	0xbd416fbc	-0.0472257
7	0x3d0e8d7f	0.03480291
8	0x3d664051	0.05621368
9	0x3cfcaa5c	0.030842952
10	0x3d531de4	0.051542178
11	0xbd5a011d	-0.053223718
12	0x3d49d2d3	0.049273323
13	0x3d751c85	0.05984165
14	0x3c35c339	0.011093908
15	0x3d0adbdf	0.03390109
16	0x3d383a8c	0.04497771
17	0xbcb416ad	-0.021983469
18	0xbca8b6cd	-0.020594979
19	0x3ca226ef	0.019793956
20	0xbd1d0687	-0.038336303
21	0x3baa3bef	0.005195133
22	0x3d365238	0.044512004
23	0xbd735a3c	-0.059412226
24	0x3d3e96af	0.04653042
25	0xbc2606ae	-0.0101334285
26	0x3d714197	0.058900442
27	0xbd788dca	-0.060682096
28	0xbbe2b170	-0.006918125
29	0xbc074a97	-0.00825753
30	0xbc7be2f8	-0.015373938
31	0x3c8d6fdd	0.017265255
32	0x3bd928f8	0.0066271983
33	0x3c9749b7	0.018467767
34	0xbd26e44f	-0.040745076
35	0xbcd50cd4	-0.026007093
36	0xbb894d81	-0.0041901474
37	0x3cda35e1	0.02663702
38	0x3c3a79e4	0.0113816
39	0x3d52593c	0.05135463
40	0xbc805350	-0.015664726
41	0x3c5e53f6	0.013569823
42	0xbd3922de	-0.045199268
43	0x3cfdc03c	0.030975454
44	0x3d6aee0f	0.057355937
45	0x3c769be1	0.015051813
46	0x3cea1692	0.028575215
47	0xbcbe464d	-0.023226881
48	0xbcc866ec	-0.02446314
49	0x3ca9f443	0.020746356
50	0xbd0305e7	-0.03198805
51	0xbd6fbc88	-0.058529407
52	0x3d53a3c9	0.05166987
53	0xbd31ed0f	-0.043438967
54	0xbb9fb693	-0.0048740595
55	0x3d62f7ca	0.05541209
56	0x3d233eb7	0.03985473
57	0xbc87ed41	-0.016592624
58	0x3cbb7224	0.022881575
59	0xbc1e05a6	-0.009644901
60	0xbc63da38	-0.013907008
61	0x3d6c2d28	0.05766025
62	0x3d1fa801	0.03897858
63	0xbbb8eb44	-0.00564328
64	0x3d3667b9	0.04453251
65	0xbcd0adfc	-0.025473587
66	0xbd45fcc7	-0.04833677
67	0x3d8ac58c	0.0677596
68	0x3cbc472c	0.022983156
69	0xbd176056	-0.036957107
70	0xbd420b50	-0.04737407
71	0x3caff663	0.021479791
72	0xbcec301a	-0.02883153
73	0x3c46f5a7	0.012143529
74	0x3d177649	0.03697804
75	0xbd8b390f	-0.067979924
76	0xbd09838d	-0.033572722
77	0xbd248bc4	-0.040172353
78	0x3cb489b3	0.022038316
79	0x3c61decc	0.013786029
80	0x3d58cddb	0.052930694
81	0xbcfb515f	-0.03067845
82	0x3d2eee0b	0.042707484
83	0xbbae4dc7	-0.0053193304
84	0xbc023160	-0.007946342
85	0x3d243f12	0.04009921
86	0x3ba0874f	0.0048989425
87	0x3c574050	0.013137892
88	0xbcaa7acc	-0.020810507
89	0x3d3a6383	0.045505058
90	0xbd1661b6	-0.03671428
91	0x3cf7bf18	0.030242488
92	0xbd31f95e	-0.043450706
93	0xbc883f54	-0.01663176
94	0x3cdb0595	0.02673606
95	0xbccedd52	-0.025252018
96	0xbb41d780	-0.002957791
97	0x3d499b96	0.049220644
98	0xbcedf264	-0.029046245
99	0x3cc9c24a	0.024628777
100	0xbd75168e	-0.059835963
101	0xbc212848	-0.009836264
102	0x3d4f756e	0.0506491
103	0xbd122c51	-0.035686795
104	0xbd00a16d	-0.031403948
105	0xbc11e2e0	-0.008904189
106	0x3d324732	0.04352493
107	0x3d09347a	0.03349731
108	0x3cdad99e	0.026715096
109	0x3d310ec2	0.043226965
110	0x3ca296a1	0.019847216
111	0x3d0da876	0.034584485
112	0x3b2a254d	0.0025962174
113	0x3b812698	0.0039413683
114	0x3d710108	0.058838874
115	0x3b65c310	0.0035058893
116	0xbd8641be	-0.06555508
117	0xbd213fcc	-0.039367482
118	0xbd783442	-0.060596712
119	0xbd03d740	-0.0321877
120	0x3d47d2d2	0.04878504
121	0x3d2ec951	0.04267246
122	0xbc9e6fac	-0.019340359
123	0x3cc48fde	0.023994382
124	0xbcd4beb0	-0.025969833
125	0x3c06fef4	0.0082394965
126	0xbd7dbc7b	-0.061947327
127	0xbd443932	-0.04790611

out.weight f4 [7, 128]
0	0xbd9c382d	-0.07627902
1	0xbccf4303	-0.025300508
2	0xbd774675	-0.060369927
3	0x3c31c9d0	0.0108513385
4	0xbd140da3	-0.036145817
5	0x3bbcc849	0.0057611805
6	0xbd65b29a	-0.05607853
7	0xbd3d1729	-0.046164665
8	0x3d862f1e	0.06551956
9	0x3d32b528	0.043629795
10	0xbd593ce0	-0.05303657
11	0xbcf590fa	-0.029976357
12	0x3bf6a457	0.007526915
13	0xbd0d318a	-0.034471072
14	0xbd9aed52	-0.075647965
15	0x3d2ab8dd	0.041680206
16	0x3c94de8a	0.018172521
17	0x3d9843e0	0.07434821
18	0xbd2fa545	-0.042882223
19	0xbca32b24	-0.019918032
20	0xbd18421c	-0.03717242
21	0x3d80ad0e	0.062830076
22	0x3cbdd2f6	0.023171883
23	0xbd9bbf1b	-0.0760481
24	0x3cd0f77f	0.02550864
25	0x3d1f9ae0	0.03896606
26	0xbd6d0afb	-0.0578718
27	0xbcc98a55	-0.024602095
28	0xbd53537e	-0.051593296
29	0x3d540d02	0.051770218
30	0x3d8b8c13	0.068138264
31	0x3ba59156	0.005052726
32	0x3cf0286f	0.029316155
33	0x3d5cc3a2	0.053897507
34	0xbca3a61a	-0.019976664
35	0xbd72fa01	-0.059320454
36	0xbc77c701	-0.01512313
37	0xbda05623	-0.07828929
38	0xbd13a37d	-0.036044586
39	0x3d7c44fd	0.06158923
40	0x3b4050aa	0.0029344955
41	0x3d8f4c16	0.06996934
42	0xbc1d4e16	-0.009601137
43	0x3d5dc50a	0.05414299
44	0x3d8dc6a8	0.06922656
45	0xbcda0790	-0.026614934
46	0x3d8b940e	0.068153486
47	0xbd893bbf	-0.06700849
48	0x3d9bca89	0.0760699
49	0xbcb4d43d	-0.02207386
50	0x3d876c1f	0.06612419
51	0xbd8e42ca	-0.06946333
52	0xbda60323	-0.08106067
53	0x3b06f7e9	0.0020594543
54	0x3c07f931	0.008299158
55	0xbd3b44d3	-0.045719933
56	0x3dbea9fc	0.09309766
57	0xbd58c767	-0.05292454
58	0xbda79d5f	-0.08184313
59	0xbd8c67c1	-0.06855727
60	0x3cccca55	0.024998823
61	0x3d8d3cc7	0.06896358
62	0xbd112cb8	-0.035443038
63	0x3cf238ae	0.029568043
64	0x3d5685a7	0.052373555
65	0xbbe227c8	-0.006901715
66	0x3db48c06	0.0881577
67	0xbcce8e0d	-0.02521422
68	0x3caf4089	0.021393077
69	0xbd27cc36	-0.040966235
70	0xbd9312ed	-0.07181344
71	0x3dc71ca9	0.09722263
72	0xbd269fae	-0.040679626
73	0x3c6b065c	0.014344778
74	0xbde08b9d	-0.10964129
75	0xbcd53918	-0.026028201
76	0x38ac556d	8.217511e-05
77	0x3d668021	0.056274537
78	0x3d6d7896	0.057976328
79	0xbda4f3a4	-0.08054283
80	0xbd8e2b46	-0.069418475
81	0x3d57ec39	0.052715514
82	0xbdac1402	-0.08402254
83	0xbd581223	-0.05275167
84	0x3c5a76fb	0.013334031
85	0xbd9a0323	-0.075201295
86	0xbc8e6243	-0.01738084
87	0xbd837cb3	-0.06420269
88	0xbc3cf21c	-0.011532333
89	0xbd91382a	-0.070907906
90	0xbc9ed988	-0.019390836
91	0xbce51e93	-0.02796868
92	0xbd2ede25	-0.042692322
93	0xbd089d91	-0.033353392
94	0x3d968563	0.0734966
95	0x3c050cf8	0.008120768
96	0x3d8e8c85	0.06960396
97	0xbd0ca68c	-0.03433852
98	0x3daac8e9	0.08339102
99	0xbd26663e	-0.04062485
100	0x3c60c3da	0.01371857
101	0x3ceb05a3	0.028689211
102	0x3da2c9c4	0.0794864
103	0x3ce530b3	0.027977323
104	0xbd1deb18	-0.03855428
105	0xbc5a5590	-0.013326064
106	0xbbbc725c	-0.0057509374
107	0xbd9cf58d	-0.076640226
108	0xbd8b5acb	-0.06804427
109	0x3d836ec3	0.064176105
110	0xbd61a0bf	-0.05508494
111	0x3d9d9690	0.07694733
112	0x3d327f17	0.043578234
113	0xbc7df864	-0.0155011155
114	0x3d83b17c	0.06430337
115	0x3d08b468	0.033375174
116	0xbd9a78ba	-0.07542558
117	0xbd70d1d5	-0.05879386
118	0xbd46dde4	-0.048551455
119	0xbd7d7cad	-0.06188648
120	0xbdd4ae6b	-0.1038483
121	0x3a609dec	0.0008568454
122	0x3d601057	0.054703083
123	0xbda24689	-0.0792361
124	0xbd07e8d6	-0.033181034
125	0xbd16426f	-0.03668445
126	0x3ab8d8a5	0.0014102651
127	0xbcffefee	-0.031242337
128	0x3d7e546c	0.06209223
129	0x3c9ca58c	0.019121908
130	0x3d0c4038	0.03424093
131	0x3daa74d6	0.08323066
132	0xbba0978c	-0.0049008783
133	0x3db66426	0.089058205
134	0x3cacbf03	0.021087175
135	0x3d1ec755	0.038764317
136	0xbd27f734	-0.041007236
137	0xbd8fab11	-0.0701505
138	0xbdaff404	-0.08591464
139	0x3d28033d	0.041018713
140	0x3db8f6d2	0.09031452
141	0x3cbe00a2	0.023193661
142	0x3d372898	0.044716448
143	0x3b00fbe9	0.00196814
144	0x3d8df98c	0.06932363
145	0xbd46252f	-0.048375305
146	0xbca9e20e	-0.020737674
147	0xbd1aa4a1	-0.03775466
148	0xbd8362cd	-0.06415329
149	0xbd3495c7	-0.04408815
150	0xbc0fa177	-0.008766524
151	0x3c872e34	0.016501524
152	0x3cf60ce6	0.030035447
153	0xbb8bb562	-0.004263566
154	0xbd18bc2e	-0.037288837
155	0x3c58f724	0.013242517
156	0x3c3e6e41	0.011622966
157	0x3d6e6850	0.05820495
158	0xbd73f82b	-0.059562843
159	0x3cbcb908	0.023037449
160	0xbdaba2a4	-0.083806306
161	0xbc575080	-0.013141751
162	0xbd9fdd1b	-0.078058444
163	0x3d21ba42	0.03948427
164	0x3d8089a2	0.062762514
165	0x3da66009	0.08123786
166	0x3d0d5415	0.034504015
167	0xbd9f7499	-0.07785911
168	0xbcf3eb02	-0.029775146
169	0xbd2a2d5b	-0.04154716
170	0x3da73fbc	0.08166453
171	0x3d9d2b70	0.07674301
172	0x3cd014b2	0.025400493
173	0xbdb15ed9	-0.08660669
174	0xbda57ec0	-0.08080816
175	0xbd6ca801	-0.05777741
176	0xbd9bf83f	-0.076157086
177	0x3d2bdcc1	0.041958574
178	0x3cc294fc	0.023752682
179	0xbd6d1809	-0.05788425
180	0xbdb6dc37	-0.089287214
181	0xbda96288	-0.082707465
182	0x3d125b6a	0.03573171
183	0x3c9bb53e	0.019007321
184	0x3bac83ab	0.0052647195
185	0x3abcf54d	0.0014416367
186	0xbd825e15	-0.06365601
187	0xbd611e00	-0.05496025
188	0x3b87ee51	0.0041482826
189	0x3d35a533	0.044347
190	0x3d8c7133	0.068575285
191	0xbd8e3899	-0.06944389
192	0x3cb0dc1e	0.021589335
193	0x3d657f8c	0.05602984
194	0x3cb52b48	0.022115365
195	0x3d84f5a8	0.06492168
196	0x3d805de5	0.06267909
197	0x3cf546b2	0.029940937
198	0xbcbef302	-0.023309235
199	0x3d4d467e	0.050116055
200	0x3c50a6b2	0.012735056
201	0x3d6527a8	0.055946022
202	0xbe02a8e2	-0.12759736
203	0x3d18f6e5	0.037344832
204	0x3d4be8fb	0.049782734
205	0x3cf1037c	0.029420607
206	0xbb9ae5d8	-0.0047271065
207	0x3da06f42	0.07833721
208	0x3da9993f	0.082811825
209	0xbc8ead28	-0.017416552
210	0x3cbf9ebd	0.023391122
211	0xbd83923c	-0.06424376
212	0xbce1948b	-0.027536651
213	0x3dab6aee	0.083700046
214	0x3cd960e2	0.026535455
215	0xbdba1c35	-0.09087411
216	0x3d9e1e6c	0.07720646
217	0xbd5e2ec0	-0.054243803
218	0xbc1cbe70	-0.009566888
219	0xbba93d7e	-0.005164801
220	0xbcc40939	-0.023930179
221	0x3d39c957	0.04535803
222	0x3c7cc9ed	0.015429002
223	0xbd958365	-0.07300452
224	0x3c436f1e	0.011928348
225	0x3d88c20a	0.06677635
226	0x3d80b13a	0.06283803
227	0x3c733104	0.014843229
228	0x3bd490c7	0.0064869854
229	0x3c95fc4c	0.018308781
230	0xbb14479c	-0.002262569
231	0x3d1a8a4b	0.037729543
232	0x3d93dd72	0.07219972
233	0x3d21ffde	0.039550655
234	0xbc27ba21	-0.010237248
235	0xbd07b290	-0.033129275
236	0x3c631128	0.013859071
237	0x3d04fe8f	0.03246933
238	0xbd46f246	-0.048570894
239	0x3da13626	0.07871656
240	0x3d4c0cb4	0.049816802
241	0xbdeea9dc	-0.11653492
242	0x3d481520	0.04884827
243	0xbd854613	-0.06507506
244	0xbd3f4c0a	-0.046703376
245	0x3d09422a	0.033510365
246	0xbd87ed28	-0.06637031
247	0x3c9cd1ff	0.019143103
248	0xbda246ec	-0.079236835
249	0x3be7ef67	0.0070780995
250	0x3d934121	0.07190157
251	0xbd915314	-0.07095924
252	0xbd3800c5	-0.04492261
253	0xbd65f606	-0.05614283
254	0x3c3109ca	0.010805557
255	0xbd3021a8	-0.043000847

out.bias f4 [7]
0	0x3c8bb2c9	0.017053025
1	0xbd6ed3a5	-0.05830731
2	0xbd2068b0	-0.039162338
3	0x3d0d9729	0.034567986
4	0xbd0d933a	-0.034564234
5	0x3d6ba805	0.057533283
6	0xbd09cd6e	-0.03364318
